test/cnn_lstm_model.pth (torch, 149231 bytes, 8 tensors)

conv.weight f4 [64, 13, 3]
-0.23913847 -0.12997094 -0.3393768 -0.2792762 -0.16836058 -0.118523724 -0.2421279 -0.14226165
-0.108105086 -0.087416016 0.0016513495 -0.263759 0.11812383 -0.1248581 0.20181052 -0.1590032
-0.20593846 0.05205976 0.019713085 -0.043967854 -0.06916383 -0.004993654 -0.08038735 0.11723195
0.21828867 0.037704352 0.067018986 -0.029668609 -0.022202369 0.028245693 0.200237 0.16425209
0.115066275 -0.015761107 -0.085363805 -0.47505283 0.11056381 -0.15833768 0.07952066 0.056338783
-0.06304952 -0.32213777 -0.101992905 -0.15381944 -0.0674455 -0.14500731 -0.07068196 -0.19791117
-0.08326785 -0.24367318 -0.26723498 0.028690562 -0.18616402 0.06644925 0.06597963 -0.14508474
-0.11184616 0.025470221 0.012965799 -0.09507728 -0.15604162 -0.13549228 -0.16923949 0.22075924
-0.098098546 0.17850038 -0.108993955 -0.15196508 0.008985623 0.10627071 0.020408014 -0.08505014
-0.18610409 -0.23520653 -0.21261817 -0.12353738 0.0047306065 0.07086499 -0.065015025 0.040111564
-0.10358624 0.047616515 -0.026611567 0.019902598 0.051288385 0.01937932 -0.14080757 -0.06743117
0.08491759 0.10058318 0.1696771 0.0059263995 0.01636324 -0.09598931 0.0882729 0.0757398
0.08395405 0.07877243 0.023204006 -0.035187956 -0.21812217 -0.005867243 0.048502482 -0.011924421
-0.12295831 0.041333996 0.08638239 -0.08563366 -0.18087626 -0.20814027 -0.09608273 -0.12739271
-0.041327547 0.07968629 0.105338104 -0.18591838 -0.0036882178 -0.041377787 0.07836435 0.1765299
-0.13614227 -0.04829621 0.04237655 0.18628855 0.16546345 0.13895606 -0.11034364 0.0913076
0.038708217 0.1375014 -0.005280906 0.09065848 0.05774152 -0.12698998 -0.11792547 -0.004074292
-0.04353445 0.08256639 0.12236858 0.11461676 -0.01485572 0.1341746 0.13096833 -0.14858465
0.088441364 -0.044820182 -0.024006266 -0.07635764 -0.003499337 -0.11469915 0.032015916 0.1320395
0.07586811 -0.0737273 0.20114787 -0.26617068 -0.1467359 -0.16568579 0.10887152 -0.060876843
-0.17712337 0.077437654 -0.15365359 0.047748756 -0.02351018 -0.13251688 -0.1288401 -0.0960524
0.088784054 -0.14293209 -0.29406446 0.12101705 0.21937753 -0.063422345 0.14605181 0.0023960166
0.06943287 0.17712067 0.15953752 -0.30682233 0.07462873 0.08399998 -0.10677355 -0.13635805
0.016064988 0.0003401332 0.038433176 -0.0069781463 -0.043199852 0.09945798 -0.10248107 -0.08810514
0.047684528 -0.16008806 -0.1747716 -0.1271869 -0.15381087 0.08110528 -0.14177822 0.0876808
-0.10251948 -0.08315252 -0.070626974 0.06627336 -0.15229802 0.023251683 -0.09826969 0.098125994
-0.050786763 0.11383337 0.09918246 -0.10152912 -0.09337533 -0.1586134 -0.050188616 0.12675384
0.056191623 0.012775481 0.11467075 0.0057073534 -0.023770452 -0.029666558 -0.04494863 0.108828306
-0.100128084 -0.010321006 0.046901047 0.09248629 0.0040216446 -0.08190345 -0.10574365 -0.10541019
0.15077811 -0.06858936 0.100779645 -0.14302368 -0.11259005 -0.060103893 -0.12579232 0.019558001
-0.19074617 0.027265687 0.062688515 0.019564046 -0.13849026 0.09014214 -0.06664772 -0.07531816
-0.06940056 0.08898422 0.08677479 0.116274945 -0.18324427 0.0013351183 0.11293972 0.08640435
00000000: b7e0 74be 1a17 05be ccc2 adbe 4afd 8ebe
00000010: b766 2cbe 91bc f2bd 60f0 77be 0aad 11be
00000020: 3366 ddbd 2b07 b3bd 1872 d83a 6b0b 87be
00000030: e8ea f13d 9bb5 ffbd 6ba7 4e3e bcd1 22be
00000040: 88e1 52be 9d3c 553d 567d a13c a317 34bd
00000050: c4a5 8dbd cea1 a3bb 1fa2 a4bd 4e17 f03d
00000060: 1187 5f3e e16f 1a3d 4041 893d 950b f3bc
00000070: bee1 b5bc 8363 e73c ee0a 4d3e b331 283e
00000080: dea7 eb3d 701d 81bc 38d3 aebd 203a f3be
00000090: 476f e23d 4623 22be badb a23d 7fc3 663d
000000a0: 1b20 81bd 3eef a4be a8e1 d0bd d882 1dbe
000000b0: de20 8abd cc7c 14be b4c1 90bd 3aa9 4abe
000000c0: 5688 aabd 7685 79be 06d3 88be 7808 eb3c
000000d0: c8a1 3ebe 8b16 883d 5420 873d 1891 14be
000000e0: 990f e5bd eda6 d03c 816e 543c e1b7 c2bd
000000f0: 60c9 1fbe 7dbe 0abe 1e4d 2dbe b60e 623e
00000100: e4e7 c8bd cec8 363e 3938 dfbd bc9c 1bbe
00000110: 6f38 133c 75a4 d93d b52e a73c c52e aebd
00000120: 1292 3ebe fbd9 70be 94b8 59be 2a01 fdbd
00000130: 3403 9b3b aa21 913d 9926 85bd 064c 243d
00000140: 0625 d4bd 8909 433d 8000 dabc c60a a33c
00000150: c513 523d 61c1 9e3c dc2f 10be 5a19 8abd
00000160: 46e9 ad3d 8efe cd3d d5bf 2d3e 3e32 c23b
00000170: 340c 863c 0b96 c4bd 6cc8 b43d 781d 9b3d
00000180: 1af0 ab3d 7153 a13d 5416 be3c 3f21 10bd
00000190: 6b5b 5fbe 0042 c0bb 8aaa 463d a65e 43bc
000001a0: 91d1 fbbd d64d 293d 40e9 b03d b360 afbd
000001b0: a037 39be b922 55be 06c7 c4bd 3c73 02be
000001c0: 1347 29bd 9132 a33d 81bb d73d 6361 3ebe
000001d0: 07b6 71bb c17b 29bd 7d7d a03d 41c4 343e
000001e0: e168 0bbe 3fd2 45bd 0993 2d3d 6dc2 3e3e
000001f0: 406f 293e 7f4a 0e3e d9fb e1bd 7bff ba3d
00000200: 828c 1e3d 2bcd 0c3e 730b adbb 27ab b93d
00000210: 5f82 6c3d a909 02be e982 f1bd a381 85bb
00000220: 2e51 32bd 9118 a93d 619c fa3d 31bc ea3d
00000230: 6865 73bc 1165 093e 901c 063e 9326 18be
00000240: bf20 b53d 5e95 37bd caa8 c4bc 6561 9cbd
00000250: 2255 65bb 63e7 eabd 1f23 033d 5d35 073e
00000260: bd60 9b3d 57fe 96bd b5f9 4d3e 8647 88be
00000270: f041 16be 89a9 29be 08f8 de3d ff59 79bd
00000280: d45f 35be a297 9e3d 5e57 1dbe 3394 433d
00000290: 6c98 c0bc 81b2 07be a9ee 03be 1fb7 c4bd
000002a0: 6ad4 b53d ca5c 12be 9e8f 96be cad7 f73d
000002b0: 81a4 603e 93e3 81bd 9b8e 153e 7d06 1d3b
000002c0: d232 8e3d 1f5f 353e ce5d 233e d117 9dbe
000002d0: f3d6 983d 2e08 ac3d 17ac dabd 72a1 0bbe
000002e0: b99a 833c e853 b239 1b6c 1d3d efa8 e4bb
000002f0: 54f2 30bd a0b0 cb3d 98e1 d1bd 7870 b4bd
00000300: da50 433d 20ee 23be 54f7 32be 483d 02be
00000310: 9980 1dbe 861a a63d 4f2e 11be fe91 b33d
00000320: bcf5 d1bd de4b aabd e0a4 90bd 54ba 873d
00000330: 03f4 1bbe 507a be3c 9f41 c9bd 48f6 c83d
00000340: c805 50bd 7821 e93d 2c20 cb3d 80ee cfbd
00000350: 913b bfbd 8d6b 22be 9492 4dbd c2cb 013e
00000360: 3029 663d 4050 513c 80d8 ea3d c004 bb3b
00000370: 40ba c2bc 4807 f3bc 0e1c 38bd 60e1 de3d
00000380: f40f cdbd 7019 29bc 501b 403d 7469 bd3d
00000390: 00c8 833b ffbc a7bd 2090 d8bd 4ce1 d7bd
000003a0: 9465 1a3e 9478 8cbd 8f65 ce3d cd74 12be
000003b0: 9d95 e6bd 802f 76bd b4cf 00be 1a38 a03c
000003c0: f752 43be 4a5c df3c d662 803d c744 a03c
000003d0: 64d0 0dbe 719c b83d 9a7e 88bd 6840 9abd
000003e0: e121 8ebd 5c3d b63d fbb6 b13d 8f21 ee3d
000003f0: 63a4 3bbe 23ff ae3a f14c e73d c4f4 b03d

conv.bias f4 [64]
-0.16743346 -0.09155356 -0.039658025 0.01715464 0.034598503 -0.14200652 0.09013223 0.054132562
-0.10661998 0.0054483665 -0.13322064 -0.005842423 -0.18758671 -0.1690516 -0.073251195 -0.12763663
-0.14466284 -0.1251439 0.1070033 0.111691564 -0.22477454 -0.007049224 -0.09731622 -0.18742067
0.15004027 0.16312306 0.023260059 0.16867249 0.010410387 0.09660113 0.07150996 0.08274856
0.07291456 0.08643041 -0.09871184 -0.030792791 0.036924787 -0.017206466 0.18179129 -0.17376609
-0.061216276 -0.10498802 -0.012388548 0.087099805 -0.07998546 -0.27410838 -0.16674902 -0.016365005
0.14002618 0.10404843 0.06485117 -0.13421392 0.109672114 0.14142299 -0.19449498 0.09522071
-0.012454101 0.04656784 -0.12720433 -0.10186932 0.12006103 -0.08342439 -0.1285851 -0.09156574
00000000: ad73 2bbe 6f80 bbbd 7470 22bd e387 8c3c
00000010: 29b7 0d3d 286a 11be 3f97 b83d 1bba 5d3d
00000020: 935b dabd 3688 b23b fe6a 08be cc71 bfbb
00000030: bb16 40be dd1b 2dbe b904 96bd 2db3 02be
00000040: 7f22 14be b925 00be 8c24 db3d 8cbe e43d
00000050: 4c2b 66be 2dfd e6bb ba4d c7bd 34eb 3fbe
00000060: 28a4 193e bb09 273e e18b be3c 7bb8 2c3e
00000070: 5490 2a3c d0d6 c53d d073 923d 1478 a93d
00000080: 3b54 953d 6d02 b13d 6f29 cabd 2a41 fcbc
00000090: 723e 173d 93f4 8cbc 7f27 3a3e bdef 31be
000000a0: ebbd 7abd f603 d7bd 56f9 4abc 6261 b23d
000000b0: 6bcf a3bd ef57 8cbe 41c0 2abe e70f 86bc
000000c0: 0663 0f3e 5817 d53d b1d0 843d 606f 09be
000000d0: c69b e03d 30d1 103e b129 47be 1303 c33d
000000e0: 490c 4cbc ebbd 3e3d da41 02be dda0 d0bd
000000f0: 8fe2 f53d 68da aabd d0ab 03be d286 bbbd

lstm.weight_ih_l0 f4 [256, 64]
0.13905072 0.3475052 0.014901714 -0.16861773 0.16549417 -0.05621749 0.13638416 -0.24239302
0.08708632 -0.09910805 0.057856318 -0.33258048 0.14243819 -0.2749524 -0.04296559 0.07908396
-0.08439723 0.077269815 -0.24295212 -0.17728582 -0.17130758 -0.21980599 -0.09307101 -0.14441806
-0.0119723845 -0.027722228 -0.01789285 -0.22582242 0.0018468702 0.13045314 -0.2197153 -0.101676404
-0.03825026 -0.15832403 -0.17356119 -0.052038133 0.25796878 -0.34647033 0.009643344 -0.04202008
0.20794326 -0.17466521 0.0996813 0.097244546 0.16270104 -0.2311275 0.28761908 0.012582606
-0.039304193 0.021743907 0.20936084 0.071214676 0.35043922 -0.33807552 0.041252382 0.014589853
-0.1067478 0.0068232697 0.03085906 -0.033380825 -0.47972423 -0.6641996 -0.037855994 0.024567097
0.008355576 -0.06684123 0.055701993 -0.041321687 0.0855566 -0.08512074 0.04687447 -0.0936195
0.05302949 0.014868396 0.12796508 -0.054939765 0.2990284 0.089064576 0.08944787 0.56724447
-0.12821755 -0.060674038 -0.15503502 -0.06633133 0.17399101 -0.15383449 -0.031944226 0.07636773
-0.114963755 -0.08000976 0.031286884 -0.050577868 -0.22062147 -0.03268993 -0.027504856 -0.045600846
-0.16180134 -0.12857175 0.065670066 0.09390645 0.46793494 -0.2786079 -0.024544891 -0.08500065
0.010535968 -0.0737895 0.11725219 0.049402926 0.04694299 -0.023234302 0.021155883 -0.037347082
0.08795392 0.06531534 -0.22417293 0.11723309 0.3169116 -0.09506129 -0.09242292 -0.0543438
0.027857253 0.062719256 0.09608613 0.10130665 -0.23224732 -0.37888065 -0.0069001466 -0.11647107
0.0590608 -0.1131062 -0.046362456 0.035442207 -0.044511307 -0.10612437 -0.12669642 -0.00019954098
-0.078643404 0.060910642 0.0223634 0.01461414 0.005451492 0.09249879 0.002781272 0.40775022
-0.112804696 0.03124572 0.020438282 -0.12657547 0.05615998 0.17135791 0.21561283 0.31928727
-0.18602827 0.10151851 0.11933433 -0.07016909 0.4563132 -0.059244145 0.20078915 -0.042758286
0.05458521 -0.0037361612 0.07498405 -0.07217925 0.4045865 -0.015859855 0.22622006 0.0978869
0.19255482 -0.021838808 0.07271186 -0.030584091 0.02011955 0.12053839 0.012420001 0.06549589
0.06381899 0.09972073 -0.12456058 -0.15114184 0.064156376 -0.32924786 -0.03215758 0.007203334
0.18589634 0.08316219 -0.07750042 -0.043473355 -0.037385806 -0.03780259 0.045448326 0.055141643
0.04081319 -0.0037185918 -0.09372211 -0.07132471 -0.008290821 -0.10562271 0.03770359 -0.34868816
-0.14078674 0.015250116 -0.10170965 0.15146941 0.05865939 -0.2976585 -0.033936545 0.023987986
-0.048140068 0.022357034 -0.049054522 0.03169498 0.050682627 0.032713313 -0.28630647 -0.38742226
-0.0851271 -0.1619424 -0.19506906 0.025069484 -0.15170963 0.20325582 -0.23677032 -0.05307457
0.015947485 -0.23081504 -0.10622238 0.06825892 -0.08960496 0.17113926 -0.17216128 0.031159313
-0.27523988 -0.19965853 -0.09705086 0.1241001 -0.10278483 -0.30132267 -0.17386442 0.083738826
-0.07400957 -0.035270877 -0.14187607 0.08411954 0.069846585 -0.4283036 0.027659342 -0.14976764
-0.0006274809 -0.06556939 0.035852082 -0.09085346 -0.26548296 -0.41079712 -0.019305341 0.03842351
00000000: 5063 0e3e 34ec b13e 5226 743c 20aa 2cbe
00000010: 4e77 293e 5044 66bd 4aa8 0b3e e035 78be
00000020: 505a b23d 29f9 cabd bffa 6c3d fd47 aabe
00000030: 51db 113e 90c6 8cbe b0fc 2fbd c5f6 a13d
00000040: 74d8 acbd a33f 9e3d 71c8 78be 6a8a 35be
00000050: 416b 2fbe d214 61be 049c bebd 54e2 13be
00000060: d227 44bc ba19 e3bc 0794 92bc fe3d 67be
00000070: ae12 f23a 8295 053e 0cfd 60be b83b d0bd
00000080: 4eac 1cbd b21f 22be 06ba 31be f025 55bd
00000090: 7c14 843e 8f64 b1be 1eff 1d3c 3f1d 2cbd
000000a0: 14ef 543e 70db 32be b625 cc3d 2628 c73d
000000b0: 1a9b 263e b0ac 6cbe cf42 933e 4627 4e3c
000000c0: 6ffd 20bd 4720 b23c b062 563e 00d9 913d
000000d0: c56c b33e 3c18 adbe 42f8 283d 470a 6f3c
000000e0: 979e dabd bc95 df3b 24cc fc3c 55ba 08bd
000000f0: 6a9e f5be fc08 2abf e30e 1bbd f040 c93c
00000100: d3e5 083c 0ee4 88bd c627 643d ee40 29bd
00000110: 4c38 af3d c853 aebd 72ff 3f3d 95bb bfbd
00000120: 7335 593d 939a 733c 4709 033e 8508 61bd
00000130: 401a 993e 7d67 b63d 7230 b73d ef36 113f
00000140: 764b 03be 5785 78bd 80c1 1ebe b8d8 87bd
00000150: b32a 323e ca86 1dbe f3d7 02bd af66 9c3d
00000160: 1e72 ebbd 28dc a3bd ad26 003d bd2a 4fbd
00000170: 98ea 61be e0e5 05bd dd51 e1bc f4c7 3abd
00000180: 40af 25be 50a8 03be 077e 863d 0652 c03d
00000190: 2b95 ef3e b2a5 8ebe 5e12 c9bc d214 aebd
000001a0: 0d9f 2c3c f31e 97bd eb21 f03d b95a 4a3d
000001b0: 4b47 403d dd55 bebc 1a4f ad3c 41f9 18bd
000001c0: 2f21 b43d 0dc4 853d 978d 65be e717 f03d
000001d0: 3d42 a23e 7eaf c2bd 3a48 bdbd 9b97 5ebd
000001e0: e534 e43c f472 803d cec8 c43d dc79 cf3d
000001f0: 3ed2 6dbe a5fc c1be a01a e2bb 6288 eebd
00000200: bde9 713d 39a4 e7bd 8fe6 3dbd d92b 113d
00000210: 7d51 36bd bc57 d9bd b5bc 01be e03b 51b9
00000220: cb0f a1bd 707d 793d 7333 b73c 2570 6f3c
00000230: 6ea2 b23b 0170 bd3d 0046 363b a3c4 d03e
00000240: 2606 e7bd 06f7 ff3c 2f6e a73c 009d 01be
00000250: 0208 663d 7378 2f3e 9cc9 5c3e 9f79 a33e
00000260: 327e 3ebe f0e8 cf3d 8f65 f43d d0b4 8fbd
00000270: e2a1 e93e fda9 72bd ac9b 4d3e 5023 2fbd
00000280: be94 5f3d 62da 74bb 3d91 993d b7d2 93bd
00000290: f625 cf3e 87ec 81bc 3ba6 673e ed78 c83d
000002a0: 172d 453e 4de7 b2bc f5e9 943d 7d8b fabc
000002b0: c1d1 a43c d5dc f63d 437d 4b3c b622 863d
000002c0: 88b3 823d 623a cc3d 9e19 ffbd edc4 1abe
000002d0: 6b64 833d 2d93 a8be abb7 03bd f209 ec3b
000002e0: 9c5b 3e3e f050 aa3d 8ab8 9ebd 1e11 32bd
000002f0: dc21 19bd e3d6 1abd 0628 3a3d 34dc 613d
00000300: bb2b 273d 9eb3 73bb 61f1 bfbd b112 92bd
00000310: 39d6 07bc b850 d8bd 146f 1a3d 4187 b2be
00000320: 662a 10be 9fdb 793c 264d d0bd cc1a 1b3e
00000330: d444 703d b266 98be 0c01 0bbd 7482 c43c
00000340: 852e 45bd 1926 b73c 65ed 48bd 98d2 013d
00000350: 9698 4f3d 65fe 053d c396 92be 365c c6be
00000360: 1e57 aebd 3ad4 25be 2fc0 47be 855e cd3c
00000370: c559 1bbe 4b22 503e eb73 72be b864 59bd
00000380: 4da4 823c c75a 6cbe 1f8b d9bd 55cb 8b3d
00000390: ce82 b7bd 213f 2f3e 0c4b 30be d141 ff3c
000003a0: 3eec 8cbe 4973 4cbe 9ac2 c6bd 3128 fe3d
000003b0: da80 d2bd f746 9abe 8409 32be 437f ab3d
000003c0: 5492 97bd 3278 10bd f647 11be de46 ac3d
000003d0: ba0b 8f3d 9c4a dbbe d895 e23c b05c 19be
000003e0: 887d 24ba 3f49 86bd a2d9 123d 6111 babd
000003f0: 62ed 87be 0054 d2be 3c26 9ebc f861 1d3d

lstm.weight_hh_l0 f4 [256, 64]
0.10292847 -0.13173653 0.5060984 -0.19219652 -0.22704005 -0.014856582 0.2984996 0.2359184
0.21277116 -0.22330236 0.14662924 0.15808235 -0.044783257 -0.19419429 0.023775214 -0.056747492
-0.047118224 0.07153194 0.09219688 -0.1326334 -0.118934445 -0.38650548 -0.31075862 0.06575024
-0.17105725 0.01999046 0.07004265 -0.11905477 0.04486444 0.09851841 0.12504901 0.22941671
-0.0149067 0.03390135 0.23056681 -0.11341399 -0.08213853 -0.05293654 -0.022371434 -0.043317553
-0.043211207 -0.3651002 -0.08303904 -0.15135247 -0.06394454 -0.09099179 0.072097205 -0.2720076
-0.1406761 0.105027966 -0.13357024 0.1159402 0.107458144 0.051030707 -0.17986879 -0.03284425
-0.1077454 -0.045777127 -0.015957994 -0.09257078 -0.021331148 -0.13837914 -0.037484985 0.15727235
-0.003613363 0.03427302 0.6138723 -0.018483562 -0.1513216 0.12614286 -0.01071058 0.18488078
0.17810221 -0.22511795 0.06735157 0.10381718 0.103606194 -0.21634832 0.12515879 0.14149638
-0.068071455 0.12078377 -0.07064302 0.041310035 -0.0038431105 -0.22201554 -0.27640253 -0.07346427
-0.089906536 -0.025933277 -0.124966875 -0.12707645 0.16780387 0.11289924 0.060426928 0.09481818
0.06669229 0.13337836 -0.03390157 -0.005138671 0.036576007 -0.13513282 0.03813305 0.033066474
-0.04199683 -0.6249169 -0.05101922 -0.30515957 -0.10737714 -0.029707272 0.08906042 0.017141258
-0.017127609 0.031786367 0.033437658 0.08164749 -0.045187335 -0.070117556 -0.15923403 0.13174729
0.05125772 -0.10081652 0.106408216 0.0821366 0.055290718 -0.24110587 0.18349399 -0.03763193
-0.21189964 -0.10666581 -0.02141133 0.11084301 0.20282604 0.034430128 0.03231636 -0.2047372
0.03547666 0.048480183 -0.03225749 -0.053449914 -0.04011383 0.1666394 0.082117 0.06011488
0.03640011 0.051176812 0.016846111 0.0750153 0.21274383 0.07510038 0.1238394 -0.1292999
0.15009888 0.105616145 0.04935254 -0.08855264 0.045482356 0.051770944 -0.029681833 -0.0899115
0.18013316 -0.07223912 -0.0032865764 0.078967996 0.06412108 -0.0078090862 -0.12839133 0.19148332
0.13483492 0.0020787013 0.16308603 0.036401704 0.0019940352 0.078574665 0.02611907 -0.23138046
0.1293154 0.056235425 -0.03504927 0.024510922 0.06305462 0.14988083 0.017148843 0.18592371
0.12056276 0.069946125 -0.10943983 -0.07124361 0.0017483153 0.0034606543 -0.15347168 -0.003296294
0.29227194 -0.12829357 0.2574262 0.077975065 -0.32618433 0.06719939 -0.1613739 0.31518304
0.23197791 -0.16200365 0.12193134 0.1386203 -0.013031791 -0.33302078 -0.2199094 -0.04791062
-0.13889633 -0.21545681 0.003560677 0.19248092 -0.108726025 -0.16978979 -0.2110035 -0.27792436
0.12347762 -0.19635285 -0.35645002 -0.13267761 0.06506557 0.029103093 0.1606103 -0.40981996
0.027827684 0.22490753 0.05113903 0.19214103 -0.2846827 -0.03561471 -0.010046551 -0.06864998
0.078441314 -0.08763099 -0.1947043 0.029982472 0.0571425 -0.24984117 0.14308855 0.18800652
0.043342706 -0.07061801 0.22424015 0.2401011 -0.035393506 -0.082053915 -0.46418846 -0.28882262
0.2710514 -0.14425679 0.07927626 -0.26669988 0.004374793 -0.033590376 0.20926754 0.11861743
00000000: 29cc d23d f1e5 06be aa8f 013f 2acf 44be
00000010: 307d 68be 0569 73bc f1d4 983e 9894 713e
00000020: afe0 593e 60a9 64be fa25 163e 57e0 213e
00000030: a66e 37bd deda 46be 3dc4 c23c 0f70 68bd
00000040: 0aff 40bd 567f 923d b8d1 bc3d 0dd1 07be
00000050: e793 f3bd 0ce4 c5be c11b 9fbe 10a8 863d
00000060: a229 2fbe 08c3 a33c 8572 8f3d fdd2 f3bd
00000070: c6c3 373d 05c4 c93d d90c 003e 37ec 6a3e
00000080: 3b3b 74bc 24dc 0a3d b519 6c3e 9845 e8bd
00000090: 3f38 a8bd fcd3 58bd 4c44 b7bc bf6d 31bd
000000a0: 3cfe 30bd 6aee babe 5f10 aabd 24fc 1abe
000000b0: 5bf5 82bd e759 babd b3a7 933d 9544 8bbe
000000c0: 650d 10be e718 d73d a3c6 08be 0e72 ed3d
000000d0: 0413 dc3d 9305 513d 862f 38be b187 06bd
000000e0: 9fa9 dcbd cc80 3bbd 57ba 82bc c095 bdbd
000000f0: a9be aebc 43b3 0dbe db89 19bd 010c 213e
00000100: 2cce 6cbb de61 0c3d bc26 1d3f d76a 97bc
00000110: 0df4 1abe 982b 013e 6e7b 2fbc 6351 3d3e
00000120: 6d60 363e 5285 66be 9fef 893d 1a9e d43d
00000130: 7c2f d43d 6a8a 5dbe a029 003e 6de4 103e
00000140: 0c69 8bbd 7b5d f73d 4aad 90bd b634 293d
00000150: b2dc 7bbb 0b58 63be a284 8dbe 6f74 96bd
00000160: eb20 b8bd 0672 d4bc a2ee ffbd 5420 02be
00000170: c7d4 2b3e b737 e73d 3a82 773d 0930 c23d
00000180: f895 883d 5694 083e 5fdc 0abd 4c62 a8bb
00000190: b9d0 153d 4260 0abe 6731 1c3d b670 073d
000001a0: de04 2cbd 8efa 1fbf 88f9 50bd e03d 9cbe
000001b0: 8ce8 dbbd aa5c f3bc 4f65 b63d d36b 8c3c
000001c0: 334f 8cbc 6c32 023d edf5 083d cd36 a73d
000001d0: 5b16 39bd cb99 8fbd 3f0e 23be c3e8 063e
000001e0: 9df3 513d e478 cebd 8dec d93d 3c37 a83d
000001f0: 8578 623d 75e4 76be d9e5 3b3e f023 1abd
00000200: 38fc 58be 9b73 dabd d066 afbc a901 e33d
00000210: a1b1 4f3e 9b06 0d3d 295e 043d a1a6 51be
00000220: f94f 113d 2893 463d 6e20 04bd 4cee 5abd
00000230: 664e 24bd 85a3 2a3e f52c a83d 053b 763d
00000240: 4818 153d c79e 513d db00 8a3c 9fa1 993d
00000250: 85d9 593e 3ace 993d 839f fd3d 3167 04be
00000260: 85b3 193e 474d d83d e425 4a3d 165b b5bd
00000270: b54b 3a3d c50d 543d 5127 f3bc 8523 b8bd
00000280: d474 383e 1bf2 93bd 9a63 57bb f9b9 a13d
00000290: ea51 833d 5de3 ffbb 0479 03be 3414 443e
000002a0: 2a12 0a3e d23a 083b 0600 273e f419 153d
000002b0: 5cae 023b c1eb a03d a9f7 d53c 00ef 6cbe
000002c0: 426b 043e 1e57 663d d38f 0fbd 21cb c83c
000002d0: c822 813d 5c7a 193e bb7b 8c3c c962 3e3e
000002e0: 9ce9 f63d ea3f 8f3d fd21 e0bd 2be8 91bd
000002f0: ba27 e53a 25cc 623b ae27 1dbe a306 58bb
00000300: aba4 953e 645f 03be 5ecd 833e 64b1 9f3d
00000310: a201 a7be d59f 893d 333f 25be ac5f a13e
00000320: 9e8b 6d3e 49e4 25be 23b7 f93d 7bf2 0d3e
00000330: 4b83 55bc b381 aabe ee2f 61be ed3d 44bd
00000340: d73a 0ebe b6a0 5cbe 3f5a 693b b819 453e
00000350: c0ab debd 60dd 2dbe 4d11 58be 1a4c 8ebe
00000360: d6e1 fc3d b910 49be 9e80 b6be a4dc 07be
00000370: 1941 853d 9c69 ee3c 0777 243e ecd3 d1be
00000380: e2f6 e33c 294e 663e 2977 513d 9ec0 443e
00000390: eec1 91be bbe0 11bd 4a9a 24bc 5c98 8cbd
000003a0: d7a5 a03d e077 b3bd 9060 47be cd9d f53c
000003b0: 410e 6a3d 5dd6 7fbe ce85 123e c884 403e
000003c0: 1f88 313d 2da0 90bd 369f 653e 10dd 753e
000003d0: c8f8 10bd e20b a8bd 1caa edbe 8fe0 93be
000003e0: 40c7 8a3e 0db8 13be 985b a23d e38c 88be
000003f0: 6c5a 8f3b 1096 09bd 3b4a 563e b2ed f23d

lstm.bias_ih_l0 f4 [256]
-0.10127643 0.13300756 0.023584526 0.052615028 0.13250448 -0.2469603 -0.08892306 -0.20816377
0.17517294 -0.026873806 -0.2226923 -0.061196014 -0.1809554 0.15216295 0.114103004 -0.21326317
-0.17102207 0.08265595 -0.19754297 -0.25765026 -0.2507446 -0.1470577 -0.19716989 -0.043269806
-0.36949795 0.0075291335 -0.170174 -0.07032248 -0.17349793 -0.08709057 -0.02504357 -0.12727274
0.03143659 -0.100181974 -0.12016848 -0.17346856 -0.022411035 -0.086862944 -0.12960312 -0.107538246
-0.15179911 -0.12273291 -0.094159715 -0.063115634 -0.016006114 0.0700814 0.024892246 -0.13791251
-0.10387876 -0.058192182 0.008127603 -0.05101301 -0.007037556 0.13934064 0.042258557 -0.102735505
-0.081253625 -0.17466044 -0.17489201 -0.18648353 -0.18552674 -0.11094767 -0.05082587 -0.13856947
-0.09617139 0.046000723 0.15053883 0.24664798 0.13373314 -0.16558681 0.034987554 0.11927504
-0.23898907 -0.1132601 -0.025823386 0.06693861 -0.11513408 0.26765662 -0.13176584 -0.09765101
-0.0918956 0.075399935 -0.16054186 -0.040114757 -0.03931991 -0.002866868 -0.2197612 0.02091419
-0.13864382 -0.07893903 -0.13006721 -0.07885746 -0.119795695 -0.015974952 0.044788074 0.033101846
0.16529007 -0.01760257 -0.0067261485 -0.21302083 -0.11177917 -0.12685752 -0.1160825 -0.07741692
-0.2640054 0.10468826 -0.06852373 -0.23080498 -0.124054186 0.10101717 0.056334376 -0.0253695
0.022335168 -0.1021538 -0.06689082 0.045171235 -0.053302445 -0.12894459 0.06782717 -5.8823876e-05
-0.11435521 -0.13097966 0.03514039 -0.16829118 -0.123240806 0.06571695 0.074198164 -0.07189479
-0.10485459 0.07915178 0.009659093 0.09754871 -0.0048376867 0.05639221 0.09851983 -0.02978694
-0.0011523127 0.009002207 0.0027028045 -0.100386806 -0.034208123 -0.08160317 -0.054775517 0.011805278
0.077162735 0.049682382 -0.077821456 -0.043056283 -0.08193699 0.10286707 -0.05411124 -0.015863685
-0.039288785 -0.024647593 -0.09632221 -0.020786155 0.052725308 -0.02144631 0.0071629034 -0.093942426
-0.060402777 -0.10282942 -0.032119382 -0.029380502 -0.075871125 -0.1343267 -0.06005719 -0.08927249
-0.037548006 0.052523877 -0.06474633 0.085243285 0.01907152 0.0010249185 -0.022923453 -0.03028162
0.029354488 -0.1138241 0.014374027 -0.10668079 0.020412138 -0.026371714 0.03551885 -0.038309313
-0.031581268 -0.06914327 0.026026294 -0.03912723 -0.062766865 0.007073066 -0.11882444 -0.027767751
-0.08313731 0.103423275 -0.11466401 -0.091264054 0.21391682 -0.1620586 -0.12699929 0.027162347
0.057044845 -0.03147651 -0.02578817 -0.026629863 -0.060903996 0.25114903 0.062353346 -0.1657793
-0.09879039 0.0754669 -0.12459704 -0.31603733 -0.22252364 -0.14670904 -0.071780145 -0.020372665
-0.26266694 0.014298387 -0.12939289 -0.22719903 -0.13954014 -0.026699215 0.0665661 0.053157486
0.12401594 -0.1088037 -0.11794733 -0.19838738 -0.11911058 -0.102817245 -0.13693182 -0.15866423
-0.18156984 -0.021292688 0.019048471 -0.08130235 -0.18430836 0.12772144 0.036417287 -0.021940641
-0.12635021 -0.25572878 -0.065146506 -0.015552825 -0.13142021 0.023140015 -0.115210384 -0.026096286
-0.14078695 0.01330613 -0.1559819 -0.07845161 -0.22483294 -0.14998296 -0.115844205 -0.15584093
00000000: 046a cfbd 2233 083e 5634 c13c db82 573d
00000010: 41af 073e 29e3 7cbe 4b1d b6bd e228 55be
00000020: 8960 333e 7526 dcbc 7309 64be aca8 7abd
00000030: 5f4c 39be 9bd0 1b3e d6ae e93d a961 5abe
00000040: 6920 2fbe 8647 a93d b448 4abe bcea 83be
00000050: 9961 80be 4b96 16be e7e6 49be ae3b 31bd
00000060: d62e bdbe f3b6 f63b 1842 2ebe 3b05 90bd
00000070: 71a9 31be 8a5c b2bd 2c28 cdbc c953 02be
00000080: a7c3 003d 352c cdbd e41a f6bd bea1 31be
00000090: 5997 b7bc 33e5 b1bd aeb6 04be 033d dcbd
000000a0: 3a71 1bbe 645b fbbd cfd6 c0bd c542 81bd
000000b0: 411f 83bc d686 8f3d d3ea cb3c f038 0dbe
000000c0: 63be d4bd ed5a 6ebd a329 053c 05f3 50bd
000000d0: 4c9b e6bb 50af 0e3e 4f17 2d3d fe66 d2bd
000000e0: 4d68 a6bd 30da 32be e416 33be 8af5 3ebe
000000f0: b9fa 3dbe 8838 e3bd ca2e 50bd 28e5 0dbe
00000100: 81f5 c4bd 416b 3c3d da26 1a3e 4a91 7c3e
00000110: 57f1 083e 978f 29be 1c4f 0f3d 7946 f43d
00000120: 8db9 74be e9f4 e7bd 918b d3bc 1c17 893d
00000130: 6bcb ebbd 4a0a 893e a0ed 06be 41fd c7bd
00000140: c333 bcbd 486b 9a3d 1665 24be 5f4f 24bd
00000150: ea0d 21bd 10e2 3bbb 1409 61be 3c54 ab3c
00000160: a5f8 0dbe c9aa a1bd 5730 05be 0580 a1bd
00000170: 7257 f5bd e7dd 82bc b373 373d cd95 073d
00000180: cd41 293e 4433 90bc 0667 dcbb 2222 5abe
00000190: 7aec e4bd f0e6 01be a9bc edbd c38c 9ebd
000001a0: b72b 87be cc66 d63d 2b56 8cbd 2458 6cbe
000001b0: 1f10 febd 17e2 ce3d e0be 663d b3d3 cfbc
000001c0: 3ef8 b63c 0336 d1bd 0efe 88bd 7905 393d
000001d0: aa53 5abd 0d0a 04be f9e8 8a3d a8b9 76b8
000001e0: 1033 eabd 881f 06be 5fef 0f3d 8654 2cbe
000001f0: ad65 fcbd 9c96 863d 35f5 973d 933d 93bd
00000200: 01be d6bd 541a a23d 2c41 1e3c 9ec7 c73d
00000210: 7585 9ebb 85fb 663d c4c4 c93d be03 f4bc
00000220: 3309 97ba fe7d 133c 8921 313b 9997 cdbd
00000230: d11d 0cbd 901f a7bd 4b5c 60bd ed6a 413c
00000240: 7f07 9e3d c17f 4b3d db60 9fbd c95b 30bd
00000250: 95ce a7bd f8ab d23d bfa3 5dbd 8ff4 81bc
00000260: 47ed 20bd c0e9 c9bc 9444 c5bd ba47 aabc
00000270: 7ef6 573d 2cb0 afbc cab6 ea3b e364 c0bd
00000280: e768 77bd 3b98 d2bd 9d8f 03bd 61af f0bc
00000290: 5262 9bbd f08c 09be 87fe 75bd 7fd4 b6bd
000002a0: f0cb 19bd 4723 573d b999 84bd 0894 ae3d
000002b0: e03b 9c3c 8f56 863a f7c9 bbbc 2911 f8bc
000002c0: d378 f03c 9c1c e9bd 0a81 6b3c 757b dabd
000002d0: 5b37 a73c 7e09 d8bc 377c 113d 3aea 1cbd
000002e0: 5c5b 01bd fd9a 8dbd 1835 d53c e043 20bd
000002f0: ea8b 80bd 2ec5 e73b 3a5a f3bd 3279 e3bc
00000300: e543 aabd 95cf d33d f7d4 eabd a6e8 babd
00000310: 030d 5b3e b1f2 25be 1a0c 02be 9283 de3c
00000320: dba7 693d 83ed 00bd b641 d3bc df26 dabc
00000330: 7876 79bd 9b96 803e 3966 7f3d 0cc2 29be
00000340: 9e52 cabd 648e 9a3d bc2c ffbd a5cf a1be
00000350: 3ddd 63be e53a 16be 7801 93bd 93e4 a6bc
00000360: 487c 86be c843 6a3c 927f 04be dda6 68be
00000370: 9ce3 0ebe 50b8 dabc cf53 883d aabb 593d
00000380: 12fc fd3d 79d4 debd 5f8e f1bd 1026 4bbe
00000390: 3ff0 f3bd d991 d2bd db37 0cbe e078 22be
000003a0: 72ed 39be 016e aebc 8a0b 9c3c d981 a6bd
000003b0: 55bb 3cbe 69c9 023e 4b2a 153d dcbc b3bc
000003c0: f361 01be e2ee 82be 886b 85bd 47d1 7ebc
000003d0: 0593 06be 2190 bd3c 6cf3 ebbd e1c7 d5bc
000003e0: 742a 10be f401 5a3c b8b9 1fbe 3dab a0bd
000003f0: 9b3a 66be 2295 19be ba3f edbd c494 1fbe

lstm.bias_hh_l0 f4 [256]
0.020471387 -0.074751124 -0.11449137 -0.0043375622 0.30788854 -0.19358262 -0.13785309 -0.075126834
0.15530281 0.14324608 -0.098692425 0.0027835036 0.039617557 0.19472088 0.17970483 -0.16348602
-0.17474122 0.20859729 -0.013238837 -0.17259449 -0.21575326 -0.07594368 -0.07544257 -0.011245431
-0.22152072 0.08159839 -0.010244031 -0.2173755 -0.07258217 0.0026217648 0.082698405 -0.09297471
0.10313681 0.06277435 -0.06774916 -0.17658821 -0.22664165 -0.12733492 -0.14337894 -0.20701401
-0.26987422 -0.084665544 -0.074060805 -0.16876073 -0.011289994 0.2762672 -0.07877124 -0.040070385
-0.021366196 -0.1968681 -0.035463754 -0.1605308 0.021302568 0.044695392 -0.04591022 -0.14157069
-0.18853758 -0.09362495 -0.11895675 -0.012870479 -0.056089874 -0.002849407 -0.067167334 -0.366294
-0.09508582 -0.042991936 0.15163402 0.26347277 0.13993582 -0.28075522 0.12804163 -0.049696483
-0.13180986 0.007732224 -0.058707908 -0.0010870153 -0.19791849 0.25504825 -0.033965044 -0.15049838
-0.124815844 0.18888903 -0.06488098 -0.19179864 -0.015456205 -0.23910747 -0.21248409 -0.011577622
-0.26484904 -0.15934904 0.018200072 0.08754151 0.04915141 0.01624002 0.12706971 -0.06963021
0.10153802 0.07439445 -0.18495588 -0.19992787 -0.17700572 -0.0077253515 -0.12082074 -0.0683134
-0.2093395 0.2218414 -0.079057164 -0.1512132 0.057294633 0.13099828 0.048421316 0.03598594
-0.0040463554 -0.032577887 -0.032689217 0.023084883 -0.1657639 -0.26219118 0.14715591 -0.10813085
-0.038866334 -0.15505117 -0.115885966 -0.03511381 -0.05186148 0.12032884 0.14102216 -0.2719102
0.097297914 -0.0176437 -0.100962795 -0.073762685 0.018688446 -0.11989086 -0.025262099 -0.052549396
-0.08671549 -0.02100208 -0.03238893 -0.033518575 -0.09369772 0.012355816 0.014865319 0.0042516855
0.015721388 -0.04882295 0.031523604 0.03197741 -0.024145078 -0.11272313 0.06982864 0.06374042
0.026297182 -0.04053212 0.11012438 0.013393199 0.08082697 0.013929417 -0.063259386 0.0808131
0.08373677 -0.015338717 -0.03226793 0.082035966 0.026131585 0.111566596 0.03355544 0.054340824
0.019111753 0.090720154 -0.039255448 -0.022002874 0.09768539 0.065905675 -0.07756881 -0.04776659
-0.043182593 0.057208326 0.010882144 0.030292945 0.08797453 0.10278465 0.0040847585 0.0052240877
-0.011304834 0.011408593 -0.010042976 0.0635971 -0.054307796 0.0399225 0.06631027 0.048410997
-0.1341666 0.018467816 0.027513547 0.031307876 0.123049065 -0.20744236 -0.08509746 0.018093891
0.12012743 0.014014904 -0.11589538 -0.025360575 0.0486072 0.041184433 0.090621896 -0.1901305
-0.010768574 0.04589053 -0.055307075 -0.37540513 -0.22700159 0.044357877 -0.06340228 -0.12913617
-0.23521125 -0.07016131 -0.084341355 -0.17686187 -0.19440314 0.095354244 0.04183692 -0.049043335
0.07270906 -0.103896715 -0.15612894 -0.13327612 -0.14000005 -0.1613455 -0.1386497 -0.16484118
-0.2230806 -0.1725494 -0.11527262 -0.05395065 0.0015858739 0.24762917 -0.08505014 -0.1285786
0.0074335323 -0.09921752 -0.100876406 -0.0104960045 -0.023653217 0.08747718 0.035980865 -0.045090593
-0.31422022 -0.15985325 -0.1413109 -0.13492127 -0.029523918 -0.13287139 -0.09642397 -0.21834983
00000000: 9cb3 a73c 1e17 99bd 747a eabd 1c22 8ebb
00000010: 91a3 9d3e 863a 46be 5c29 0dbe 19dc 99bd
00000020: b307 1f3e 1aaf 123e 411f cabd 716b 363b
00000030: 0546 223d e964 473e 8b04 383e e168 27be
00000040: 5def 32be 879a 553e b5e7 58bc 9cbc 30be
00000050: 6cee 5cbe 5c88 9bbd a281 9abd c23e 38bc
00000060: 54d6 62be 0f1d a73d 95d6 27bc af97 5ebe
00000070: f6a5 94bd ead1 2b3b c85d a93d 8669 bebd
00000080: 6439 d33d d78f 803d 12c0 8abd 8ad3 34be
00000090: c014 68be 1664 02be eed1 12be 7bfb 53be
000000a0: f42c 8abe 2165 adbd 31ad 97bd 9dcf 2cbe
000000b0: abf9 38bc e572 8d3e d152 a1bd d820 24bd
000000c0: 2908 afbc cb97 49be 7142 11bd 3062 24be
000000d0: b982 ae3c 8412 373d 5b0c 3cbd e8f7 10be
000000e0: ff0f 41be 70be bfbd 999f f3bd b4de 52bc
000000f0: 7fbe 65bd 1ebd 3abb 078f 89bd e38a bbbe
00000100: 5bbc c2bd 5018 30bd f345 1b3e e7e5 863e
00000110: 564b 0f3e 26bf 8fbe 581d 033e 8a8e 4bbd
00000120: 2af9 06be 995e fd3b b477 70bd 2e7a 8eba
00000130: 25ab 4abe af95 823e ee1e 0bbd 3f1c 1abe
00000140: 739f ffbd 206c 413e 52e0 84bd dd66 44be
00000150: 063c 7dbc 97d8 74be 6e95 59be 11b0 3dbc
00000160: 4b9a 87be 652c 23be 5118 953c f748 b33d
00000170: fd52 493d ca09 853c 901e 023e 499a 8ebd
00000180: 2af3 cf3d 1e5c 983d 1365 3dbe e4b9 4cbe
00000190: fd40 35be f224 fdbb dd70 f7bd e5e7 8bbd
000001a0: 185d 56be 642a 633e b9e8 a1bd a2d7 1abe
000001b0: c7ad 6a3d 6a24 063e 6e55 463d fe65 133d
000001c0: 4a97 84bb 6470 05bd 21e5 05bd 821c bd3c
000001d0: 03be 29be ec3d 86be 0ab0 163e b573 ddbd
000001e0: 4e32 1fbd bcc5 1ebe 9f55 edbd 80d3 0fbd
000001f0: b46c 54bd f86e f63d 1d68 103e d037 8bbe
00000200: 2144 c73d 8589 90bc 95c5 cebd e410 97bd
00000210: 8318 993c 5789 f5bd 76f2 cebc 093e 57bd
00000220: e497 b1bd 8e0c acbc 41aa 04bd c64a 09bd
00000230: 97e4 bfbd 0c70 4a3c ab8d 733c b951 8b3b
00000240: 24ca 803c 93fa 47bd e51e 013d bffa 023d
00000250: e6cb c5bc 62db e6bd 5102 8f3d 568a 823d
00000260: 306d d73c 0205 26bd e488 e13d 266f 5b3c
00000270: 9c88 a53d 3638 643c 238e 81bd 5781 a53d
00000280: 2f7e ab3d 3e4f 7bbc 612b 04bd 7902 a83d
00000290: e811 d63c 077d e43d 6e71 093d 7c94 5e3d
000002a0: 4090 9c3c 7dcb b93d 52ca 20bd 5f3f b4bc
000002b0: 470f c83d 8ef9 863d 65dc 9ebd e6a6 43bd
000002c0: 3be0 30bd 4753 6a3d 054b 323c e928 f83c
000002d0: fe2b b43d c280 d23d 70d9 853b d32e ab3b
000002e0: e937 39bc 1beb 3a3c 4b8b 24bc 323f 823d
000002f0: da71 5ebd c685 233d aecd 873d 9c4a 463d
00000300: f862 09be d149 973c 1764 e13c b03c 003d
00000310: 2601 fc3d c56b 54be 9447 aebd a439 943c
00000320: 5f05 f63d c59e 653c 8f5a edbd fbc0 cfbc
00000330: 5818 473d 02b1 283d f997 b93d 92b1 42be
00000340: ac6e 30bc b5f7 3b3d ac89 62bd 1a35 c0be
00000350: 1b73 68be 9bb0 353d 0ed9 81bd 463c 04be
00000360: 38db 70be bcb0 8fbd 29bb acbd 471b 35be
00000370: 9e11 47be 1649 c33d 315d 2b3d aae1 48bd
00000380: 7de8 943d cdc7 d4bd 44e0 1fbe 8979 08be
00000390: 2c5c 0fbe c137 25be 30fa 0dbe 20cc 28be
000003a0: 3e6f 64be cab0 30be 0d14 ecbd 5bfb 5cbd
000003b0: 19dd cf3a 8092 7d3e c52e aebd 1caa 03be
000003c0: fd94 f33b 8e32 cbbd 4a98 cebd 6ff7 2bbc
000003d0: 64c4 c1bc 3c27 b33d ac60 133d eab0 38bd
000003e0: 79e1 a0be 92b0 23be ceb3 10be cd28 0abe
000003f0: 25dc f1bc 700f 08be ee79 c5bd 1997 5fbe

fc.weight f4 [5, 64]
-0.077979915 0.022867031 -0.01090059 0.031485703 0.0446549 0.016199252 -0.030957136 -0.02397308
0.030771127 0.0378072 0.06606053 0.0016371943 0.058017746 -0.01698783 -0.06839668 0.0193231
0.018953796 0.02412181 -0.028110363 -0.024852717 0.026374228 -0.041782383 -0.027654076 -0.0097300345
0.03366231 -0.023972316 -0.067029454 0.0005341603 -0.12558416 0.029635342 0.03486252 0.011152861
0.056927964 0.10804543 0.13963962 -0.08688516 -0.011473803 -0.02587572 -0.05455393 0.009795385
0.0140439505 0.03485847 0.12559335 0.06594813 -0.10532182 0.07187996 0.13614972 -0.063330494
0.030053169 0.03385556 0.018295497 0.063071914 0.027005129 0.10485088 -0.04206705 0.017240284
0.016575715 0.07965144 0.013531793 -0.0633535 0.05106261 0.069793336 -0.06947407 -0.0020791532
-0.06772204 0.03217829 -0.06505042 -0.045501787 0.064234614 -0.028578626 0.025915157 -0.0052145403
-0.048641298 0.10951682 -0.03547956 -0.053219315 0.03693879 -0.04447348 -0.038936853 0.016135996
0.04087185 0.046871282 -0.051174507 -0.0026205236 0.00796577 0.02351214 0.05153675 -0.014368471
0.025123 -0.035645794 -0.003271351 0.045841042 -0.007452728 0.013458652 0.063534014 -0.0057288334
0.09491627 0.049283188 -0.01521129 0.021035738 0.008189437 0.020615976 0.011573486 -0.05021629
0.022643145 -0.009187132 0.034780405 -0.016982626 0.026348673 0.064277925 -0.071043395 0.038779445
0.017665599 -0.07180606 0.057732373 -0.023015913 0.031691696 0.04848172 0.056915924 0.04582382
-0.07333107 0.026949031 0.042553876 -0.08422348 0.025364367 -0.015854951 0.0097494135 0.029997284
-0.0901066 0.054401428 -0.11128069 -0.050534666 0.08631164 0.011153428 0.002088866 -0.020536195
-0.08762769 0.104982324 0.054222625 -0.05749563 0.0067766276 -0.078208946 -0.10908751 -0.01018744
-0.0072225234 0.0638073 0.04507989 0.06610129 0.095353946 0.0005235114 -0.014810858 -0.086987965
-0.018041506 -0.071878456 0.0054457807 0.076257005 -0.11243665 0.008353025 0.06535733 -0.0024911268
0.11921951 -0.055213787 0.06895125 -0.075538576 0.026701577 -0.03953897 -0.02568558 0.055830672
-0.0005412179 -0.01576532 0.07046319 0.07522526 -0.10883031 0.10973541 0.07281684 0.038648754
-0.01482174 -0.089577176 -0.018273955 -0.017262423 -0.08846714 0.122061566 0.014854319 0.08851661
-0.066234894 0.10032584 0.075888366 0.045397375 -0.028432827 0.0036953385 -0.09783045 -0.047976952
-0.06750796 0.060094148 -0.039617434 -0.055433735 0.14108495 -0.060115486 0.075001575 -0.004991871
-0.10684479 0.12280403 0.07533408 -0.14035778 -0.023615988 -0.09305502 -0.079152755 0.08806083
0.08974356 0.12765726 -0.04187894 0.012569755 0.015560795 -0.08491446 0.0826874 0.015699653
-0.034486048 -0.047562584 0.070568636 -0.05731613 -0.050242987 0.0670543 0.06782889 -0.061208326
0.08208655 -0.04269318 -0.11555764 0.12204598 0.037740536 -0.026852734 0.04849817 -0.021585373
0.006825867 0.060630795 -0.010376534 0.017276905 0.085030876 0.07157559 -0.05616835 0.03456878
-0.06275561 -0.034631707 -0.005398505 0.012340788 0.13700393 0.11398954 0.11603412 0.011620171
0.035915807 -0.11662894 -0.004670258 -0.040171094 0.0077920663 -0.031840026 -0.076984584 -0.0018449957
00000000: efb3 9fbd a453 bb3c 6398 32bc 27f7 003d
00000010: 0ee8 363d 4bb4 843c d299 fdbc 3163 c4bc
00000020: bb13 fc3c b9db 1a3d be4a 873d 2097 d63a
00000030: 04a4 6d3d 102a 8bbc 8f13 8cbd 7a4b 9e3c
00000040: fe44 9b3c 1a9b c53c b447 e6bc ed97 cbbc
00000050: c40e d83c 0124 2bbd cd8a e2bc b96a 1fbc
00000060: 7ee1 093d 9761 c4bc bd46 89bd e406 0c3a
00000070: 2299 00be d1c5 f23c 00cc 0e3d 7dba 363c
00000080: 4c2d 693d ec46 dd3d b0fd 0e3e d9f0 b1bd
00000090: 9efc 3bbc 51f9 d3bc f173 5fbd d37c 203c
000000a0: 9918 663c c1c7 0e3d 8b9b 003e d00f 873d
000000b0: f7b2 d7bd cd35 933d d56a 0b3e 6bb3 81bd
000000c0: 1032 f63c 21ac 0a3d 70e0 953c d92b 813d
000000d0: dc39 dd3c 0fbc d63d 804e 2cbd 7f3b 8d3c
000000e0: cbc9 873c 4b20 a33d 74b4 5d3c 7bbf 81bd
000000f0: 0727 513d cfef 8e3d 6c48 8ebd 6742 08bb
00000100: dab1 8abd 62cd 033d 2839 85bd 1560 3abd
00000110: 708d 833d b91d eabc 064c d43c bcde aabb
00000120: 193c 47bd 5b4a e03d 0453 11bd 7ffc 59bd
00000130: 214d 173d d329 36bd 407c 1fbd a32f 843c
00000140: 3e69 273d 1afc 3f3d 5c9c 51bd 17bd 2bbb
00000150: dc82 023c 889c c03c 3318 533d bc69 6bbc
00000160: c0ce cd3c 5301 12bd 2a64 56bb d1c3 3b3d
00000170: 0436 f4bb ae81 5c3c 1f1e 823d f0b8 bbbb
00000180: 7663 c23d 2bdd 493d c638 79bc 2453 ac3c
00000190: fd2c 063c d6e2 a83c b89e 3d3c 99af 4dbd
000001a0: 1e7e b93c a085 16bc e675 0e3d 261f 8bbc
000001b0: 2cd9 d73c 25a4 833d 337f 91bd 32d7 1e3d
000001c0: 72b7 903c 0e0f 93bd c878 6c3d de8b bcbc
000001d0: 27cf 013d c594 463d ac20 693d c2b1 3b3d
000001e0: 9a2e 96bd 37c4 dc3c f94c 2e3d 5c7d acbd
000001f0: efc8 cf3c 3ee2 81bc 01bc 1f3c ddbc f53c
00000200: cf89 b8bd 08d4 5e3d 21e7 e3bd 70fd 4ebd
00000210: 28c4 b03d debc 363c 5be5 083b 863b a8bc
00000220: 2576 b3bd f900 d73d 8b18 5e3d 8a80 6bbd
00000230: 790e de3b 032c a0bd 4669 dfbd 38e9 26bc
00000240: ebaa ecbb 67ad 823d b1a5 383d 1d60 873d
00000250: ee48 c33d 413c 093a 3ea9 72bc bf26 b2bd
00000260: c8cb 93bc 0335 93bd 8572 b23b a22c 9c3d
00000270: 3045 e6bd 20db 083c 10da 853d 2c42 23bb
00000280: 5c29 f43d da27 62bd 5036 8d3d f8b3 9abd
00000290: 44bd da3c 9df3 21bd 916a d2bc b4ae 643d
000002a0: 85e0 0dba 4626 81bc 014f 903d b30f 9a3d
000002b0: 6de2 debd f5bc e03d ff20 953d 284e 1e3d
000002c0: e2d6 72bc 3d74 b7bd 43b3 95bc ed69 8dbc
000002d0: 432e b5bd 6afb f93d 885f 733c 3248 b53d
000002e0: 29a6 87bd a277 cd3d 5c6b 9b3d 99f2 393d
000002f0: f6eb e8bc 7e2d 723b 555b c8bd 7b83 44bd
00000300: 9d41 8abd 4825 763d e445 22bd 7c0e 63bd
00000310: 9378 103e a83b 76bd 6d9a 993d d992 a3bb
00000320: 71d1 dabd ae80 fb3d c148 9a3d f3b9 0fbe
00000330: 5176 c1bc a193 bebd d71a a2bd 3d59 b43d
00000340: 79cb b73d 96b8 023e 4089 2bbd 60f1 4d3c
00000350: b4f2 7e3c a2e7 adbd 0358 a93d 8f9c 803c
00000360: 3e41 0dbd fcd0 42bd 4a86 903d 51c4 6abd
00000370: 97cb 4dbd c453 893d e0e9 8a3d 95b5 7abd
00000380: fe1c a83d 0bdf 2ebd 7ca9 ecbd 3ef3 f93d
00000390: d295 1a3d 44fa dbbc 04a6 463d cfd3 b0bc
000003a0: 86ab df3b ff57 783d 5702 2abc 4c88 8d3c
000003b0: ab24 ae3d 3996 923d c910 66bd fe97 0d3d
000003c0: 0386 80bd fad9 0dbd f1e5 b0bb 0431 4a3c
000003d0: c24a 0c3e 5973 e93d 4ca3 ed3d 8862 3e3c
000003e0: 741c 133d 27db eebd f708 99bb 728a 24bd
000003f0: 9754 ff3b b06a 02bd 18aa 9dbd c8d3 f1ba

fc.bias f4 [5]
0.029096298 -0.006988961 0.017231083 -0.027646612 -0.025618346
00000000: 5c5b ee3c a703 e5bb 3328 8d3c 267b e2bc
00000010: 91dd d1bc
