attn_lstm_model.pth (torch, 170511 bytes, 11 tensors)

lstm.weight_ih_l0 f4 [256, 13]
00000000: 88b1 c4bd e066 64be f83b 72be 6e35 88be
00000010: 3d90 e9bd bd0b 55bd 1096 6339 5567 e7bd
00000020: 3574 89be 5ac1 8cbd 3f40 d7bd 9bc1 6cbd
00000030: f2d2 61be 2088 2ebe 13a6 33be c2bf 49be
00000040: e0b3 5abe d88b 14be 26ee dfbd d7dc 24bd
00000050: 1802 fa3c 73ea f6bc bda7 2fbe 565d e8bd
00000060: 2924 46be 6a14 98bd e30f 8ebd 746d 27bd
00000070: 849a ccbc f0e1 10be b8b9 11be 4365 ccbd
00000080: e3b1 c0bd f79d ef3c a0f4 e8bd 676b 30be
00000090: d565 36be c809 a8bc 54e1 49be 7d62 c1be
000000a0: 3ff5 4cbe d466 a1be 2f5d 7fbe ad7c 38be
000000b0: e63a f0bd 9afd 90be c810 42bd f4d1 81be
000000c0: 428d b0be 2a84 66bd 3903 61be 9d02 85be
000000d0: 8cc5 ddbd d03b a7bd 6d36 17be 5ff4 8fbd
000000e0: 0cce 9139 90f0 f9bd 4bd8 13be 645a 993d
000000f0: a72f acbe fb35 9bbe 183a 46be d827 8a3d
00000100: d323 31be 9db8 2fbe 33b9 a4be e341 93be
00000110: 99f6 5dbe e687 17bd 2df1 85be a386 3abe
00000120: d2dc 9ebe 6d42 37be e4b9 9fbe 3d75 9bbe
00000130: 96e4 96be 0eef a8bd 663f 08be 1239 5ebe
00000140: cbed 33be f16e d4bd 88ee 4cbe 11ad b1bc
00000150: 0456 03be 7d73 65bd 4f06 1d3d 4581 a2be
00000160: f720 21bd ca28 d3bd 85cb d3bd bda4 abbe
00000170: eb5b 95be d4d9 cbbd 3294 5cbe 8ebf df3d
00000180: 50f4 8dbd f20c 52be 6d8f 97be ad0b 83be
00000190: b616 6bbe b7b0 74be d0b7 44be 8b1b 47be
000001a0: 1883 5cbe ee06 8cbe 84e3 55be 2733 74bd
000001b0: d91b d3bd 05ae 2abe 99e9 e3bd c9e1 51bb
000001c0: 3d47 aabe 24c0 93be ace9 a5be 6d35 61be
000001d0: 2419 20bd 5e2e 82be afa2 4ebd 5dbe 37be
000001e0: 9e53 1cbe 17df 81bd d46e 4bbe f7f0 96bd
000001f0: 191c 34be 5799 46be efee acbe 682c 88be
00000200: 1e9d 86be 7913 b5bd 10bd f8bd facd 6abe
00000210: 058e 84be ab17 02be 5f9a 03be d748 6aba
00000220: 5028 013d 89f3 2ebe 12f5 7bbe de7c 04be
00000230: a3f7 d8bd 1ef4 93be 6115 a0bd 8889 8ebd
00000240: 17bd cabd da5e f0bd 0433 c9bd c871 6cbe
00000250: 4a27 4ebe 0bca d5bd 36a0 7fbe 15a7 acbe
00000260: 25a9 dfbd 97ed a6be 98d0 32be 1fac b8bd
00000270: 59fc b1bd 744c 96be 5c19 3abe 4481 6ebe
00000280: f816 aebd 2022 bdbd 6c1f 28be 4803 433d
00000290: fafa 83be f237 41be a4b7 68be 1691 9bbd
000002a0: 71ec bebd bab8 1cbe 2174 bcbd c69a 963c
000002b0: 2797 2dbd ab1c 31bd b9b0 ffbd 5211 e1bd
000002c0: e5b6 80ba 6d3e e8bd 1fee 6dbc cb6e 40be
000002d0: 4430 eabd b9f2 013d db6f 1abe 81fe 4abe
000002e0: 9988 59be 7979 5fbe e601 46bd faca b5bd
000002f0: b749 cabd ca60 1d3b 5cb4 34be 67d2 0cbe
00000300: 4275 2cbe 4885 91be f2e1 61bd accf 37be
00000310: 975a 88be b967 9abe 1342 91be 3076 07bd
00000320: 70e3 72be 187b 3bbe a866 8ebd 8707 84be
00000330: 16c7 cdbd 9ffc 0ebe 801c 78be c746 16be
00000340: ec13 d1bd 5d76 e23b e377 25be 1260 0abe
00000350: 8142 a9bd 7dec cf3c c5ed 1dbe 8399 893e
00000360: 7f46 e8bd 3cf9 22be 3fb2 bf3d 284d 8ab9
00000370: 2395 8cbe 1e45 39be d58e 08be e2a9 5ebe
00000380: d4a9 20be 4e51 c0bd c2a1 60bd 7581 3c3d
00000390: f223 e6bd 43f6 70be b05a 13be d808 973c
000003a0: 10d0 9cbd 7f0e 473d 6608 6abe 68a9 a9bd
000003b0: 0855 5cbe 687b 91bd 34d5 4dbe 9175 2abe
000003c0: a83b c2bd 0517 3abe 91ff 91be 3b53 b5be
000003d0: 9a2c f0bd b011 a8bd 0cc9 e6bd b665 37bd
000003e0: 5583 8cbd 179a 42be 1202 69bd 91c1 63be
000003f0: f213 99bc ad7d acbd c361 0c3e 371a 89be
-0.09604174 -0.22304869 -0.23655689 -0.26603264 -0.114044644 -0.052013148 0.0002170431 -0.11299006
-0.2684647 -0.068728164 -0.10510301 -0.057801824 -0.22053126 -0.17044115 -0.17543821 -0.19702056
-0.2135768 -0.14506471 -0.10934095 -0.04024967 0.030518577 -0.030141091 -0.17153831 -0.113459274
-0.19349732 -0.07425769 -0.06936624 -0.040875867 -0.024976023 -0.14148688 -0.14231002 -0.09980252
-0.09408929 0.029250128 -0.113747835 -0.1722847 -0.17812283 -0.020512477 -0.19714862 -0.37770453
-0.20015429 -0.31523764 -0.2493789 -0.1801631 -0.11729984 -0.28318483 -0.047379285 -0.25355494
-0.3448277 -0.056278385 -0.21973886 -0.25978556 -0.10828695 -0.08165705 -0.14766856 -0.07029032
0.00027810072 -0.12204087 -0.14437978 0.07487944 -0.33630106 -0.3031462 -0.19358099 0.06745881
-0.17298822 -0.17160268 -0.32172546 -0.28761205 -0.21676101 -0.036994837 -0.26160565 -0.18215422
-0.31027848 -0.17896433 -0.3119651 -0.30362883 -0.29471272 -0.08248721 -0.13305435 -0.21701458
-0.1757118 -0.10372723 -0.20012867 -0.02168897 -0.12825781 -0.05601834 0.038336094 -0.3173925
-0.03933808 -0.10310514 -0.10341553 -0.33524123 -0.2917169 -0.09953657 -0.21540907 0.10925208
-0.069313645 -0.2051275 -0.29601613 -0.25594845 -0.22957882 -0.23895536 -0.19210744 -0.194441
-0.21534383 -0.27349037 -0.20887572 -0.059619095 -0.10308046 -0.16667946 -0.111285396 -0.0032025448
-0.33257475 -0.2885753 -0.3240484 -0.21993037 -0.039086476 -0.25426 -0.050448116 -0.17943712
-0.15266272 -0.06341379 -0.19866496 -0.07370179 -0.17588843 -0.19394432 -0.33776042 -0.2659638
-0.26291746 -0.08841605 -0.12145436 -0.22930136 -0.25889602 -0.12704341 -0.12851857 -0.00089372456
0.031532586 -0.17085089 -0.24605206 -0.12938258 -0.10594108 -0.28897184 -0.07816578 -0.06959826
-0.09899347 -0.117368415 -0.098241836 -0.23090279 -0.20132175 -0.10438927 -0.2496346 -0.33721223
-0.10920934 -0.32603142 -0.17462385 -0.090172045 -0.086907096 -0.29355204 -0.18173736 -0.23291498
-0.08500475 -0.092350245 -0.16418236 0.04761055 -0.25777417 -0.18868998 -0.22726303 -0.07596032
-0.09322441 -0.15304843 -0.09201837 0.018384349 -0.04238048 -0.04324023 -0.12484879 -0.10989632
-0.0009820132 -0.11340032 -0.0145221045 -0.18792264 -0.11434987 0.03172562 -0.15081732 -0.19823648
-0.21243514 -0.21823682 -0.048341654 -0.08876605 -0.09877341 0.002401399 -0.17646927 -0.13752137
-0.16841605 -0.28421998 -0.05514712 -0.17950314 -0.26631615 -0.3015726 -0.28370723 -0.033071697
-0.23719573 -0.18308675 -0.06953174 -0.25786993 -0.10047738 -0.13963555 -0.24229622 -0.14675437
-0.10208878 0.0069110827 -0.16159014 -0.1351321 -0.08264638 0.025381321 -0.15422733 0.26874933
-0.11341571 -0.15915388 0.093601696 -0.00026378897 -0.27457532 -0.18092772 -0.13335736 -0.21744493
-0.15689784 -0.09390508 -0.054841764 0.046021897 -0.11237325 -0.23531441 -0.14390063 0.018436834
-0.07656872 0.04859781 -0.22854766 -0.08284265 -0.21516812 -0.07103616 -0.20100862 -0.1664641
-0.09484035 -0.18172844 -0.28515294 -0.35415062 -0.11727257 -0.082064986 -0.112688154 -0.044774733
-0.06860987 -0.19004093 -0.05688674 -0.22241808 -0.018686268 -0.08422408 0.13709168 -0.26777813

lstm.weight_hh_l0 f4 [256, 64]
00000000: ac2a be3d 8ddc d43b e61e 493d eeb1 ddbd
00000010: 2de4 97bc 133e f43d e624 b93d 9163 053e
00000020: 72c9 09bd d0d0 b63d 9377 bf3d ca77 eabd
00000030: 5a23 b9bd b693 373d f08e 88bd 58bd 803d
00000040: 3292 8b3d 211e e43c f5d6 58bd c663 743b
00000050: a7ba 5dbd 3185 673d 251d 943c e226 a3bc
00000060: 2fec a73d e2c5 0c3d 6835 41bc c6ad b73b
00000070: af8c e5bd a000 ccbd b86b 893c 5665 c0bd
00000080: 1fb8 703d 25cb 52bb c1c4 a33c b4ee ee3d
00000090: 354c 95bd af12 50bd 56cf c1bb 7cef 8d3d
000000a0: bba3 b93d 34da 8a3d 4ac6 053d f85b d7bd
000000b0: 5ce3 f83d fc63 b8bc 671f bf3d 6819 553d
000000c0: 7834 2c3c 8db4 1abe 6229 9abd 6645 d23d
000000d0: dea7 06bd 0666 2bbd e8dd f83d 417c e2bd
000000e0: 5792 04be bd5b 74ba cfa3 e93d 34c0 84bc
000000f0: 65eb 683d e5a9 85bd 8ea2 863d 69dd cebd
00000100: 08cf 253d 308a 1bbd a7b9 a13d 67b9 8fbd
00000110: 26fe 42bd 73f1 b2bd 94c1 973d e4aa cd3c
00000120: 6cc5 25be 4bee 87bc 92e2 a5bd 7466 ae3d
00000130: ac89 353e f2e6 853d 24b0 eabd 0b6b 0fbc
00000140: 91e8 483e 4381 26be eecd 13be f352 e8bd
00000150: 0ca7 12be ccb5 7abd 9f64 f6bc d96a 073e
00000160: 2dd8 363d f066 813d bc43 343e 8c74 32bd
00000170: 953d 3bbd d0da 1cbd 0cf3 40bc b4bd 04be
00000180: 5d33 dfbc 4f0f d03c 3ca3 e2bd b708 4dbd
00000190: 0cdf eb3d eecf f7bc b139 42be 97c5 bbbd
000001a0: 6075 10bd c9fe f0bd 60e8 8bbd 29c5 c83d
000001b0: ecb1 c1bd 2a23 59bd be48 03be a90b bc3d
000001c0: 742c 0f3e 0861 2abd 03b5 213d 5664 b03c
000001d0: 938c 263d c736 123e 20c0 06bc eb5f b5bd
000001e0: 7ff4 bc3c 5bc7 b13d aab1 29bc 6c46 cf3d
000001f0: 7aed 71bd 0029 513d 9de9 41bd d6eb da3c
00000200: 2a44 a0bd d738 abbd 5be1 9a3d fbdf 98bc
00000210: 7fc1 f43b 6a22 f2bc c55d 5dbc ed5e b83c
00000220: 67ba 81bd 9c23 5e3d b0c4 febd 11d6 10bd
00000230: e8c1 843c 144e c03d 597d e2bd 24e9 9bbd
00000240: 0bdc 6a3d 1995 e0bd 6663 f5bd 6257 983d
00000250: 35eb aebc ff3c 8d3d 865a f53d 8107 abbc
00000260: 5265 f9bc c0a3 123e 5e3b 313e c860 ccbd
00000270: 6c8d 663b 745e f1bd 8077 55bc 6b9a dcbc
00000280: 7b55 58bc 3795 f63d 552f 68bd b833 0abd
00000290: 2721 01be 7ea8 bd3d 8820 10be 04eb a63d
000002a0: 7b45 413d 4fce d5bc cfe2 1abd 3a88 a73c
000002b0: 99af 043e 8757 b73d 7c05 933d ce8c d0bd
000002c0: 5ee6 dd3d e263 51be 47f7 cd3d 10da a1bd
000002d0: f4a1 edbd edbf 9bbb 0e97 153e 5bbb 123d
000002e0: 0435 36bc 6259 353d 0d35 b13d f285 a63d
000002f0: d971 2dbd 63d8 873c d10c 473d b3b6 c43d
00000300: a015 9ebc d86c 4dbc 128d fa3b 817b ecbd
00000310: 5db4 ebbd 7e17 0b3e dfd5 8f3d 291a 69bd
00000320: 488c 8ebd 4fa0 033d e2d2 acbd 9dbf e6bd
00000330: 8441 85bd 2895 9b3d 87f1 ce3d 5c2b c9bd
00000340: 6cab 543d d252 eabd 6848 ef3b fb01 93bd
00000350: 838f ecbd 56ef fabd b6a5 54bd 07c6 d33c
00000360: 989a 5c39 838d d2bc 96ed 683e 7694 aabd
00000370: 65e7 0ebe 270c 33be 3794 553a c697 25be
00000380: 4c1f 53bc bdd6 663d c48f 043e 8740 2ebb
00000390: d0dd 21bd e697 6f3e a2dd 52be c23a 443d
000003a0: 4263 293d bcbe a2bd 07b5 e3bd aa1a 44bd
000003b0: 29c3 64bd 2d5a 88bb 524b 43bd 537e 123e
000003c0: cf22 54bd de6c 41be 2074 d7bd cc1c 75bd
000003d0: c6bd 8dbc a5f1 413e 8afd 023e 8bf7 973d
000003e0: 4379 f2bd a3cc 963d 4bd9 80bd e22c 313e
000003f0: b787 073e e670 d9ba bf6a a0bc 3f44 c13d
0.09285483 0.0064960183 0.049101733 -0.10824953 -0.01854142 0.11925902 0.09040241 0.13026263
-0.03363938 0.089265466 0.09348979 -0.11448629 -0.09039946 0.044818603 -0.06667888 0.062861145
0.06814994 0.027846398 -0.052939374 0.0037290915 -0.054133084 0.056523506 0.018080303 -0.019916002
0.08199345 0.034368403 -0.011792518 0.005605432 -0.11208474 -0.09961057 0.016774997 -0.09394328
0.05876934 -0.003216454 0.01999128 0.11666623 -0.07289926 -0.050799068 -0.005914609 0.06930444
0.09064432 0.067799 0.032659806 -0.105155885 0.1215274 -0.022508614 0.093321614 0.052026182
0.010510556 -0.15107937 -0.075274244 0.10267143 -0.032874934 -0.041845344 0.121517 -0.11058856
-0.12946449 -0.00093215314 0.11408197 -0.01620493 0.056865115 -0.065265454 0.065739736 -0.101008244
0.040480644 -0.037973583 0.078967385 -0.070177846 -0.047605656 -0.08737459 0.07409969 0.025105901
-0.16188592 -0.01659312 -0.080998555 0.08515635 0.17728299 0.0653819 -0.114593774 -0.008753548
0.19619967 -0.16260247 -0.14434025 -0.11343946 -0.14321536 -0.06120853 -0.030077277 0.13224353
0.044639755 0.06318462 0.17603964 -0.04356818 -0.045713026 -0.038294613 -0.011776697 -0.12962991
-0.027246172 0.025397925 -0.11066291 -0.05005714 0.11517152 -0.030250516 -0.1896732 -0.09168547
-0.035268188 -0.117673464 -0.068314314 0.0980323 -0.09457764 -0.05301205 -0.12820718 0.091819115
0.13981801 -0.041596442 0.039479267 0.021532219 0.040661406 0.14278708 -0.008224517 -0.088561855
0.023065804 0.08680602 -0.0103573 0.10120854 -0.059064366 0.05106449 -0.04734193 0.026723783
-0.07825501 -0.08360451 0.075625144 -0.01866149 0.0074693556 -0.029557426 -0.013511126 0.022506202
-0.063343816 0.05423318 -0.12439859 -0.0353604 0.016205743 0.09389892 -0.110590644 -0.076128274
0.057338756 -0.10965938 -0.11981849 0.07438542 -0.02135239 0.068964 0.119801566 -0.020877602
-0.030443821 0.14320278 0.17307803 -0.09979397 0.003517951 -0.11785594 -0.013028979 -0.026929101
-0.013203974 0.12040179 -0.056685764 -0.03374073 -0.12610303 0.09260653 -0.1407491 0.081502944
0.047185402 -0.026099352 -0.037813958 0.0204507 0.1295761 0.089522414 0.071787804 -0.10183106
0.10834955 -0.20448259 0.1005693 -0.0790292 -0.11603156 -0.004753104 0.14608404 0.035823207
-0.011121038 0.044274695 0.08652697 0.08131017 -0.0423449 0.016582673 0.048596207 0.096051596
-0.019297421 -0.012538157 0.0076462114 -0.11546994 -0.11509011 0.1358318 0.070232145 -0.056909714
-0.0696035 0.032135304 -0.0843866 -0.11267016 -0.06506637 0.07596809 0.101046614 -0.09822723
0.051921293 -0.11441578 0.0073023327 -0.07178112 -0.1155081 -0.12252681 -0.051915847 0.025851263
0.00021038426 -0.025702244 0.22746882 -0.08329098 -0.13955458 -0.17485105 0.0008147391 -0.16171178
-0.01288588 0.056357134 0.12945467 -0.0026588754 -0.039518178 0.23397788 -0.20592359 0.0479076
0.041354425 -0.07946536 -0.111185126 -0.04787699 -0.05585018 -0.0041611404 -0.047679253 0.14306001
-0.05179101 -0.18889186 -0.10520196 -0.059841916 -0.017302405 0.18939836 0.1279203 0.07420262
-0.11839535 0.0736325 -0.06291445 0.17302278 0.13235365 -0.0016589432 -0.01958215 0.09436845

lstm.bias_ih_l0 f4 [256]
00000000: 1512 50be 2c13 563c b14f 7abd a8e7 b8be
00000010: 99d6 9cbe b794 87be 968e bebd d896 bbbe
00000020: 616e 04be 7820 bfbe 3b2f 44be 7839 5dbe
00000030: ca72 3fbe 7059 893c 41a8 92bd b36b 0bbe
00000040: 5f18 25be 0cdb 94be 9152 27be 37ae 37be
00000050: 791c 19be 3285 c5be 2aa6 9cbe 34ea 38be
00000060: c5db 2fbe fafe 2fbe f38f 3fbe dec9 90be
00000070: b8e2 e0bc 5da5 47be cbe0 48be dca5 debd
00000080: 825d 64be bc6f 0cbe 9bae 9bbe bf5b f5bd
00000090: c8bd 9fbd a487 fbbd 93d1 66bd 79e4 74bd
000000a0: 9f11 98bd 6006 c2bd 4814 b6be 073c a0be
000000b0: 51fd 21be 2f58 e7bd 932e 93be c72e b4bd
000000c0: 2214 84be dade 453d b32c 0fbe 7524 0cbe
000000d0: ce6f 66be 148c 35bd c10e 20bd f479 95be
000000e0: 81ac 46be eed6 31be 9da6 21be c068 d5bc
000000f0: 781d a53c b0a7 88bd e7aa 76be 6f49 873b
00000100: 0815 3abe 2127 50bd 3a65 e4bd b379 9ebe
00000110: 0e19 5fbe 421e 89be 73f9 eabd a5db 43be
00000120: d278 bcbd 550e 27be 32ba 1bbe 8cc0 7abe
00000130: 6df9 24be a5ef 50be eda7 08be 231f 6bbe
00000140: 393a 75bd 24b9 51be d501 8bbe 8402 0dbe
00000150: d938 edbd 69b7 67be 0227 15be b4e8 7fbe
00000160: 066a 74bd ca6f 94be a188 48be a47a 6cbd
00000170: d6b3 48bd 890e 35be d3ef 6bbe 4c63 25bd
00000180: 479c 63be 243f 313d 5bee 1bbe cdd4 87be
00000190: ead6 953d 9663 6abd 225c d2bd d079 09be
000001a0: 3e75 073e 5715 febd 374a abbe 5097 16be
000001b0: dda7 f3bd b325 47be f38f 96bd 4c02 53be
000001c0: 9588 d8bd d718 383c 1050 4ebe b0e1 1cbe
000001d0: 18fd f4bd 9b63 48be 6e45 24be bce4 22be
000001e0: 25e1 94be 4247 9dbd 4379 fabc 1ab0 20be
000001f0: 8b39 92bd 6666 8ebd a3ab e8bd 659d e7bd
00000200: 7e70 b33d ffb3 f73b f64c 5c3d f425 473d
00000210: 7151 743d f168 9ebd a3c8 d33d 22bb 9ebd
00000220: df91 cf3d 0463 b7bd 4f71 34bc b299 893d
00000230: 6020 123d 08c0 a8bd a7a6 3fbd 9738 c3bd
00000240: f5fe acbd 93d4 693d 8764 3fbd 3f35 e63c
00000250: 40f9 063d 9503 0cbd 96b8 29bd bb01 e23b
00000260: 37aa a5bc 3798 a1bd 751f 86bd 5aa2 e33c
00000270: 36d1 c23c d57a edbb fe6d 61bd 7678 973d
00000280: d038 f63d c355 6dbd ba2a 35bd 64a2 da3d
00000290: f2bf 03be 968a 023d 5f3e c83d d7f7 c83d
000002a0: b048 6a3b 95d6 e83d 69c9 dbbd e75c e03d
000002b0: aa56 00bd 07b7 8c3d af0c 853d 0c67 5cbd
000002c0: 9f3d e83c fa66 e23c bf17 c1bd f6b8 8ebd
000002d0: 8ab0 493d 19fa a83d 8fea 40bc 82ca af3d
000002e0: 590c 84bd 2077 a2bd b545 4ebb 956d f2bc
000002f0: 290d bf3d 634b 30bd 079e ea3c 79bb 2f3d
00000300: 2b32 73be 1166 b4bc f2eb 2cbe 48a4 77be
00000310: 07b4 75be ab7c a0be b3ba 7dbe 2d79 bebe
00000320: 8332 acbe 126d 5fbe 0a00 a6bd 6397 49be
00000330: 7947 9bbe b439 ebbd dfb8 81be 252b 82be
00000340: d415 07be ca87 40be e8a5 b1be 5e65 dabe
00000350: 2a5a 31be f218 e2be ec6e 06be 5a80 02be
00000360: 504b 89bd fb72 c1bd 988e 41be a0f4 63be
00000370: c486 44be 254f f2bd bae8 03be cd34 a1bb
00000380: e7f7 b4bd e8aa 08be 2567 2bbe b269 91be
00000390: d1d1 18be 4b61 a2ba 0de9 26be de6e 2abe
000003a0: cea6 c83c f66f 4abe 5b55 b6be 6786 41be
000003b0: 9f81 23be a32b a0be 9bc1 d9bd ddad f2bd
000003c0: 8699 dbbd 9365 ce3c f79c 85bd dfe7 03be
000003d0: 37d8 14be 3b28 babd 76b6 05be 8437 2cbe
000003e0: a95c 73be 7f37 08be 8117 23be 244c 69be
000003f0: 42fc f6bd a37f 39be c9f6 94bd 7c2e 05be
-0.20319398 0.013066094 -0.061111156 -0.3611424 -0.30632475 -0.26480648 -0.0930454 -0.36638522
-0.12932731 -0.3732946 -0.19158642 -0.21603954 -0.18696132 0.01676628 -0.07160998 -0.13615303
-0.16122578 -0.2907337 -0.1634009 -0.17937551 -0.14952268 -0.38578182 -0.30595523 -0.18058091
-0.17173679 -0.1718711 -0.18707256 -0.28279012 -0.027451858 -0.19496675 -0.19617002 -0.10871479
-0.22301295 -0.13714498 -0.3040665 -0.1198039 -0.0779987 -0.12281731 -0.05635221 -0.0597882
-0.07425236 -0.09473872 -0.35562348 -0.31295797 -0.15819289 -0.112961166 -0.2874647 -0.087979846
-0.2579661 0.04830823 -0.13981895 -0.13685782 -0.22503588 -0.044323042 -0.03907657 -0.29194605
-0.19401743 -0.17367145 -0.15786214 -0.026050925 0.020155653 -0.06672609 -0.24088632 0.004128627
-0.18172085 -0.050818566 -0.1115212 -0.30952224 -0.21786901 -0.26780897 -0.1147336 -0.19126756
-0.09202732 -0.16314061 -0.15207747 -0.24487513 -0.16110773 -0.20403917 -0.13345309 -0.22961096
-0.05986998 -0.20480782 -0.27149835 -0.13770491 -0.115831085 -0.22628559 -0.14565662 -0.24991113
-0.059671424 -0.28991538 -0.1958337 -0.057734147 -0.04899963 -0.17681326 -0.23040704 -0.0403779
-0.22227584 0.043273106 -0.15227644 -0.26529542 0.07316382 -0.05722388 -0.10271479 -0.13425374
0.13228318 -0.12406414 -0.3345506 -0.14706159 -0.11897252 -0.19447975 -0.07351675 -0.20606345
-0.10572926 0.011236391 -0.20147729 -0.15320468 -0.11962336 -0.19569246 -0.1604211 -0.15907568
-0.29078022 -0.07679607 -0.0305754 -0.15692177 -0.07139882 -0.06953125 -0.11360862 -0.113093175
0.087616906 0.007559299 0.053784333 0.04862018 0.05964798 -0.0773486 0.10341003 -0.077505365
0.101352446 -0.089544326 -0.011013343 0.06718768 0.035675406 -0.08239752 -0.04678979 -0.09532278
-0.08447067 0.057087492 -0.04672673 0.028101562 0.032952547 -0.034183104 -0.0414358 0.006897179
-0.020222766 -0.07890361 -0.06548969 0.027787376 0.0237814 -0.0072473087 -0.055036537 0.07396023
0.12022555 -0.057943117 -0.0442302 0.10675505 -0.1286619 0.031870447 0.09777521 0.09812897
0.0035748892 0.11369053 -0.10731775 0.1095522 -0.03133265 0.06870847 0.0649656 -0.05380921
0.028349696 0.027636994 -0.09428357 -0.06968872 0.049240626 0.08250827 -0.011774673 0.08583547
-0.06447668 -0.079328775 -0.0031474654 -0.029593268 0.09328682 -0.043040644 0.028639806 0.042903397
-0.23749606 -0.022021325 -0.16886881 -0.24183762 -0.23994456 -0.31345114 -0.24778251 -0.37201825
-0.33632287 -0.21818951 -0.08105476 -0.19686656 -0.30327967 -0.114856154 -0.25336358 -0.25423542
-0.1319192 -0.188018 -0.3469689 -0.42655462 -0.17319551 -0.44159657 -0.13128251 -0.12744275
-0.06703818 -0.09445759 -0.18902051 -0.22261286 -0.19192034 -0.11831502 -0.12881747 -0.0049196244
-0.08836346 -0.13346446 -0.16738565 -0.28400952 -0.14923789 -0.0012388615 -0.1629984 -0.16643855
0.024493601 -0.19769272 -0.35611996 -0.18898927 -0.15967415 -0.31283292 -0.106326304 -0.11849568
-0.10722642 0.025194919 -0.06524079 -0.1288142 -0.14535604 -0.090897046 -0.13057885 -0.16818053
-0.23765816 -0.1330242 -0.15926935 -0.22782952 -0.12059833 -0.18115096 -0.07273633 -0.13006014

lstm.bias_hh_l0 f4 [256]
00000000: 8d0a 6bbe e98f 60bd 93a9 a7bd 3a06 9bbe
00000010: d8dc 2ebe d5eb 85be f8eb acbd 6bbb a2be
00000020: 01cc 7dbe f9c8 74be 45f3 99be 0e07 a0be
00000030: 5f9b 89be eb3a 3dbe 2cb0 64be 9f71 35be
00000040: f988 1fbe 888d 6bbe 6d72 a8be 128b c6be
00000050: 8dea 6fbe a9bb 70be 3ccb a1be d27c 5cbe
00000060: 5fc1 55be f7af a6be 3f99 2fbe 6b97 39be
00000070: 7062 3abe c590 40be 3b86 afbd 0ce1 aabd
00000080: a018 1ebe 1abe 8fbd 9eaf 7ebe f860 14be
00000090: a2d0 abbd d45b b4bd 4212 b43c 5509 25be
000000a0: 90da 87bc 2874 98be ff95 babe a76b d2be
000000b0: f182 3abe d683 09be d970 13be 09ec 98be
000000c0: ed78 2cbe 5653 05bd f88a fbbd 5b35 0bbe
000000d0: c4ae 0cbe 92fa c8bd 7706 69bd 2029 84be
000000e0: f1d0 93be e688 4fbe 66b8 89be bcc6 65be
000000f0: 8a28 80bd 705b 81be d9f4 32be 4405 85bd
00000100: 6a7d cabd 46fe 85bd b2a6 febd 92f0 14be
00000110: 18ac 8ebe 30bc dcbd 9d0d 34be 4cfa 8cbe
00000120: e6d9 6dbd fd09 90bd 9195 85bd 820c d5bd
00000130: eeab 76be 035d b2bd be04 7cbe ad60 6bbd
00000140: 2152 4e3d 4229 84be c4a8 cfbd 7414 ecbd
00000150: bd36 11bc 9585 67be 78b3 7fbe 9789 59be
00000160: 83c7 c3b8 130e 79be 155e 073d dab5 4abe
00000170: ea8a d4bd 2c7d 90bc 2fd9 60be c0ae 2fbe
00000180: db56 4ebe 68a2 cbbd 947c 91bd d775 89be
00000190: e4b0 aabd 3c8b 38be 96d5 633b 9bfa 30bd
000001a0: e5d1 d73d 8b47 debd 1e05 4cbe e109 97be
000001b0: 1935 0ebe f8c4 ffbd 4257 57be 6b46 8bbd
000001c0: a9e1 d1bc 7ef3 26be f5d3 edbd bcae 33be
000001d0: ffb6 6cbe 4240 24be b2a6 66be 547e 73bd
000001e0: fde4 7cbe 8e52 84be 4eca 1abe b2c1 edbc
000001f0: 4ece 03be 4609 45be 9f21 e7bd 8bb8 05bd
00000200: 2d6e 0bbd e888 953d b680 863d 1ef2 6bbd
00000210: 5d65 973d 2cd4 05bd a0a9 0cbc d571 0a3d
00000220: 2343 29bd ce76 9f3d db27 1cbd 64e6 8b3d
00000230: ae10 66bd 7f7b 30bd 802c f33c ad14 003d
00000240: efbe f93b 496c 4c3d bbba 20bd 2001 9e3d
00000250: a0a9 3e3c b851 953d 1ea9 0bbd 0785 78bd
00000260: f7ff a7bc ef26 943d b549 bbbd 7e0a a6bd
00000270: eb4f af3d ea64 593c 2db8 9dbc 00fd 4c3d
00000280: a0a9 26bd 373e 72bd d96b b03c a8ce 5abd
00000290: cd29 913d b2cf 98bd 31e7 d43d 8675 c1bc
000002a0: a9c7 903c 0b56 eabd 8162 503d 0300 68bd
000002b0: 830e ceba 3914 14bd e161 39bd 4304 9ebd
000002c0: 4c54 74bd 8ee9 cf3d f1d6 3a3d e294 d3bd
000002d0: 5188 9abd fd78 58bd 4508 5b3b 92b0 b4bd
000002e0: a521 a3bd a902 033e 8eb1 863d f647 b53c
000002f0: c008 21bd e715 083b 79f2 c93d 38dc 0c3c
00000300: aa72 75bd e579 2bbe 8a5d 38be 9ee1 aabe
00000310: 2d87 abbe 057d b1be a010 d9bd f56a 70be
00000320: a1e6 a0be 38cb 1dbe 2376 36be 1353 27be
00000330: dd67 66be e2c0 88bd e846 16be 0cb6 49be
00000340: 6990 1cbe 863f 7ebe f596 5abe 30fd a2be
00000350: 541b aabd 44b6 6bbe ad3c 47be 6e28 7dbe
00000360: c9ce 62be 01ce 98be f5af 023d 5d4b b7be
00000370: ebdc a8bd 9a91 3dbe 45a7 c6bd c9a9 afbd
00000380: 41bf 43be 16a9 bbbd 69ee 59be d021 04be
00000390: 9e26 f7bd 297d 65be fa2f febc 1605 22be
000003a0: 268a 883b ddc0 9dbe b5f7 8fbe 1d43 b4be
000003b0: 6367 d9bd 411f f0bd 8e87 62be b0e2 87be
000003c0: 6934 81be 0483 fcbd 0813 80be e1aa 9fbd
000003d0: 7022 45bd 6dd0 6cbe 673e 18bd 0a74 89be
000003e0: 771d cdbe 6724 0dbe d5de 4cbe edd0 2ebd
000003f0: dc65 9ebd c211 0abe a8b8 7abe 39cf 5dbe
-0.22953244 -0.054824743 -0.081866406 -0.30278188 -0.17076433 -0.26156488 -0.08443445 -0.31783614
-0.24784853 -0.2390479 -0.30068412 -0.31255382 -0.2687635 -0.18479507 -0.22332829 -0.17719124
-0.15579595 -0.23003209 -0.328998 -0.38777977 -0.23429318 -0.23509087 -0.31600368 -0.2153199
-0.20874546 -0.32556126 -0.17148302 -0.18124168 -0.18201613 -0.18805225 -0.08570524 -0.083437055
-0.15439081 -0.07018681 -0.2487168 -0.14490116 -0.08389403 -0.08806577 0.021981362 -0.16116841
-0.01658371 -0.2977612 -0.36442563 -0.41097757 -0.18214013 -0.13429198 -0.14398517 -0.2986758
-0.16843005 -0.03255018 -0.122823656 -0.13594572 -0.13738543 -0.098134175 -0.05689093 -0.25812626
-0.28870347 -0.20267066 -0.26898497 -0.22439092 -0.06257732 -0.25265074 -0.17476214 -0.06495145
-0.09887202 -0.065426394 -0.12434138 -0.14544895 -0.27865672 -0.107780814 -0.17583318 -0.2753471
-0.058069132 -0.07033155 -0.06522668 -0.10402776 -0.24089023 -0.08709147 -0.24611184 -0.057465244
0.050371293 -0.25812727 -0.10139611 -0.115273386 -0.008863148 -0.22609551 -0.24970806 -0.21243893
-9.3354865e-05 -0.24321775 0.033048708 -0.19795933 -0.10378058 -0.017637812 -0.21957849 -0.17156506
-0.2015032 -0.09943086 -0.071038395 -0.26847717 -0.083345205 -0.18021864 0.0034764758 -0.043207746
0.10538081 -0.108534895 -0.19923827 -0.29499725 -0.13887443 -0.12488741 -0.2102938 -0.068005405
-0.025620298 -0.16303822 -0.11612693 -0.17547125 -0.23116682 -0.16040137 -0.22524527 -0.059446648
-0.24696727 -0.25844234 -0.15116236 -0.029023025 -0.12871668 -0.19241819 -0.112857096 -0.032646697
-0.03404062 0.073015034 0.065675184 -0.057603948 0.073923804 -0.032673046 -0.008585364 0.033799965
-0.041323792 0.07786332 -0.038123947 0.06831053 -0.05616825 -0.043086525 0.029684305 0.031269718
0.007621638 0.049907956 -0.03924058 0.07715058 0.011637121 0.07290977 -0.03409683 -0.06067374
-0.020507796 0.072339885 -0.09144918 -0.0810747 0.08560165 0.013268689 -0.01925286 0.050045967
-0.04068911 -0.059141364 0.0215358 -0.05341974 0.07088051 -0.0746149 0.10395659 -0.02361561
0.01767333 -0.11442193 0.05087519 -0.056640636 -0.0015720878 -0.0361521 -0.04525936 -0.077156566
-0.059650704 0.10151969 0.04561514 -0.103311315 -0.075455315 -0.05284976 0.0033421677 -0.088227406
-0.079654016 0.12793984 0.065768346 0.02212904 -0.039314985 0.0020765008 0.09860701 0.008597426
-0.059923805 -0.16745718 -0.18004432 -0.33375257 -0.33501568 -0.34665695 -0.10598874 -0.23478301
-0.31425956 -0.15409553 -0.17818503 -0.16340284 -0.22500558 -0.066774145 -0.14675486 -0.19698352
-0.15289463 -0.2482892 -0.21346648 -0.31833792 -0.08305994 -0.23018748 -0.1945674 -0.24722454
-0.22149195 -0.29844669 0.031906087 -0.35799685 -0.08245262 -0.18512574 -0.09699873 -0.08577306
-0.19115926 -0.0916311 -0.21282353 -0.12903523 -0.120679125 -0.22411026 -0.031028736 -0.15822253
0.004166859 -0.30811206 -0.28118673 -0.35207453 -0.106154226 -0.11724711 -0.22122023 -0.26540136
-0.25235298 -0.12329677 -0.2501452 -0.077962644 -0.048128545 -0.23126383 -0.037168887 -0.26846343
-0.40061542 -0.13783418 -0.20006879 -0.042679716 -0.07734272 -0.13483337 -0.24484503 -0.2166108

lstm.weight_ih_l0_reverse f4 [256, 13]
00000000: a850 63be 7c31 0dbe 0f45 34be 07f5 80be
00000010: 0a1c 05be bc85 19be 22d6 83bc be91 1e3d
00000020: 49d2 e3bd 5ca9 00be a63d 2cbd 0581 a7bc
00000030: e7ed 80be 9df0 06be 6d10 adba a7be 1ebe
00000040: 4f7f 43be ca14 95bd 4d1e 1e3d cf39 1fbe
00000050: c3f6 4e3d 3ea9 96be 7dad b1be 1e08 44be
00000060: e4a0 fcbc 8e0f 8abd 5d5a cebc 019d 80bd
00000070: c421 2cbe 690d b6bd 317a 6b3e d838 433e
00000080: feeb a33d 04e6 06bd 7a2c 5cbf 75f2 c8be
00000090: d481 d0be 29e5 3fbe 7fc2 f0bd 6980 96bd
000000a0: 49c2 aebd e840 e1bd 405b 71bc e9d8 12be
000000b0: 2854 85bd 3777 853a 5436 cabd 1459 39be
000000c0: 7cc0 50bd 194f cebc 7b10 0fbe 1533 05be
000000d0: 83ad 96be f059 a5be 8c60 d9be f82f 9dbe
000000e0: 7095 1fbf 08db ffbe 2a13 01bf a0be cb3d
000000f0: 5ea8 4b3e 204e 2a3d b8c9 13be 54c4 d4be
00000100: a5eb 45be f2db 47be c8db 7cbe 0942 96be
00000110: 8dbe 8abe 5f85 c5bd 0362 68be 2eb6 9fbe
00000120: 01d8 03be 3657 74be 66c7 bbbe 34a5 79be
00000130: dd32 81be 9201 87be 7812 babe b0a4 8dbe
00000140: 580a 87be 25b9 5fbe 0a30 18be 6f40 12be
00000150: 1c5f 83be 9afc 59be 54da f4bd 6f71 71be
00000160: 44a1 59be cdc4 a6be ae5a d1bd 2f4d bebd
00000170: 23f8 b4bd e91d debd 66f4 dcbd 7ad2 113e
00000180: 2e9b a5bd 8ec0 8a3c 65e7 953d 47e3 3cbe
00000190: e358 05be f4a9 46be d46b 473d 7bfc 97bd
000001a0: c68d b9bd 9fd1 64be 9bc0 13be 40a8 89bd
000001b0: 4156 a3bd 8ebf 59be 6dc4 39be 39cc 2abe
000001c0: 2b74 e4bd f8d6 a4be 257d ccbd 643c 5cbd
000001d0: 489b 54be 9bed 26be da5a 3dbe ff7e f7bd
000001e0: d4f4 99bd 2fbc 80be 008b 3ebe c7e8 c6bd
000001f0: f2dc 91bd 0d83 8fbd d702 3abe 030a 18be
00000200: f56c 62be 1c03 f4bd 110d 51bd 389d 6fbe
00000210: ecc4 6ebd 0977 97bd 214c c0bd 204b f83c
00000220: 69e7 433d b9c4 36be 4516 a5bd 3b06 a5bd
00000230: 835a 52bd 8841 89bd 0d30 83bc f0f9 eabd
00000240: b904 5ebe d6b7 c4bd bd72 39bd 52af 1b3e
00000250: 4db0 dcbc ca6a 0a3d ef49 dabd b0b3 16bf
00000260: f619 08bf ff6e d4be d91b 59be 828d 28be
00000270: 3f0b 62be 1700 b5bd 031b 39be 6799 7fbe
00000280: 8e01 253c 8112 f6bc f9c8 1abe f4a3 14be
00000290: 9c40 17be b16f ccbd e09b 1dbe 5b44 1dbe
000002a0: 2235 51bd 88d0 b1be 6e6e 16be b588 4ebe
000002b0: d839 99be 476f f3bd 21b8 6abe 53c3 0cbe
000002c0: 0680 18be dd4a 18be 1edb a4be 1644 39bd
000002d0: 3910 30be b4dd bebd fbec 57bd a4d8 15bd
000002e0: d253 bbbd 1cbd 0fbe 3007 afbd 9698 44be
000002f0: 181b feba e379 ae3d f170 1cbe b9f7 85be
00000300: 2051 53bd f08e 4ebe dc01 48be 5242 04be
00000310: 7152 68be 79ea dbbd 7d00 13be 7a63 a4be
00000320: af69 dfbc 4945 cabd 9986 c8bd 0398 f8bd
00000330: 6bf1 6fbe e98b 7ebe 815f 0bbe 92fe 7fbe
00000340: c20b 3dbd 5bfb 43bd 1f01 13be 1dd7 00be
00000350: 75d2 23be 2051 30be cef3 8bbe 6fe8 243e
00000360: df19 67be 042f 0cbe 655e b9bd 50d5 03be
00000370: 64a8 83be 40c2 e0bd a706 23be 8b86 33be
00000380: 9167 21be 581d e1bd 80a7 f0bd 97fc 01be
00000390: 9c77 47bd 29c4 1bbe 48a4 343d 3dad a2bd
000003a0: 6c5c 20be 926d ebbd d082 6fbd 3efd d5bd
000003b0: faa9 24be 38c3 56be 91e6 ffbc 5581 bdbd
000003c0: 7be6 56be 68f3 a73d e077 d5be ea96 03bf
000003d0: 1a71 bbbd 76c0 76be eb6f 99be 021f f4bd
000003e0: 2a69 2fbd d4a7 6dbd 31e9 72be b032 a83e
000003f0: 419b b5bd a0a3 6d3d 413d b43d 1519 29bf
-0.22198737 -0.13788408 -0.17604469 -0.2518694 -0.12998977 -0.14992422 -0.016093317 0.03871321
-0.11124093 -0.12564605 -0.04205098 -0.020447263 -0.25181505 -0.13177724 -0.0013203748 -0.15502416
-0.19091533 -0.07279356 0.038603116 -0.15549396 0.0505283 -0.29425997 -0.34702674 -0.19143721
-0.030838437 -0.06741248 -0.025189573 -0.06279946 -0.16809756 -0.088892765 0.22995831 0.19064653
0.08003996 -0.032934204 -0.86005366 -0.3924748 -0.4072405 -0.18739761 -0.11755847 -0.07348711
-0.08533151 -0.10998708 -0.014731228 -0.14340557 -0.06510192 0.0010182624 -0.098736435 -0.18100387
-0.050964817 -0.025184201 -0.1397113 -0.13007767 -0.29429254 -0.3229518 -0.42456472 -0.3070066
-0.623374 -0.49971795 -0.5041987 0.09948468 0.19888446 0.041578412 -0.14432418 -0.41556036
-0.19328173 -0.19517496 -0.24693215 -0.29347256 -0.27098504 -0.09644579 -0.22693639 -0.3119368
-0.12875368 -0.23861393 -0.36675566 -0.24379426 -0.25234118 -0.26368386 -0.36342216 -0.2766471
-0.2637508 -0.21847971 -0.14862075 -0.14282392 -0.256585 -0.21287766 -0.11955705 -0.23578428
-0.21252924 -0.32572022 -0.10222374 -0.09292065 -0.08836391 -0.10845549 -0.10788803 0.14240447
-0.08086239 0.01693752 0.07319526 -0.18446074 -0.13022189 -0.1940077 0.048686817 -0.07421204
-0.09060244 -0.22345589 -0.14428942 -0.06721544 -0.07975436 -0.21264479 -0.18141337 -0.16679467
-0.1115497 -0.32195258 -0.09984807 -0.05376853 -0.2076236 -0.16301577 -0.18491688 -0.120847695
-0.075174004 -0.25143573 -0.18607712 -0.097123675 -0.0712222 -0.07007418 -0.18165146 -0.14847569
-0.22111876 -0.119146556 -0.05103785 -0.23399818 -0.058293268 -0.07395751 -0.093895204 0.03030926
0.04782811 -0.17848481 -0.08060888 -0.08057829 -0.05135585 -0.06701952 -0.016014123 -0.11473453
-0.21681489 -0.096053764 -0.04527544 0.15203598 -0.026939536 0.03379325 -0.10658633 -0.5886793
-0.53164613 -0.41490933 -0.2120203 -0.16460231 -0.22074603 -0.08837908 -0.1807671 -0.24960862
0.010071171 -0.03003812 -0.15115727 -0.14515668 -0.1477074 -0.09982241 -0.15391493 -0.15358107
-0.051076062 -0.3472941 -0.14690563 -0.20169337 -0.29926944 -0.11886459 -0.22921802 -0.13746385
-0.14892587 -0.14872308 -0.32198423 -0.045230947 -0.17193688 -0.0931963 -0.052716237 -0.036583558
-0.09146847 -0.14036983 -0.08546293 -0.19198832 -0.0019386737 0.08519342 -0.15277459 -0.2616556
-0.05159104 -0.20171714 -0.1953196 -0.12915924 -0.22687699 -0.107380815 -0.14355655 -0.32107145
-0.027272074 -0.09876496 -0.097912975 -0.12138369 -0.23431937 -0.24858059 -0.1361065 -0.24999455
-0.04615379 -0.047847133 -0.14355896 -0.12582059 -0.15998252 -0.17218447 -0.27334446 0.16104291
-0.22568463 -0.1368981 -0.090512075 -0.12874341 -0.2571441 -0.1097455 -0.15920506 -0.17531793
-0.15762164 -0.10991925 -0.11750698 -0.12694012 -0.048698053 -0.15211548 0.044101983 -0.07943199
-0.15660256 -0.11495508 -0.058474362 -0.10448693 -0.16080466 -0.20972908 -0.031237872 -0.09253184
-0.20986359 0.08200723 -0.4169302 -0.5140215 -0.09152432 -0.24096856 -0.299682 -0.11919977
-0.0428249 -0.05802138 -0.23721768 0.32851171 -0.08867503 0.058017373 0.08800746 -0.660539

lstm.weight_hh_l0_reverse f4 [256, 64]
00000000: d025 4a3d 0ef5 e33d fc66 38bd b946 07be
00000010: c9a4 29bc 3fbd 7fbd c035 5d3c 98e5 18be
00000020: 1831 193d 4ae6 bdbd 04d4 92bc 349a 6e3c
00000030: ed9a 46bd 3a73 0fbe 94bd b8bb 1568 35bd
00000040: d6c4 a1bd 755c 0d3e 83b0 983d affd 28be
00000050: 3c1b 163e 954f 873d b94f 8a3d 18b3 47bb
00000060: 091e 12bc 4e07 edbd 3d10 cfbd 475e 7e3d
00000070: 6502 01be 1443 78bc f32d 003e 7fc5 f23d
00000080: cadf 233e 8900 15bd 6ccd f4bd ac7c 263d
00000090: c16a a83d 2f24 a4bb 0303 bc3c f3f3 72bc
000000a0: b794 223e 070b 443a 70d1 bfbd f592 e93c
000000b0: 9b08 abbc d7dc c23b 816d 503d 0226 9ebd
000000c0: 336d 12be c451 823c 6bab 01be 9597 d23d
000000d0: 3c8b 853d 7e55 273d dfa3 c8bd a11b 803d
000000e0: 6bc3 a13c 9d26 b5bc 40b1 0e3d fae0 733b
000000f0: dbdb 853d 1040 82bc b127 aa3d e32b 4fbb
00000100: bb9f b6bd 748c fbbd b96c f6bd 581d 86bd
00000110: fef8 1e3e 9415 20be 7697 063d 4b55 b8bd
00000120: 6682 29be ac28 92bc f18d dcbd 1f54 1abd
00000130: 48f3 94bd 970e adbd acf4 363c 1962 23be
00000140: 91ce 473d c018 f33d 44b7 62be 95b4 1a3e
00000150: f3ab 003e 4a59 60bd 7cca 173d 8f84 443d
00000160: 5498 75bd fe11 1ebe 132d 3a3d dabd 553d
00000170: 9ebc 0fbe 792c 31bd e96c 943d 307f a53d
00000180: acdf d83c 7f9b 4ebe 5ba1 f93b afb6 7c3b
00000190: 1d18 bebc 796c 703d 81eb 893d 0f02 643d
000001a0: bd8a a03d 3ec0 0d3e 526f 863d 82ac 0f3e
000001b0: ec54 adbd a406 9b3c 6861 c93d 2195 783a
000001c0: 0ea5 353c 6046 86bd afe1 eaba fb62 963e
000001d0: 887c babb 8ac4 b3bd 443f 4bbd 2ebc 2b3c
000001e0: 6adf de3d 5906 07bd 1025 a2bc 8247 95bd
000001f0: 0c69 2cbe 6b69 913d 12d5 1e3e c2c5 033c
00000200: bd97 8b3d a3a2 6cbe 6678 54be aee6 30bd
00000210: 2ce2 223e d08f f7bd 2cc4 cf3d c0c3 043e
00000220: 4953 86be 52e2 6fbd 6e43 c73d c0d4 c6be
00000230: fda9 353e 2113 efbd 8fb0 02be 3f7a 893c
00000240: 11d5 043e dd08 28be c67a b2be 16e1 4d3d
00000250: de48 8a3d 489f 003d 90f5 903c 0068 323d
00000260: ec17 98bc 09f6 8bbd 7006 f73c 03fe 45bd
00000270: 33a6 4bbd f9e2 b7be b15e b53d cda9 1d3e
00000280: 9f1c 883e 29b8 ddbe 06b7 b93d c4cb 10be
00000290: 8f9b e0bd b9a8 35bd b99b 3dbe 7c87 d3bd
000002a0: 7bdf 5f3d c0ac a63d 76a6 c2bd dfe6 2d3f
000002b0: 6fbf c9bd 8774 f1bd d7c9 dcbd f358 853e
000002c0: 6cc7 25be 1615 83be b9af 353e 1c3d 863e
000002d0: 323c 863d 9790 3bbe a7ef 9fbd 7090 f5bd
000002e0: 3ab0 b83d 0694 97bd 932a a7be c07b a03d
000002f0: d77b 72be 63df 6e3e 0561 b23e 7366 963e
00000300: 89e6 273d c6b0 ea3d 2508 5dbb 5eca b2bd
00000310: a799 a0bc 2d1f 4cbd a28a 8a3b 5ba8 19bd
00000320: 120a 4a3d 19e7 d7bd 76bc 3dbc 583b d9bb
00000330: 97fa 253d 73ff c23d 22dd 48bd 0f24 88bd
00000340: 7f45 82bd b40f 52bc d3bb 1abe f9ce efbc
00000350: a930 24bd eb96 213e db4a 453d 4169 5cbd
00000360: 6ba3 a63d b7cd 453d 8ddd 15be 0089 dbbd
00000370: a1f0 20be 5c15 23be 44a7 e4bc fc53 d7bb
00000380: 9c9a a1bd c89a 8dbd 4594 7ebc fb89 d5bd
00000390: 074c 003e 8ff9 903c f86a 4bbd c7cd 34bb
000003a0: 7d96 7a3d e467 1d3e c69d 65bd 270a baba
000003b0: 69f1 71bc 0335 2d3c 4b49 1cbd 9441 da3c
000003c0: 2546 a63d 68ea ecbc b403 163d 7fcb 59bd
000003d0: e26d 103e 0549 473b ed6d d83c f437 22bd
000003e0: dd36 84bc a891 d8bc 8f2c f2bd b315 4c3d
000003f0: 7b23 63bc 219d 1c3e 28b1 70bc 1ba1 5e3d
0.049352467 0.11130725 -0.04502009 -0.13210572 -0.010354229 -0.06243634 0.0135015845 -0.14931333
0.037400335 -0.0927244 -0.017923363 0.014563132 -0.048487592 -0.14008799 -0.005637834 -0.044288713
-0.078988716 0.13804801 0.07455542 -0.16503023 0.14658827 0.06606976 0.06753487 -0.0030471738
-0.008918294 -0.11573659 -0.10110519 0.06210163 -0.1259857 -0.015152711 0.12517528 0.11854076
0.16003338 -0.036377463 -0.119532436 0.04064624 0.08223487 -0.0050091962 0.022950655 -0.01482867
0.15877043 0.000747845 -0.09366119 0.028512457 -0.020878127 0.0059467363 0.05088568 -0.07722093
-0.14299469 0.01590813 -0.12663047 0.10282818 0.065206975 0.040853016 -0.09796881 0.0625527
0.019746503 -0.022113139 0.034837008 0.0037212954 0.06536075 -0.015899688 0.08308352 -0.0031611852
-0.08917185 -0.12282649 -0.12032456 -0.065485656 0.1552467 -0.15633231 0.03285929 -0.09000643
-0.1655365 -0.01784166 -0.10769261 -0.03767788 -0.07272965 -0.084500484 0.011166733 -0.1595539
0.04878098 0.11869955 -0.22140223 0.15107949 0.12565593 -0.054772653 0.03705834 0.04797798
-0.059959725 -0.15436551 0.045453142 0.05218301 -0.14036795 -0.043255303 0.072473355 0.080809
0.026473843 -0.20176505 0.007618112 0.0038561036 -0.023204857 0.058697198 0.06734372 0.055666026
0.07838962 0.13842866 0.065642014 0.1403065 -0.08463463 0.018924065 0.09833032 0.0009482671
0.011086715 -0.06556392 -0.0017920042 0.2937239 -0.005691115 -0.08777721 -0.04962088 0.010481877
0.108824566 -0.032965038 -0.019793063 -0.0728903 -0.16836947 0.07100185 0.15510967 0.008042755
0.06816051 -0.23108916 -0.20749053 -0.043188743 0.1590659 -0.12087977 0.10144839 0.12965298
-0.26235417 -0.058565445 0.09729658 -0.3883419 0.17740627 -0.116735704 -0.12762664 0.016781924
0.12971903 -0.16409631 -0.34859294 0.050263487 0.067521796 0.031401902 0.017695218 0.043556213
-0.018566094 -0.06834037 0.030154437 -0.048337948 -0.049719047 -0.35915354 0.088559516 0.15396805
0.26584336 -0.43304566 0.09068112 -0.1414023 -0.109671704 -0.04435036 -0.18516435 -0.10328576
0.054656487 0.08138418 -0.09504406 0.67930406 -0.09850966 -0.11789804 -0.107806854 0.26044425
-0.16189355 -0.25602025 0.17742814 0.26218498 0.0655445 -0.18316875 -0.07809382 -0.1199044
0.090179875 -0.0740128 -0.3264967 0.078361034 -0.23680054 0.23327403 0.34839645 0.29375038
0.04099134 0.11459498 -0.0033726778 -0.08730005 -0.019604517 -0.04983442 0.004227952 -0.037514072
0.04932601 -0.10542125 -0.011580577 -0.006629389 0.040522184 0.09521379 -0.049039014 -0.06647503
-0.063609116 -0.012821127 -0.15110712 -0.029273497 -0.04008547 0.15780227 0.04816709 -0.053811315
0.08136638 0.048291888 -0.14635296 -0.1071949 -0.15716793 -0.15926117 -0.02791179 -0.006571291
-0.078908175 -0.06914288 -0.01553828 -0.10426708 0.12529002 0.017697124 -0.04966256 -0.0027588473
0.061178673 0.15371662 -0.056058668 -0.00141937 -0.014767029 0.010571721 -0.038155835 0.026642598
0.08118848 -0.028920367 0.036624625 -0.053172585 0.14104417 0.0030408513 0.026419604 -0.039604142
-0.016139442 -0.026436642 -0.11824905 0.04982538 -0.01386344 0.15294315 -0.014690675 0.05435286

lstm.bias_ih_l0_reverse f4 [256]
00000000: 200d 52be 04e5 3ebe 5cd0 babd d1e2 e9bd
00000010: 54f9 34be 4003 74be 17db 9fbe 0511 50be
00000020: 43f4 70be eca9 87be 1b77 cabd 38e0 c0bd
00000030: fe63 94be fee0 adbe 6262 1dbe 7925 9bbe
00000040: 1fb3 b0be f806 dcbc abc2 92be c909 37be
00000050: 0160 cbbe ac85 9cbe 3076 82be d9bd 27be
00000060: a60e 0dbe cb02 72be b4b4 9dbc cc60 65be
00000070: 18ff aebb a647 debe 0e89 b2be bbbb 36be
00000080: 7a46 acbd 7e58 6ebe 90df 163c 93a4 66be
00000090: 748f a939 38c2 a0be ca9f abbd 9d36 80be
000000a0: 6577 86be a1a9 f2be 4583 ccbe 45df 32be
000000b0: 3fbc 72be 8015 93bd db8b 1bbe d650 91be
000000c0: 85c3 aabe 83f4 94be 937f a4be 7fff 53be
000000d0: ef4a 81be 7df8 e0bd 3016 ddbd ff4f 8ebe
000000e0: 78dd 06be 829b 55be 9478 42be 7777 39be
000000f0: d410 6dbd 1ef5 81be c0d2 86be a1c0 0fbe
00000100: 2f83 02be 499d 61be b24c f9bd 0e3b 38be
00000110: d754 ec3d e124 94bd 8437 8fbe 867a d4bd
00000120: 8389 91be 3bfb cabd 97ed 74be 27ed 883c
00000130: 17da e1bd 54c1 90be 933f 85be 9757 6bbe
00000140: b89f a0be d66d 743d 6fd6 70be 3317 b1bd
00000150: aeba 67be 177c 30be 8a44 84be c613 5abd
00000160: d465 03be 664e 9ebe d823 06be 7b97 b6bd
00000170: 4467 50be deb0 a7be 84bf 1fbe a4c3 f5bd
00000180: 4dbb 3cbe 8466 a7bd a23a e1bd eb65 6cbe
00000190: 6347 24be 8888 89bd 152f ebbd 1a0b 24be
000001a0: a466 c5bd 5617 23be 327e 7ebe 7da9 08be
000001b0: d0f9 50be 9df3 ffbc fa3f b9bb 94b9 72be
000001c0: 32b2 42be 8bef 8dbe 5c1d 90be f1ae 6ebe
000001d0: 775d a1bd 7f57 7abe 8bd6 2f3c 38f0 54be
000001e0: 5b6e 8fbd 7582 e6bd 6619 3dbe 026d cdbd
000001f0: c536 e3bd f64b c9bd 62de 01be a71d 25be
00000200: 0b77 c03d f946 abbd 7fa4 953d d18d 8abc
00000210: b1cd 24bd fbd1 80bd 638f 4d3d 82f3 cc3d
00000220: 7bd7 9e3d 359d 133c 2035 b0bd 48cd 793c
00000230: 0a98 b13d 4d04 813d 909a 11bd c043 e53d
00000240: c603 8bbd 3827 ba3c 0f7a 13be d174 03bd
00000250: c572 88bb e25e 6cbd 654e b53d a4a6 5fbd
00000260: 61c8 be3d 2231 a33d 22c5 63bc 6752 aa3d
00000270: 8c38 093d 021c a9bd a42f 9b3d c74b adbd
00000280: 7e37 dc3c 473f 6c3d 97aa 0c3c b54e d23c
00000290: 173b b5bd 039a 98bd 8fd4 d03c f09e 953d
000002a0: 0c53 d4bc cdce b13d b723 073c eec4 7abd
000002b0: d2d7 2e3d 001a 80bc 00b9 10bd 61cb bf3b
000002c0: 5504 b73d 1f74 cfbd b8c7 2a3d 15ed da3d
000002d0: 6182 e0bd 9f7a 75bd 2a47 98bb 9f53 05be
000002e0: f428 aebd 98f8 843c 53cc a23d 0c9d d3bd
000002f0: c667 9fbd 00b6 3ebb ad33 803d b130 36bd
00000300: f678 12be e776 34be 5cca 94be ae51 59be
00000310: f8f0 87be 987c c7be 166c 18be 37c0 cfbc
00000320: ca94 a2be 68a2 07be a24e 28be 5a3d 11be
00000330: cb34 36be 0cd4 84be c04d 2ebe 3693 96be
00000340: 8962 afbe 6d62 3b3d dad8 6ebe 982a d1bd
00000350: 36a9 2dbe 784d 90be 5072 95be 7eef 0bbe
00000360: b4b3 1dbe 5467 bbbe 0f38 71bd cd58 a7bd
00000370: 0c91 e7bd 66c8 c5be 5903 5dbe c01d 8bbc
00000380: 0b0a 69be 67a7 91bd a918 c33b 4e72 b9bd
00000390: cae1 7e3c 5a3a a7be bc7c d3bd e030 a0be
000003a0: 0023 fabd f3cb 8fbe 16db aabe d2e7 fbbd
000003b0: 77ff 74bd c288 55be d006 d3bd e355 77be
000003c0: b3a5 22be 63e5 b1bd 5eea 20be 210d d0bd
000003d0: 07bf 9bbe 5ec0 cbbd 1e49 efbd 47ec 44be
000003e0: 3ac2 30be a44b dcbd 20b2 9fbe 64f5 6dbe
000003f0: 98b4 d7bd cada 21be 0afd a2be 94dc 8bbe
-0.2051282 -0.1864205 -0.09121773 -0.11420215 -0.17673236 -0.23829365 -0.3122184 -0.20318992
-0.23530678 -0.26496828 -0.09885999 -0.09417766 -0.28982538 -0.33960718 -0.15369561 -0.30302027
-0.3451166 -0.026858792 -0.28664145 -0.17874826 -0.39721683 -0.30570734 -0.25480795 -0.16381015
-0.13775119 -0.23633878 -0.019251205 -0.22400206 -0.005340468 -0.43414038 -0.3487019 -0.17845051
-0.0841188 -0.23275945 0.009208575 -0.22523718 0.00032341073 -0.31398177 -0.08380087 -0.25041667
-0.26262966 -0.47395042 -0.399439 -0.17467983 -0.23704623 -0.07181835 -0.1519007 -0.28381985
-0.33352295 -0.29092798 -0.3212858 -0.20702933 -0.25252482 -0.109848954 -0.107952476 -0.27795407
-0.13170421 -0.20860103 -0.1899131 -0.18111978 -0.057877377 -0.25382322 -0.26332664 -0.14038326
-0.12745355 -0.22032656 -0.121728316 -0.17991278 0.115396194 -0.072335966 -0.27972043 -0.10374932
-0.28425226 -0.099112 -0.23918758 0.016714646 -0.110279255 -0.28272498 -0.26025066 -0.22982632
-0.31371856 0.05967506 -0.235193 -0.08647003 -0.22629806 -0.17234837 -0.2583354 -0.053241514
-0.12831813 -0.30919188 -0.13099611 -0.08915611 -0.20351893 -0.32752126 -0.15600401 -0.12000206
-0.18430825 -0.0817385 -0.109975114 -0.23085754 -0.16042857 -0.067154944 -0.114835896 -0.1601986
-0.09638718 -0.1592687 -0.24852827 -0.13345905 -0.20407796 -0.031244094 -0.0056533786 -0.23703605
-0.19013289 -0.2772182 -0.281474 -0.23308922 -0.07879155 -0.2444744 0.010732303 -0.20794761
-0.070034705 -0.112553515 -0.1846672 -0.10030557 -0.11094431 -0.098289415 -0.12682489 -0.16124593
0.09397706 -0.08363146 0.07306766 -0.016913326 -0.040235225 -0.062900506 0.050185572 0.10007383
0.077559434 0.009009649 -0.08603883 0.015246697 0.08671577 0.062996484 -0.035547793 0.11194563
-0.06787829 0.02272378 -0.1440203 -0.032093827 -0.004164072 -0.057707675 0.08852843 -0.05460228
0.09315563 0.07968356 -0.013901981 0.08316498 0.033501193 -0.08257295 0.07577446 -0.08461719
0.02688193 0.057677533 0.008585594 0.025672296 -0.08849161 -0.074512504 0.02549198 0.073057055
-0.025918506 0.08682022 0.008248261 -0.061222963 0.04268629 -0.015637398 -0.03533268 0.005853102
0.08936373 -0.1012957 0.041694373 0.10689751 -0.10962368 -0.059931394 -0.0046471553 -0.1302018
-0.08503905 0.01623182 0.07949128 -0.10332689 -0.07783465 -0.002910018 0.062598564 -0.04448003
-0.14303955 -0.17623483 -0.29060638 -0.21222565 -0.26551032 -0.38962245 -0.14884982 -0.02536021
-0.31754142 -0.13245547 -0.16436246 -0.1418356 -0.17793576 -0.2594303 -0.17021847 -0.29409188
-0.34254864 0.045748163 -0.2332491 -0.10213202 -0.1695908 -0.28184104 -0.29188776 -0.13665578
-0.15400583 -0.3660227 -0.058891352 -0.08171234 -0.11306962 -0.38629454 -0.21583308 -0.01698196
-0.22757737 -0.071120076 0.0059538675 -0.09055005 0.015556762 -0.32661706 -0.103265256 -0.3128729
-0.12213707 -0.28085288 -0.33370274 -0.123000756 -0.059813943 -0.2085295 -0.10304034 -0.24153857
-0.15883522 -0.0868633 -0.15714404 -0.10158754 -0.3041918 -0.099488005 -0.11683868 -0.19230758
-0.17261592 -0.10756615 -0.31190586 -0.2323814 -0.105324924 -0.15806118 -0.31833678 -0.27316725
