attn_lstm_model.pth (torch, 170575 bytes, 11 tensors)

lstm.weight_ih_l0 f4 [256, 13]
0	0x3cff5a17	0.031170888
1	0xbdad173b	-0.084516965
2	0xbe2b7ccb	-0.16746823
3	0xbe0d95d7	-0.1382669
4	0xbe313d21	-0.17308475
5	0xbde5ffa0	-0.11230397
6	0x3ce141e9	0.027497249
7	0xbe334871	-0.17508103
8	0xbe582278	-0.21106899
9	0x3ca0458c	0.019564413
10	0xbd9059c8	-0.070483744
11	0xbe496697	-0.19668041
12	0xbdbc763e	-0.092022404
13	0xbe965210	-0.29359484
14	0xbe610eaf	-0.21978258
15	0xbdf637d6	-0.120223686
16	0xbe910852	-0.2832666
17	0xbec1f2cd	-0.37880555
18	0xbe50e9aa	-0.20401636
19	0xbe805fd3	-0.25073108
20	0xbd52bb4b	-0.051448148
21	0xbe9ba450	-0.30398798
22	0xbd281c0d	-0.041042376
23	0xbe9ee35a	-0.3103283
24	0xbdfb47ab	-0.12269529
25	0xbe5c04e5	-0.21486242
26	0xbe0ffa89	-0.14060415
27	0x3d4882a8	0.04895273
28	0xbd3e4cc8	-0.046459943
29	0x3cd72145	0.026260981
30	0x3c833e1d	0.016020829
31	0x3d44f048	0.048080713
32	0x3d54bdc5	0.05193879
33	0x3e975f3b	0.29564843
34	0x3e430086	0.19043168
35	0xbda014a4	-0.07816437
36	0xbdc69f50	-0.09698355
37	0x3e05f805	0.13082893
38	0xbd421363	-0.04738177
39	0x39509199	0.00019890665
40	0xbe5cc546	-0.21559629
41	0xbe4d9a20	-0.20078325
42	0xbdb9a446	-0.09064536
43	0xbc9a957a	-0.018870104
44	0xbdf00b90	-0.11720955
45	0xbe24cbdb	-0.1609339
46	0xbe4780a6	-0.19482669
47	0xbe359269	-0.17731632
48	0xbd084240	-0.033266306
49	0xbdfd2bf1	-0.12361897
50	0xbe4befe9	-0.19915737
51	0x3d143584	0.03618385
52	0xbe255b33	-0.16148071
53	0xbd037a00	-0.03209877
54	0x3c75e567	0.015008307
55	0xbd9aaef2	-0.075528994
56	0xbe623d87	-0.22093783
57	0xbe0e340c	-0.13887042
58	0xbd0d79c0	-0.034539938
59	0xbca0a12c	-0.019608103
60	0xbda27090	-0.07931626
61	0xbd3436f1	-0.04399771
62	0xbe0a5e8a	-0.13512626
63	0xbcf2cc07	-0.029638303
64	0xbccc3139	-0.024925815
65	0xbe23659f	-0.15956734
66	0xbd43bd18	-0.047787756
67	0xbdf88755	-0.121351875
68	0xbe543c59	-0.20726146
69	0xbe4eee7c	-0.20208162
70	0x3dd20c3b	0.10256239
71	0x3d80f537	0.06296771
72	0x3db38b9f	0.08766865
73	0xbdd22969	-0.102618046
74	0xbe3935ba	-0.18086901
75	0xbdcd0cac	-0.100121826
76	0xbc8bf70e	-0.017085578
77	0xbe31346a	-0.1730515
78	0xbea8db45	-0.3297979
79	0xbe1aa92e	-0.151036
80	0xbe93de66	-0.28880614
81	0xbea18205	-0.3154451
82	0xbe0bf04a	-0.13665882
83	0xbd970a08	-0.0737496
84	0xbe896a03	-0.26838693
85	0xbe0fe69e	-0.14052817
86	0x3d4f7e25	0.05065741
87	0xbe4a825e	-0.19776294
88	0xbe56a96f	-0.20963071
89	0xbe3bb334	-0.1833008
90	0xbe5894d0	-0.21150517
91	0xbdccf86a	-0.10008319
92	0xbe55ead3	-0.2089036
93	0xbe83ae8b	-0.25719103
94	0xbe01602d	-0.12634344
95	0xbe089eff	-0.13341902
96	0xbe400d5f	-0.187551
97	0xbd41e60e	-0.047338538
98	0x3d2436ee	0.040091448
99	0xbe280d6b	-0.16411369
100	0xbe1e4d0f	-0.15459083
101	0xbe48fbc6	-0.19627294
102	0xbe43a775	-0.19106849
103	0xbe28bfcf	-0.16479419
104	0xbe8d0727	-0.2754452
105	0xbd7f519d	-0.062333692
106	0xbe646639	-0.2230462
107	0xbe83f71f	-0.25774476
108	0xbe3af25a	-0.18256512
109	0xbd9ce7a7	-0.07661372
110	0xbe5dbf40	-0.21654987
111	0xbddd9fbd	-0.10821483
112	0xbc11a67c	-0.008889791
113	0xbe136177	-0.14392649
114	0xbd428d01	-0.047497753
115	0xbe3d20b9	-0.18469514
116	0xbd8e01aa	-0.06933911
117	0xbd3ffc97	-0.046871748
118	0xbe70782b	-0.2348334
119	0xbdf3501b	-0.11880513
120	0xbe45efaf	-0.19329713
121	0xbd3f4b05	-0.046702404
122	0xbe0308ef	-0.12796377
123	0xbe61d917	-0.2205547
124	0xbdded92b	-0.10881265
125	0x3cf5db45	0.030011782
126	0xbe5b2fec	-0.21405
127	0xbe85935f	-0.26088998
128	0xbde1dfa5	-0.11028985
129	0xbdadf65e	-0.084942564
130	0xbe7d55e6	-0.24739799
131	0xbead6867	-0.33868715
132	0xbe415eaa	-0.18883768
133	0xbe2a661d	-0.16640516
134	0xbdc5d2ad	-0.09659324
135	0xbe33995d	-0.17538972
136	0xbdf31794	-0.118697315
137	0xbddf656c	-0.109080166
138	0xbd8eb2f8	-0.06967729
139	0xbe8e0f90	-0.27746248
140	0xbe874e28	-0.26426816
141	0xbed4c833	-0.4155899
142	0xbe44bd5b	-0.19212858
143	0xbc8c0a88	-0.017094865
144	0xbe4ac7f3	-0.19802837
145	0xbd5cb344	-0.0538819
146	0xbd0d9194	-0.034562662
147	0x3d68f3f8	0.05687329
148	0xbdcbd570	-0.09952819
149	0xbc759705	-0.014989619
150	0xbdf1f45b	-0.11814185
151	0xbe54191c	-0.20712703
152	0xbe561883	-0.20907788
153	0xbd32a7bb	-0.04361699
154	0x3ceb1889	0.028698223
155	0xbdc6f334	-0.09714356
156	0xbdb1c93a	-0.08680959
157	0x3d00ca9a	0.031443216
158	0xbd981ec9	-0.07427747
159	0xbe0b7af1	-0.13621117
160	0xbe92806f	-0.28613612
161	0x3ded5208	0.11587912
162	0x3e0b3d80	0.13597679
163	0x3ea7ab03	0.3274766
164	0x3bf8b751	0.0075902124
165	0x3d5488bd	0.051888216
166	0xbe3be709	-0.18349852
167	0x3d4d0bf0	0.050060213
168	0x3da7220a	0.08160789
169	0xbdb2ceb1	-0.087308295
170	0xbdb84ec0	-0.08999395
171	0xbe687c48	-0.2270366
172	0xbdba7c3f	-0.09105729
173	0xbe4a0bb7	-0.19731031
174	0xbe2e3c9a	-0.17015305
175	0xbda9eac1	-0.08296729
176	0xbe2ad045	-0.16681011
177	0xbda7f07e	-0.08200167
178	0xbe5b72f2	-0.21430567
179	0xbe149c49	-0.14512743
180	0xbe074979	-0.13211621
181	0xbdde5fd4	-0.108581215
182	0xbce9c7b7	-0.028537614
183	0xbdc1c8d8	-0.09462136
184	0xbd9463aa	-0.07245572
185	0xbb36a7cc	-0.002787101
186	0xbe700ccc	-0.23442382
187	0xbdd58328	-0.10425407
188	0xbe395f93	-0.18102865
189	0x3e9ba081	0.30395892
190	0x3dde46f4	0.10853377
191	0xbdb7675c	-0.08955261
192	0x3c28c574	0.010300983
193	0x3d251bf8	0.040309876
194	0xbe6ad3f0	-0.2293241
195	0xbe5e2930	-0.216954
196	0xbcd9a0ca	-0.026565928
197	0xbe7ec12a	-0.24878374
198	0xbcb06e84	-0.021537073
199	0xbe59b88d	-0.21261807
200	0x39941b57	0.0002824913
201	0xbd6c0e1a	-0.057630636
202	0x3ddab8b0	0.106797576
203	0xbe068544	-0.13136774
204	0xbe6ab753	-0.22921495
205	0xbd0ae8a2	-0.033913262
206	0xbe3c8a37	-0.184121
207	0xbe835e12	-0.25657707
208	0xbd3efb64	-0.046626464
209	0xbe684711	-0.2268336
210	0xbe7afce2	-0.2451053
211	0xbe103b15	-0.14085038
212	0xbd60606f	-0.054779466
213	0xbe09158b	-0.13387124
214	0xbe058b08	-0.13041317
215	0xbd82a110	-0.063783765
216	0xbe3682cd	-0.17823334
217	0xbe619467	-0.22029267
218	0xbe7c2aa3	-0.2462564
219	0xbe67e301	-0.22645189
220	0xbe828842	-0.2549458
221	0xbe977dda	-0.29588205
222	0xbeb3a794	-0.3508879
223	0xbeba32c8	-0.36366868
224	0xbe9407b1	-0.28912118
225	0xbf4f81b3	-0.8105728
226	0x3e2ec0c6	0.17065725
227	0x3e4a1f99	0.19738616
228	0x3ec2a8bc	0.3801936
229	0xbe5a3a07	-0.21311198
230	0x3d97e75a	0.07417174
231	0x3e8959e4	0.26826394
232	0xbec1b552	-0.3783365
233	0x3bddc3c7	0.0067677232
234	0xbe922734	-0.28545535
235	0xbe8c9570	-0.27457762
236	0xbe468cb6	-0.19389614
237	0xbe7f2947	-0.2491809
238	0xbe1cd4b8	-0.15315521
239	0xbe199a89	-0.15000357
240	0xbe9eea37	-0.31038067
241	0xbd75efb5	-0.060043056
242	0xbe3d00fa	-0.18457404
243	0xbe116c9f	-0.14201592
244	0xbe7e3e7d	-0.24828525
245	0xbd5e7cd8	-0.05431828
246	0xbdd327c6	-0.103103206
247	0xbd395d0e	-0.04525476
248	0x3d73350c	0.05937676
249	0xbcc0636c	-0.023484908
250	0x3cdeef5e	0.027213749
251	0xbe489b7c	-0.19590563
252	0x3d7f8389	0.0623813
253	0xbd499cc2	-0.04922176
254	0x3e3c64e2	0.18397859
255	0x3d73e9b1	0.059549037

lstm.weight_hh_l0 f4 [256, 64]
0	0xbce6cf6d	-0.02817508
1	0x3d7a51f2	0.061113305
2	0x3d0f8ce2	0.035046466
3	0xbcef1222	-0.029183451
4	0x3dd217e4	0.10258463
5	0x3e009a17	0.1255878
6	0xbcf83c3d	-0.030302161
7	0x3e2e90e7	0.17047463
8	0x3dd32a92	0.10310854
9	0x3e121db1	0.14269139
10	0x3c1aed3e	0.009455977
11	0xbdd85fd2	-0.10565151
12	0xbe3114d6	-0.17293105
13	0x3df22330	0.11823118
14	0x3e0087d6	0.12551817
15	0x3ce1f29e	0.02758151
16	0x3da4406a	0.080200985
17	0x3d23f603	0.040029537
18	0xbd0bafe4	-0.03410329
19	0x3e2068fd	0.1566505
20	0x3da01f42	0.07818462
21	0x3e033b76	0.12815651
22	0xbe2320e5	-0.15930517
23	0x3d15d7b8	0.03658268
24	0xbccbab28	-0.024861887
25	0x3e0bb2fb	0.13642494
26	0x3d0e8afe	0.034800522
27	0xbdd7e0b1	-0.10540903
28	0x3cfe4554	0.031038918
29	0xbd138068	-0.03601113
30	0xbe04f546	-0.1298419
31	0x3d5c107d	0.053726662
32	0x3dc473c3	0.09592392
33	0x3d3da933	0.04630394
34	0x3d2eec11	0.0427056
35	0x3dac580c	0.08415231
36	0xbd8f0869	-0.06984026
37	0x3b6fa756	0.0036568246
38	0x3d18ef48	0.03733757
39	0xbdc6288a	-0.09675701
40	0xbd9b0436	-0.075691625
41	0x3d6a8692	0.057257243
42	0xbbec3a50	-0.0072091
43	0x3db964ac	0.09052405
44	0x3da20cbe	0.07912587
45	0x3dedb38d	0.11606512
46	0x3e179389	0.14802374
47	0x3c2daf91	0.01060094
48	0xbd191796	-0.03737601
49	0xbd39e6de	-0.045386188
50	0xbde593e4	-0.112098485
51	0x3ded2175	0.11578647
52	0xbe230679	-0.15920438
53	0x3dd8b2cc	0.10580978
54	0xbd00d6cd	-0.03145485
55	0xbb88dac9	-0.004176472
56	0x3d01286e	0.031532697
57	0xbc589407	-0.013218886
58	0x3de1d157	0.110262565
59	0x3e397206	0.18109903
60	0xbde55755	-0.11198298
61	0x3d819298	0.06326789
62	0x3e1e5871	0.15463425
63	0xbce20e0c	-0.027594589
64	0x3e02c0b3	0.12768821
65	0x3cf20457	0.029543085
66	0x3da95556	0.0826823
67	0xbd013e5e	-0.03155362
68	0x3d473b2d	0.04864042
69	0xbd0b3c4f	-0.03399306
70	0xbdfac09c	-0.122437686
71	0x3e277354	0.16352588
72	0xbd429094	-0.04750116
73	0xbd63195f	-0.055444118
74	0xbcbf8495	-0.02337865
75	0xbdb1226a	-0.08649142
76	0xbe2de30d	-0.16981144
77	0xbc1325f6	-0.008981219
78	0x3d231514	0.039815024
79	0x3e1cacf5	0.15300353
80	0xbe33a8fd	-0.17544933
81	0x3d984246	0.07434516
82	0xbe375d5e	-0.1790671
83	0x3deae301	0.11469079
84	0x3d2361f6	0.039888345
85	0xbd272be7	-0.040813353
86	0x3d8a032f	0.067388885
87	0x3d6f10a7	0.05836549
88	0x3d96b8bf	0.07359456
89	0x3e238942	0.15970328
90	0xbd3afe9f	-0.04565298
91	0xbde27cbe	-0.11058949
92	0x3d385dff	0.045011517
93	0x3ca38dbf	0.01996505
94	0x3d89c12c	0.06726298
95	0xbe198873	-0.14993457
96	0x3dd4fccb	0.10399779
97	0x3e0fded4	0.14049846
98	0x3de66a5c	0.11250755
99	0xbd8d7076	-0.06906216
100	0x3c7d9446	0.015477246
101	0xbd6dec1d	-0.058086503
102	0xbcedf54b	-0.029047629
103	0x3ddb0e92	0.106961384
104	0x3d861168	0.06546289
105	0xbe22cd97	-0.15898739
106	0xbdc84cbb	-0.0978026
107	0xbd66ab83	-0.05631591
108	0xbded480e	-0.11586009
109	0x3c021875	0.007940401
110	0xbc126b9e	-0.008936791
111	0x3d32e587	0.043675926
112	0xbdb01215	-0.08597199
113	0xbd108b81	-0.03528929
114	0xbb9dae80	-0.004812062
115	0x3d88f2ab	0.0668691
116	0x3c935fa7	0.017989947
117	0xbbc4ace5	-0.006002056
118	0xbd4b10a6	-0.049576424
119	0x3d62cb4c	0.05536966
120	0xbdbd91f4	-0.09256354
121	0x3d44eab6	0.0480754
122	0x3de23830	0.11045873
123	0x3e63ca05	0.22245033
124	0xbc37d17d	-0.0112193795
125	0x3d6c3734	0.057669833
126	0x3c10b958	0.008833252
127	0x3dc4aa50	0.09602797
128	0x3e2e01d4	0.16992885
129	0x3e281ed9	0.16418017
130	0xbb8ae11d	-0.0042382614
131	0xbd42ab9d	-0.047526944
132	0x3d436bbd	0.04771017
133	0xbbc7cc2b	-0.0060973368
134	0xbda523df	-0.080634825
135	0x3dbcc37c	0.09216973
136	0x3da84226	0.08215742
137	0xbd453b75	-0.048152406
138	0xbce5fa4a	-0.028073449
139	0xbe158aa9	-0.14603676
140	0x3cdf2c39	0.027242767
141	0xbdd0eb08	-0.10201079
142	0x3e2c6e08	0.16838849
143	0x3cd1d5fe	0.025614735
144	0x3d5566b2	0.05209989
145	0xbdf274d6	-0.11838691
146	0xbdc93c46	-0.09825949
147	0x3cfa871c	0.030582003
148	0xbd2462fd	-0.040133465
149	0x3dbb19e7	0.091358
150	0xbe16a05c	-0.1470961
151	0x3e38e9dc	0.1805796
152	0xbe23ec63	-0.16008143
153	0x3e5cb2cd	0.21552582
154	0xbd99629d	-0.07489512
155	0x3d0ca980	0.034341335
156	0x3e7d7e84	0.24755293
157	0xbe0befd8	-0.13665712
158	0xbc5ad2f0	-0.0133559555
159	0xbcedf069	-0.0290453
160	0x3d7f7b7a	0.062373616
161	0xbd6f0e1e	-0.058363073
162	0xbddf4f5c	-0.109038085
163	0xbd9750a6	-0.07388429
164	0xbd9b370b	-0.07578858
165	0xbdf14b3d	-0.11781929
166	0xbda58133	-0.080812834
167	0x3d3a79d6	0.045526348
168	0x3d7539c3	0.05986954
169	0xbde8f17e	-0.11374186
170	0xbe2f3eee	-0.1711385
171	0xbdeacd3d	-0.11464927
172	0x3e01781b	0.12643473
173	0xbd45aa90	-0.048258364
174	0x3dac4119	0.08410854
175	0xbd9c1a1d	-0.07622168
176	0xbd01bbad	-0.031673122
177	0x3e037370	0.12837005
178	0xbd83bc88	-0.06432444
179	0xbce66bc5	-0.02812756
180	0xbdb936a2	-0.090436235
181	0xbd85f549	-0.06540925
182	0xbe15677d	-0.14590259
183	0x3e1652f8	0.14680088
184	0xbdcce440	-0.10004473
185	0x3d5198d3	0.051171135
186	0xbd622614	-0.055212095
187	0x3d3367f7	0.04380032
188	0xbcc22662	-0.023699943
189	0x3d286da8	0.0411202
190	0x3e51cece	0.20489046
191	0x3dc2552e	0.09488903
192	0xbd3a0f97	-0.045425024
193	0xbd76ecb8	-0.060284346
194	0xbd0aa452	-0.033848114
195	0xbe359c98	-0.17735517
196	0x3d23caeb	0.03998844
197	0xbe008bc6	-0.1255332
198	0x3bbb5d52	0.0057179118
199	0x3e2cc9bd	0.16873832
200	0xbd8bfb2d	-0.06835017
201	0x3dbcbdb7	0.09215873
202	0xbe30d519	-0.1726879
203	0x3d8c097f	0.06837749
204	0xbde0943e	-0.10965775
205	0x3da7dcc8	0.081964076
206	0x3e1c8f55	0.15289052
207	0x3bae64d6	0.005322079
208	0x3dc5521f	0.09634804
209	0x3cf37b01	0.029721739
210	0x3d3ff82c	0.046867535
211	0x3e0e2fa3	0.1388536
212	0xbd783029	-0.060592804
213	0x3d889fe7	0.06671124
214	0x3cbdc199	0.023163604
215	0x3d6bb192	0.05754239
216	0x3c4eb2e6	0.012615895
217	0x3d86659b	0.065623485
218	0x3df94516	0.1217138
219	0xbe3304a2	-0.17482236
220	0xbd132bd6	-0.035930477
221	0xbd7ea6c9	-0.062170777
222	0x3c8000b0	0.015625328
223	0xbe0de073	-0.13855152
224	0xbd878f10	-0.06619084
225	0x3c7afba5	0.015318786
226	0x3dd4f2a6	0.10397844
227	0xbca71a69	-0.020398336
228	0xbda7652d	-0.081735946
229	0xbe02d5d0	-0.12776875
230	0xbdb22a32	-0.08699454
231	0x3e0e0a08	0.13871014
232	0x3b876f4b	0.00413314
233	0x3d703221	0.058641557
234	0x3d12084d	0.035652447
235	0x3dd1defa	0.102476075
236	0xbdf0a854	-0.11750856
237	0x3d012bea	0.03153602
238	0x3d12fdda	0.035886623
239	0x3e2c72fb	0.16840737
240	0x3c7c54d7	0.015401087
241	0xbe3bdbb6	-0.18345532
242	0x3d9c9187	0.07644945
243	0xbdd81945	-0.10551695
244	0x3db14142	0.08655025
245	0x3d9054bc	0.07047412
246	0xbb9a6404	-0.00471163
247	0xbcb52402	-0.022111896
248	0x3d880ff1	0.066436656
249	0x3e073299	0.13202895
250	0x3e10b122	0.14130071
251	0x3d9166af	0.070996635
252	0x3c1bfe73	0.009521115
253	0x3c0266ad	0.00795905
254	0xbd27b141	-0.040940527
255	0xbcab4757	-0.02090804

lstm.bias_ih_l0 f4 [256]
0	0xbe26e881	-0.1629963
1	0xbe82a991	-0.25519994
2	0xbe5e3054	-0.21698123
3	0xbe05a409	-0.13050856
4	0xbe44f6ad	-0.19234724
5	0xbe06b806	-0.13156137
6	0xbe96feb7	-0.29491207
7	0xbe77cce1	-0.24199249
8	0xbdaf259c	-0.08552095
9	0xbe8125f2	-0.25224262
10	0xbe685975	-0.22690375
11	0xbe18ba78	-0.14914882
12	0x3c66ab99	0.014078998
13	0xbe4a2972	-0.19742373
14	0xbdadcf63	-0.084868215
15	0xbe893713	-0.2679983
16	0xbe4a1de2	-0.19737962
17	0xbdc1fba2	-0.09471823
18	0xbe66b4cc	-0.22529906
19	0xbe3387e1	-0.17532302
20	0xbe3539e1	-0.1769786
21	0xbe12c3f2	-0.1433256
22	0xbe9d3e20	-0.3071146
23	0xbb3943c6	-0.0028269156
24	0xbe40f1b9	-0.1884221
25	0xbdd216ac	-0.102582306
26	0xbe4365b0	-0.1908176
27	0xbea9277e	-0.33037943
28	0xbe4156b7	-0.18880735
29	0xbea0345d	-0.3128995
30	0xbe8357b9	-0.25652865
31	0xbe5cdc1f	-0.21568345
32	0xbe91fc15	-0.28512636
33	0xbe2dcf98	-0.16973722
34	0xbe16c390	-0.14723039
35	0xbe058d19	-0.13042106
36	0xbe731fdb	-0.2374262
37	0xbdc1838d	-0.094489194
38	0xbe2a881d	-0.16653486
39	0xbe64587c	-0.22299379
40	0xbe0273d1	-0.12739493
41	0xbe23e0fe	-0.16003796
42	0xbd1bf2d8	-0.03807339
43	0xbe778229	-0.24170746
44	0xbea5593f	-0.32294652
45	0xbe260a1e	-0.16214797
46	0xbe62336f	-0.22089933
47	0xbdc7ac74	-0.0974969
48	0xbe057458	-0.13032663
49	0xbd2c1a01	-0.042016987
50	0xbe9b18da	-0.30292398
51	0xbe5f09fc	-0.21781152
52	0xbe57cd11	-0.2107432
53	0xbe839e4d	-0.2570671
54	0xbe39e52b	-0.18153827
55	0xbe80d9b4	-0.25166094
56	0xbd8d4796	-0.068984196
57	0xbe524d6b	-0.20537345
58	0xbe51f038	-0.20501792
59	0xbe47c6bf	-0.1950941
60	0xbdcdf37c	-0.100562066
61	0xbe13a965	-0.14420088
62	0xbe18583d	-0.1487741
63	0xbdca0d50	-0.098658204
64	0xbde5d69d	-0.11222575
65	0xbe76ebbd	-0.24113365
66	0xbd055f50	-0.0325616
67	0xbcdf49fc	-0.027256958
68	0xbe25c839	-0.1618966
69	0xbd889b02	-0.066701904
70	0xbe951e49	-0.29124668
71	0xbe13d52a	-0.14436784
72	0xbdbe8a7c	-0.093037575
73	0xbe071a0f	-0.13193534
74	0xbe5e387f	-0.21701239
75	0xbe335687	-0.17513476
76	0xbe426ac1	-0.18986036
77	0xbe6f78d2	-0.23385933
78	0xbe48d41a	-0.1961216
79	0xbe6f9f20	-0.23400545
80	0xbe510803	-0.20413212
81	0xbe3c033e	-0.18360612
82	0xbcf471cc	-0.029839419
83	0xbd874c77	-0.066063814
84	0xbe257add	-0.1616015
85	0xbde88b99	-0.11354751
86	0xbe6816da	-0.22664967
87	0xbe36e14a	-0.17859378
88	0xbe443432	-0.19160536
89	0xbe6988ff	-0.22806166
90	0xbcefae7b	-0.029258003
91	0xbe90ed20	-0.28305912
92	0xbe6ed9dd	-0.23325296
93	0xbe341ec7	-0.17589866
94	0xbe326009	-0.17419447
95	0xbe1515b6	-0.14559063
96	0xbda907ff	-0.08253478
97	0xbe4bfa99	-0.19919814
98	0xbe2de4c5	-0.169818
99	0xbdfeacff	-0.1243534
100	0xbd6d37a2	-0.057914384
101	0x38550dee	5.079613e-05
102	0xbdf912e6	-0.12161808
103	0xbe500db6	-0.2031773
104	0xbe16358a	-0.14668861
105	0xbe087d1a	-0.13328972
106	0xbd123de1	-0.035703544
107	0xbe8152d4	-0.25258505
108	0xbe7fc906	-0.24979028
109	0xbe63523f	-0.22199343
110	0xbde612f9	-0.112340875
111	0xbe775094	-0.24151832
112	0xbdcd81f2	-0.10034551
113	0xbe3838fe	-0.17990491
114	0xbdf9e211	-0.12201322
115	0xbe8ceb87	-0.27523443
116	0xbe3d805b	-0.18505995
117	0xbea54840	-0.32281685
118	0xbe106dce	-0.14104387
119	0xbde47304	-0.1115475
120	0xbe17a72f	-0.14809869
121	0xbe19b608	-0.15010846
122	0xbe422033	-0.18957596
123	0xbe0e88ba	-0.13919345
124	0xbe361776	-0.17782387
125	0xbe7f12a3	-0.24909453
126	0xbc882523	-0.01661927
127	0xbe213251	-0.1574185
128	0xbcaafa7f	-0.020871399
129	0xbcd70cfd	-0.02625131
130	0x3da5ccd4	0.080957085
131	0x3cd1a024	0.025589056
132	0xbd92c386	-0.071661994
133	0xbc27e8cb	-0.010248373
134	0xbc85a36a	-0.016313273
135	0x3d64fea2	0.0559069
136	0xbd8cf734	-0.06883088
137	0xbcd882a0	-0.026429474
138	0x3d230003	0.039794933
139	0x3c3c18ca	0.01148052
140	0x3d410220	0.047121167
141	0xbc900c8b	-0.017584106
142	0xbdb3d80f	-0.08781444
143	0xbd63b21c	-0.05558978
144	0x3dae080c	0.084976286
145	0xbcc6dfe2	-0.024276678
146	0x3ca29164	0.019844718
147	0xbdae238d	-0.085028745
148	0x3d31af49	0.043380056
149	0xbc65aecf	-0.014018728
150	0xbd4f4de4	-0.05061139
151	0xbcf62b05	-0.03004981
152	0xbc39f617	-0.011350176
153	0xbd93272d	-0.071852066
154	0xbbb71b79	-0.005587992
155	0x3c9582a5	0.018250773
156	0xbd31f334	-0.043444827
157	0x3cbe57af	0.02323517
158	0x3da338e8	0.079698384
159	0x3d803bc9	0.06261403
160	0x3d87ea9c	0.06636545
161	0xbd380173	-0.044923257
162	0xbd908281	-0.07056142
163	0x3d3fa39c	0.04678689
164	0x3cbcdd15	0.023054639
165	0x3dada242	0.08478214
166	0x3d8e6208	0.06952292
167	0x3c6873af	0.014187737
168	0x3cee0988	0.02905728
169	0x3c6f3205	0.014599328
170	0x3daa7848	0.08323723
171	0x3c9a0a2f	0.018803684
172	0x3db8a46d	0.09015737
173	0xbd8d0a04	-0.06886676
174	0x3c9d94a8	0.019235924
175	0x3d72a4cf	0.059239205
176	0xbcfc4a9a	-0.030797292
177	0xbca6f407	-0.020380033
178	0x3b87229a	0.004123998
179	0x3d2883df	0.041141387
180	0x3db6c0f7	0.08923524
181	0xbac9f37e	-0.0015407649
182	0xbd337776	-0.0438151
183	0x3d3632b2	0.04448194
184	0xbc4af502	-0.012387516
185	0xbda46b12	-0.080282345
186	0xbd98083c	-0.074234456
187	0xbc5bf4ab	-0.013425033
188	0xbd8a53ff	-0.06754302
189	0xbd20db2b	-0.039271515
190	0xbd5e9238	-0.054338664
191	0xbd326903	-0.04355718
192	0xbe0d6896	-0.13809428
193	0xbe1fbba7	-0.15598927
194	0xbd6cdbf4	-0.05782695
195	0xbe402189	-0.18762793
196	0xbe5e3f78	-0.21703899
197	0xbdd3d601	-0.103435524
198	0xbeca77e7	-0.39544603
199	0xbe45a028	-0.19299376
200	0xbe595d9b	-0.21227114
201	0xbe4d9816	-0.20077547
202	0xbe17421f	-0.14771317
203	0xbd2d1962	-0.042260535
204	0xbdb2d7af	-0.08732545
205	0xbe186fbb	-0.14886372
206	0xbe1214ce	-0.14265749
207	0xbdb0167e	-0.0859804
208	0xbe2e967a	-0.1704959
209	0xbd9dca8d	-0.07704649
210	0xbddbdfd4	-0.10736051
211	0xbd001df2	-0.031278558
212	0xbe544472	-0.20729235
213	0xbe5a1988	-0.21298802
214	0xbed62e78	-0.41832328
215	0xbc71b6c5	-0.014753048
216	0xbe84c2b2	-0.2592979
217	0xbe6cfea4	-0.23144013
218	0xbe8a9ff8	-0.2707517
219	0xbeb07e68	-0.3447144
220	0xbe59727b	-0.21235077
221	0xbe3af18e	-0.18256208
222	0xbd3aac70	-0.045574605
223	0xbe34d899	-0.1766075
224	0xbe831234	-0.25599825
225	0xbdc136f8	-0.094343126
226	0xbe2817df	-0.16415356
227	0xbea11b24	-0.3146602
228	0xbe31157e	-0.17293355
229	0xbe67ef3f	-0.22649859
230	0xbe824e9d	-0.25450602
231	0xbd46baf4	-0.048518136
232	0xbea5d24b	-0.32387003
233	0xbd8a3382	-0.067481056
234	0xbdce514d	-0.10074101
235	0xbe3c2c97	-0.18376385
236	0xbe4352a1	-0.19074489
237	0xbe6ccd02	-0.2312508
238	0xbca0ab1b	-0.01961284
239	0xbe3baf0e	-0.18328497
240	0xbe39fdcc	-0.18163222
241	0xbe3f9dfc	-0.1871261
242	0xbe3b65e2	-0.18300584
243	0xbe733148	-0.23749268
244	0xbe83aa5f	-0.2571592
245	0xbe86a771	-0.26299623
246	0xbe848ad5	-0.2588717
247	0xbd5d2952	-0.053994484
248	0xbe4fd9bd	-0.20297904
249	0xbd4b9727	-0.049704697
250	0xbe4270cf	-0.18988346
251	0xbdc95976	-0.098315164
252	0xbe2f4b96	-0.17118677
253	0xbe78d098	-0.24298322
254	0xbd84a7f9	-0.06477351
255	0xbe948c72	-0.290134

lstm.bias_hh_l0 f4 [256]
0	0xbe36963f	-0.17830752
1	0xbdc98013	-0.09838881
2	0xbe5c4206	-0.21509561
3	0xbe1585db	-0.14601843
4	0xbd19828b	-0.03747801
5	0xbe9d4913	-0.30719814
6	0xbe757e6d	-0.23974009
7	0xbeb24e1a	-0.34825212
8	0xbda8ebc1	-0.082480915
9	0xbe9875ce	-0.29777378
10	0xbe94f35b	-0.29091915
11	0xbdde5c7a	-0.10857482
12	0xbe1d407c	-0.1535663
13	0xbeb74179	-0.3579214
14	0xbdfeda63	-0.12443998
15	0xbdc66221	-0.09686685
16	0xbe84e679	-0.25957087
17	0xbde9252a	-0.113840416
18	0xbe1d6436	-0.15370259
19	0xbe1c1f86	-0.152464
20	0xbe0d6eaa	-0.13811746
21	0xbe1fb568	-0.15596545
22	0xbe6a8a6d	-0.22904368
23	0xbce8bdad	-0.028410757
24	0xbe214d95	-0.15752251
25	0xbd9fd6cf	-0.07804643
26	0xbe88adef	-0.266952
27	0xbe923e68	-0.28563237
28	0xbe37dc59	-0.1795515
29	0xbe5c68c0	-0.21524334
30	0xbdcc19fe	-0.09965895
31	0xbdb9fc52	-0.090813294
32	0xbe49de05	-0.197136
33	0xbe4ba5f0	-0.19887519
34	0xbdb9127b	-0.09036728
35	0xbe48c0f3	-0.19604854
36	0xbd1c0983	-0.03809501
37	0xbe22b837	-0.15890585
38	0xbe9721b1	-0.29517892
39	0xbd82dbd7	-0.063895874
40	0xbe7b019a	-0.2451233
41	0xbdeaee09	-0.11471183
42	0xbe49f251	-0.19721343
43	0xbe91f3d1	-0.2850633
44	0xbe02ad12	-0.12761334
45	0xbe89b633	-0.2689682
46	0xbc8e4834	-0.017368414
47	0xbe17d350	-0.14826703
48	0xbe61ef93	-0.22064047
49	0xbe057458	-0.13032663
50	0xbe7533f1	-0.23945595
51	0xbe715f84	-0.23571593
52	0xbe8e85ef	-0.27836558
53	0xbe7b4ae8	-0.24540293
54	0xbe389eeb	-0.18029372
55	0xbd96ddd4	-0.07366529
56	0xbe66d479	-0.2254199
57	0xbdc488be	-0.09596394
58	0xbe8aa0a2	-0.27075678
59	0xbdd5492e	-0.104143485
60	0xbe88ce44	-0.26719868
61	0xbea23ed8	-0.3168857
62	0xbe9dea24	-0.30842698
63	0xbe9038c3	-0.28168306
64	0xbdb0c727	-0.08631735
65	0xbe433738	-0.19064033
66	0xbcad538c	-0.021158002
67	0xbd595a6a	-0.05306474
68	0xbcf30efc	-0.029670231
69	0xbe0d2416	-0.13783297
70	0xbe4b667e	-0.19863316
71	0xbe8aeaa9	-0.27132156
72	0xbda01c40	-0.07817888
73	0xbe2ad42d	-0.16682501
74	0xbe27fa4f	-0.16404079
75	0x3caa14a9	0.020761805
76	0xbe7822a9	-0.24231972
77	0xbdfb172c	-0.12260279
78	0xbdd0dc52	-0.10198273
79	0xbd207f6e	-0.039184026
80	0xbccff190	-0.02538374
81	0xbe3d3e38	-0.18480766
82	0xbdf9c30a	-0.12195404
83	0xbdacef47	-0.08444076
84	0xbdcad585	-0.09904007
85	0xbd9d3680	-0.07676411
86	0xbdda6f36	-0.10665743
87	0xbd3cd556	-0.04610189
88	0xbdaf0c5c	-0.08547279
89	0xbe2227c7	-0.15835486
90	0xbe58f17d	-0.2118587
91	0xbdc09cfc	-0.094049424
92	0xbe170e01	-0.14751436
93	0xbe574771	-0.21023346
94	0xbe2601f0	-0.16211677
95	0xbe76fdef	-0.24120305
96	0xbd8b753e	-0.068094715
97	0xbdcd6229	-0.10028488
98	0x3acb350b	0.0015503479
99	0xbe828063	-0.25488576
100	0xbe69d4cc	-0.22835082
101	0xbe46713d	-0.19379134
102	0xbe8e328c	-0.2777294
103	0xbd71f3b7	-0.059070315
104	0xbe6cfd6c	-0.23143548
105	0xbe297a8e	-0.16550657
106	0xbbd25189	-0.006418411
107	0xbe303235	-0.17206652
108	0xbe572c21	-0.21012928
109	0xbe1a16fd	-0.15047832
110	0xbc7b3ffa	-0.015335077
111	0xbe34f876	-0.17672905
112	0xbe048b4c	-0.12943763
113	0x3ca0d633	0.019633388
114	0xbe2d6fa4	-0.16937119
115	0xbe7021e6	-0.23450431
116	0xbe7c6fa9	-0.2465197
117	0xbddba071	-0.10723961
118	0xbe8d1d22	-0.2756129
119	0xbe1d4005	-0.15356453
120	0xbe680e09	-0.22661604
121	0xbdd4c72d	-0.10389552
122	0xbdabb172	-0.083834544
123	0xbce0b1d9	-0.027428554
124	0xbba49ceb	-0.005023589
125	0xbe84095a	-0.25788385
126	0xbe514352	-0.20435837
127	0xbdbb994c	-0.091600984
128	0xbc9ee631	-0.019396873
129	0xbdb45098	-0.088044345
130	0xbe139756	-0.14413199
131	0x3c099ef5	0.008399715
132	0xbda066ee	-0.07832132
133	0x3b61eaf9	0.003447233
134	0xbd1d085b	-0.038338047
135	0xbdf62be4	-0.1202009
136	0x3cb41bd3	0.021985924
137	0xbc7bbe44	-0.015365187
138	0x3ca7adcf	0.02046862
139	0xbd0c740c	-0.03429036
140	0x3d827595	0.06370083
141	0xbd8e908e	-0.06961165
142	0xbc57dc0e	-0.013175024
143	0x3db3bac9	0.08775861
144	0xbdb778b6	-0.08958571
145	0x3d675506	0.05647757
146	0x3d382f7d	0.044967163
147	0xbda4076d	-0.08009229
148	0x3c2ce59f	0.010552793
149	0xbd4fd48e	-0.050739817
150	0x3dd3ce5d	0.10342095
151	0x3ce77609	0.028254526
152	0x3cc95b87	0.024579776
153	0xbd857697	-0.0651676
154	0xbc8e6b1e	-0.017385062
155	0xbd0a7d28	-0.033810765
156	0xbd41da44	-0.047327295
157	0x3d559459	0.05214343
158	0xbb3e2d6a	-0.0029018768
159	0x3d6034d9	0.0547379
160	0x3b4dc376	0.0031397021
161	0xbbf1c132	-0.007377767
162	0x3dfdb553	0.123881005
163	0xbd9ac205	-0.075565375
164	0x3c6f5607	0.014607913
165	0xbd4d24b2	-0.050083824
166	0xbd5b8bd1	-0.053600136
167	0xbc81efd2	-0.015861426
168	0x3c27f444	0.010251109
169	0xbbd2acd6	-0.006429295
170	0x3d6e6967	0.05820599
171	0x3bfbbb5c	0.007682247
172	0xbdd79ddb	-0.105281554
173	0x3d68ef7b	0.05686901
174	0xbd94e20a	-0.07269676
175	0xbdb32f5e	-0.08749269
176	0x3d6b06f2	0.05737967
177	0xbd60329b	-0.05473576
178	0x3d72cbac	0.059276268
179	0xbd8950b4	-0.06704846
180	0x3c2d653c	0.010583218
181	0xbd8426a9	-0.06452686
182	0x3d3a6b22	0.045512326
183	0x3d694b5a	0.056956626
184	0xbc7338bd	-0.01484507
185	0xbdb78ac2	-0.08962013
186	0x3d33172d	0.043723274
187	0xbd4e30a6	-0.050339364
188	0x3d8ced0d	0.06881151
189	0x3d9a2103	0.07525828
190	0xbd8df799	-0.06931991
191	0x3dc5ffe7	0.0966795
192	0xbc4213d4	-0.011845548
193	0xbe9d0436	-0.30667275
194	0xbd1a3bf3	-0.03765483
195	0xbd126177	-0.03573748
196	0xbdae05dc	-0.08497211
197	0xbe5955b9	-0.21224107
198	0xbeceffd1	-0.40429547
199	0xbe9ef4db	-0.31046185
200	0xbe49dbcf	-0.19712757
201	0xbe3ce9fc	-0.18448633
202	0xbe8b0545	-0.27152458
203	0xbe43f269	-0.19135441
204	0xbd64e502	-0.05588246
205	0xbe824873	-0.254459
206	0xbdbfa946	-0.09358458
207	0xbe812473	-0.2522312
208	0xbd879bf9	-0.06621546
209	0xbe8acf6a	-0.2711137
210	0xbe4de5da	-0.20107213
211	0xbe229674	-0.15877706
212	0xbe440e68	-0.1914612
213	0xbe5100d9	-0.2041048
214	0xbed00e02	-0.40635687
215	0xbe0e756d	-0.13911982
216	0xbe35037e	-0.17677113
217	0xbe3691ec	-0.17829102
218	0xbe150c8c	-0.14555568
219	0xbeb06118	-0.34449077
220	0xbe7cac1d	-0.24675031
221	0xbe9ee17a	-0.310314
222	0xbe3f855d	-0.18703218
223	0xbe89a2b4	-0.26881945
224	0xbe81a978	-0.25324607
225	0xbd0b044c	-0.033939645
226	0xbdf730d8	-0.12069863
227	0xbe86e053	-0.2634302
228	0xbddb08a2	-0.10695006
229	0xbe6c76b5	-0.23092158
230	0xbea012f8	-0.31264472
231	0xbe436232	-0.19080427
232	0xbe4694ec	-0.19392747
233	0xbd9cc933	-0.07655563
234	0xbcf21029	-0.029548721
235	0xbe888eca	-0.2667144
236	0xbda1b7b4	-0.07896367
237	0xbe8d1725	-0.2755672
238	0xbe723e41	-0.2365656
239	0xbe94bf46	-0.2905218
240	0xbdaa4142	-0.08313228
241	0xbde78fee	-0.11306749
242	0xbeb62d30	-0.3558135
243	0xbe60d628	-0.21956694
244	0xbdbca85e	-0.09211801
245	0xbe765485	-0.24055679
246	0xbeb54e1c	-0.35411155
247	0xbdec2a66	-0.11531524
248	0xbe70d2d8	-0.2351793
249	0xbe43388a	-0.19064537
250	0xbdc8970f	-0.09794437
251	0xbe6d3e10	-0.23168206
252	0xbe4176c6	-0.18892965
253	0xbe5be02c	-0.21472234
254	0xbd9a67d7	-0.07539337
255	0xbe116a4f	-0.1420071

lstm.weight_ih_l0_reverse f4 [256, 13]
0	0xbe36a563	-0.17836528
1	0xbe014e03	-0.12627415
2	0xbd64dca7	-0.055874493
3	0xbe5214f5	-0.20515807
4	0xbc76a45d	-0.015053836
5	0x3c7971d9	0.015224897
6	0xbc8693b8	-0.01642786
7	0x3d6be6e3	0.057593238
8	0xbe300b4b	-0.17191808
9	0xbe988743	-0.29790697
10	0xbe9c2d21	-0.3050318
11	0xbe114cc6	-0.14189443
12	0xbde64c1e	-0.11244987
13	0xbdba8592	-0.09107508
14	0xbe6fedd5	-0.2343057
15	0xbe2ecd0e	-0.1707041
16	0xbdbfce46	-0.093655154
17	0xbcd520ee	-0.026016679
18	0xbe2827c4	-0.1642142
19	0xbdbbecb4	-0.09176007
20	0xbc93da46	-0.018048417
21	0xbdf16f8a	-0.117888525
22	0xbdf63558	-0.12021893
23	0xbe4bc1d9	-0.19898166
24	0xbe00d8b4	-0.12582666
25	0xbe8da92a	-0.27668124
26	0xbe02efaa	-0.12786737
27	0xbe616966	-0.22012863
28	0xbdc77895	-0.09739796
29	0xbdb41d57	-0.08794659
30	0xb9808620	-0.00024513993
31	0xbc15ff49	-0.009155103
32	0xbe12a6ed	-0.1432149
33	0xbe54ec1a	-0.2079319
34	0xbdbadb38	-0.09123844
35	0xbe44600c	-0.19177264
36	0xbe083207	-0.13300334
37	0xbd63b092	-0.055588312
38	0xbe1d361f	-0.15352677
39	0xbe144b33	-0.14481811
40	0xbe2a8a18	-0.16654241
41	0xbe3025e2	-0.17201951
42	0xbe5bbee8	-0.21459544
43	0xbe3b861e	-0.1831288
44	0xbdd0aebe	-0.101895794
45	0xbdd9ed40	-0.10640955
46	0xbe6f787b	-0.23385803
47	0xbd0ff9f0	-0.03515047
48	0x3c7b8877	0.01535236
49	0xbd5a50cc	-0.05329971
50	0xbc5840f7	-0.013199083
51	0xbda858d2	-0.08220066
52	0xbdfd35fd	-0.12363813
53	0xbcec9074	-0.028877474
54	0xbdc4cb38	-0.096090734
55	0xbd3e2f32	-0.046431728
56	0xbd3a9afe	-0.04555797
57	0xbdcb0ea8	-0.09914905
58	0xbc1be824	-0.009515796
59	0xbc800776	-0.015628558
60	0xbd0ed2ff	-0.03486919
61	0xbe024b7b	-0.12724106
62	0xbca2ff83	-0.019897228
63	0xbd57ae38	-0.052656382
64	0xbd8379f9	-0.06419749
65	0xbe259dc2	-0.16173461
66	0xbdc2e686	-0.09516625
67	0xbe52b1dd	-0.20575662
68	0xbe10dc82	-0.14146617
69	0xbdd04bfe	-0.10170744
70	0xbda6a50c	-0.08136949
71	0xbddd718e	-0.108126745
72	0xbd290429	-0.041263733
73	0xbd82a035	-0.06378213
74	0xbdfe5520	-0.1241858
75	0xbe5b2c78	-0.21403682
76	0xbdc35e1f	-0.095394365
77	0xbdce48cd	-0.100724794
78	0xbd8dec10	-0.06929791
79	0xbe5a8032	-0.21337965
80	0xbe2ca78f	-0.16860794
81	0xbd1b90ff	-0.037980076
82	0xbe7bc34c	-0.24586219
83	0xbdd9448c	-0.106087774
84	0x3bdadad7	0.00667892
85	0x3cab0aa6	0.020879101
86	0xbdbd19e5	-0.092334546
87	0xbe15228d	-0.14563961
88	0xbda89e6f	-0.08233344
89	0xbd48d3e9	-0.04903022
90	0xbd3aa115	-0.045563776
91	0x3cda1e7d	0.026625866
92	0xbd0eb840	-0.034843683
93	0xbdaba360	-0.08380771
94	0xbc475dc0	-0.012168348
95	0xbe01f5f2	-0.12691477
96	0xbd7cfc31	-0.061763946
97	0x3c11518b	0.008869539
98	0x3d7951c3	0.06086899
99	0xbc6a1e4d	-0.014289451
100	0xbe671dce	-0.22569963
101	0x3d0faec7	0.03507879
102	0x3d1003aa	0.035159744
103	0xbe6713f1	-0.22566201
104	0xbe29897e	-0.16556355
105	0xbe683382	-0.22675899
106	0xbdd72be6	-0.1050642
107	0xbe628af1	-0.22123314
108	0x3c225f93	0.009910482
109	0xbe1cb860	-0.15304708
110	0xbdad15fc	-0.08451459
111	0xbe10b189	-0.14130224
112	0xbe483a74	-0.19553548
113	0xbe5d4a81	-0.21610452
114	0xbe67bd3f	-0.22630785
115	0xbe64e3c6	-0.22352514
116	0xbcaefcbb	-0.021360746
117	0xbdebc9ee	-0.115131244
118	0xbd9bcc15	-0.07607285
119	0xbe32e978	-0.17471874
120	0xbe1ef8c0	-0.15524578
121	0xbe5d5a2d	-0.2161643
122	0xbe0faeae	-0.14031479
123	0xbd8aaca3	-0.06771209
124	0xbdc428bb	-0.09578081
125	0xbd0e2d18	-0.034710974
126	0xbe48670c	-0.1957056
127	0xbdf4715c	-0.11935684
128	0xbe288839	-0.16458215
129	0xbe1a6e5f	-0.15081166
130	0xbe86e575	-0.26346937
131	0xbdafea82	-0.08589651
132	0xbe134c8a	-0.14384666
133	0xbdd6b499	-0.10483665
134	0xbdf03136	-0.11728136
135	0xbe25a185	-0.16174896
136	0xbe3e736d	-0.18598719
137	0xbe356043	-0.17712502
138	0xbe2fe34e	-0.17176554
139	0xbe669937	-0.22519384
140	0xbe818ef6	-0.25304383
141	0xbe5fee35	-0.21868213
142	0xbe7cfcb8	-0.2470578
143	0xbd444135	-0.04791375
144	0x3ce8361c	0.028346114
145	0xbdf1468c	-0.11781034
146	0xbe15815b	-0.14600126
147	0xbe06b885	-0.13156326
148	0xbdda7905	-0.10667614
149	0xbdefed11	-0.11715139
150	0x3e5beac6	0.21476278
151	0x3d28dffa	0.041229226
152	0xbe53e8cb	-0.20694272
153	0xbcd51a22	-0.026013438
154	0xbe407c6c	-0.18797463
155	0xbdfd7c07	-0.12377172
156	0xbe9b88a9	-0.303777
157	0xbe9aff09	-0.302727
158	0xbe41d06d	-0.18927164
159	0xbe3c549f	-0.18391655
160	0xbe9bbb98	-0.3041656
161	0x3d9c6546	0.07636504
162	0xbe1894b5	-0.14900477
163	0x3e2027f0	0.15640235
164	0xbdb8570a	-0.090009764
165	0xbc4edc34	-0.012625743
166	0xbe2dcbfb	-0.16972344
167	0xbe7e141b	-0.24812357
168	0xbd851f99	-0.065001674
169	0xbe53f252	-0.20697907
170	0xbe389d8d	-0.18028851
171	0xbe5179de	-0.20456645
172	0xbe3fdc56	-0.18736395
173	0xbe11f4be	-0.14253518
174	0xbdd741f2	-0.10510625
175	0xbe042c16	-0.12907442
176	0xbe4703b3	-0.19435005
177	0xbd88c206	-0.06677632
178	0xbe485993	-0.1956542
179	0xbdced74b	-0.100996576
180	0xbdff143c	-0.12455031
181	0xbe8d8f37	-0.27648327
182	0xbe00bb83	-0.1257153
183	0xbe5ef521	-0.21773197
184	0xbc391c77	-0.01129829
185	0xbd7c309a	-0.061569788
186	0xbe1716de	-0.14754817
187	0xbe71416e	-0.23560116
188	0xbd68df3f	-0.05685353
189	0x3d4ed71f	0.050498124
190	0x3e0fead2	0.1405442
191	0xbd5476a7	-0.05187097
192	0xbe19d3b4	-0.15022165
193	0xbe65ffdf	-0.22460888
194	0xbc8b16ec	-0.016978703
195	0x3c62d217	0.013844035
196	0xbdabb4ae	-0.08384071
197	0xbde9700d	-0.11398325
198	0xbd773e8d	-0.060362387
199	0x3c77a9ce	0.015116168
200	0xbdea6117	-0.114443
201	0x3cb5250f	0.022112397
202	0x3e71d5b7	0.23616682
203	0x3d72e09f	0.059296247
204	0xbe8f2a1d	-0.27961817
205	0xbe6dd7bb	-0.23226826
206	0xbe0297df	-0.12753247
207	0xbe27a201	-0.16370393
208	0xbf0130bb	-0.5046498
209	0xbee3f1e5	-0.44520488
210	0xbf01bc5b	-0.5067803
211	0xbeea4f8e	-0.4576382
212	0x3da32ef5	0.07967941
213	0xbeef6865	-0.46759334
214	0xbefc4982	-0.49274832
215	0xbde19335	-0.11014406
216	0x3eaeb46b	0.34122023
217	0xbe8decc2	-0.27719694
218	0xbe8bb4cd	-0.27286378
219	0xbf143892	-0.5789882
220	0xbe23bbc0	-0.1598959
221	0xbdfdd43f	-0.12393998
222	0xbdb5f424	-0.08884457
223	0xbe2d5a59	-0.16928996
224	0xbda89b1a	-0.08232708
225	0xbe3f1acd	-0.18662567
226	0x3e64981a	0.22323647
227	0x3d5c0f07	0.05372527
228	0x3ee7d7ab	0.4528173
229	0xbd92e98c	-0.07173452
230	0xbe0f3d2e	-0.13988182
231	0x3e154902	0.14578632
232	0xbe7569cb	-0.23966138
233	0xbe94e3e8	-0.2908013
234	0xbea1203b	-0.31469902
235	0xbe57c68a	-0.2107183
236	0xbe662ee2	-0.22478822
237	0xbe297fd2	-0.16552666
238	0x3bd6a05f	0.0065498794
239	0xbc7f74ce	-0.015591813
240	0xbe216091	-0.15759493
241	0x3b8b29fb	0.004246948
242	0xbd8d7e5a	-0.06908865
243	0xbe6c36c9	-0.23067774
244	0xbdbd8fa4	-0.09255913
245	0xbe427a0d	-0.18991871
246	0xbdc7dde0	-0.09759116
247	0xbd95de11	-0.073177464
248	0xbdff8364	-0.12476233
249	0xbc9eeb6b	-0.019399365
250	0xbdc0ead8	-0.09419793
251	0xbd33cd72	-0.0438971
252	0xbd92d02c	-0.07168612
253	0xbdb77e14	-0.08959594
254	0x3dc0756a	0.09397395
255	0xbd5b870a	-0.05359558

lstm.weight_hh_l0_reverse f4 [256, 64]
0	0xbd13b222	-0.036058553
1	0x3d571cd9	0.052517746
2	0x3ad5cfc4	0.0016312529
3	0x3ca0b0a7	0.019615484
4	0x3dd6a7b2	0.10481204
5	0xbd8fbe41	-0.0701871
6	0x3c4ac28e	0.012375487
7	0x3cf17c26	0.029478144
8	0xbe0188b4	-0.12649804
9	0xbd5245eb	-0.05133621
10	0x3dd6620c	0.1046792
11	0x3d86a683	0.06574728
12	0xbe13f931	-0.14450528
13	0xbc53d3d5	-0.012928923
14	0xbd6b272a	-0.057410397
15	0x3dca388d	0.098740675
16	0xbd5b3df4	-0.05352588
17	0xbdd66eac	-0.10470328
18	0x3e25b412	0.16181973
19	0x3d6d33ea	0.057910837
20	0x3dfcd62b	0.12345537
21	0xbde0ca9e	-0.10976146
22	0xbdaeef6f	-0.08541762
23	0x3ca6839f	0.020326434
24	0x3ca6d7f5	0.020366648
25	0xbd60487e	-0.054756634
26	0xbc8b5736	-0.017009359
27	0xbe0f332b	-0.13984363
28	0xbd4e6d5a	-0.050397255
29	0xbdf95695	-0.12174717
30	0xbdc95e54	-0.09832445
31	0x3acedaed	0.0015781798
32	0x3c7619d2	0.0150208045
33	0xbdba2b61	-0.09090305
34	0xbd690e3b	-0.056898337
35	0xbd910852	-0.07081665
36	0x3d56bdb7	0.05242702
37	0x3cd35c9a	0.025800992
38	0x3e499206	0.1968461
39	0xbdc7e9ba	-0.09761377
40	0xbe087a3c	-0.13327879
41	0x3d922a97	0.071370296
42	0x3e4f5a00	0.20249176
43	0xbdea125d	-0.11429284
44	0x3d1b9cc9	0.03799132
45	0xbdb3ba96	-0.08775823
46	0x3e4adbcd	0.1981041
47	0xbe1d7f62	-0.15380624
48	0x3d503dda	0.050840236
49	0xbd9dcf19	-0.07705516
50	0xbddc00bc	-0.107423276
51	0xbe0d063b	-0.13771908
52	0x3db64a2a	0.089008644
53	0x3dc17ef3	0.09448042
54	0x3d14805c	0.036255226
55	0xbe661e65	-0.22472532
56	0xbdeab09f	-0.11459469
57	0x3dc34619	0.095348544
58	0x3dd716a6	0.10502367
59	0xbd251f4e	-0.040313058
60	0xbe543958	-0.20725
61	0xbdec8d21	-0.11550356
62	0x3dc526b5	0.096265234
63	0x3d8c96e5	0.06864718
64	0xbd5f5db9	-0.05453274
65	0xbdc0f3ca	-0.09421499
66	0x3ca096cf	0.019603161
67	0xbd0f2715	-0.03494938
68	0xbd8c6280	-0.06854725
69	0xbdcd99b4	-0.10039082
70	0xbd626045	-0.05526759
71	0xbd3f601e	-0.046722524
72	0xbdbe8c50	-0.09304106
73	0x3d004705	0.03131773
74	0xbd85bb5b	-0.06529876
75	0x3c765f9b	0.015037443
76	0x3dba2a43	0.09090092
77	0xbd49bda3	-0.049253117
78	0xbda78223	-0.081791185
79	0x3d33d55b	0.043904644
80	0x3b30f206	0.0026999726
81	0xbd1248c4	-0.035713926
82	0x3d444d6d	0.0479254
83	0xbd777130	-0.06041068
84	0xbdcdebd8	-0.10054749
85	0x3d961431	0.0732807
86	0x3d07521f	0.0330373
87	0xbd42e470	-0.047581136
88	0xbdb8b25d	-0.09018395
89	0x3d529050	0.05140716
90	0x3d6e4708	0.05817321
91	0xbe07582d	-0.1321723
92	0x3c6e9bcc	0.014563512
93	0xbcc2b2fa	-0.023766983
94	0x3d828230	0.063724875
95	0x3d1d5b02	0.03841687
96	0xbd7442ce	-0.059634022
97	0xbd105303	-0.035235416
98	0x3d1bd53b	0.03804515
99	0xbde3cf1c	-0.11123487
100	0x3cb7a4ee	0.022417512
101	0xbb61c2d8	-0.0034448411
102	0xbdbfb5d0	-0.0936085
103	0x3de8f6fc	0.113752335
104	0xbb5be282	-0.0033551757
105	0xbda7fb5e	-0.08202241
106	0xbb2d5f69	-0.0026454574
107	0x3d07bd02	0.033139236
108	0x3de7285b	0.11286994
109	0x3dbd8286	0.09253411
110	0x3ceb3093	0.028709685
111	0xbe078cd5	-0.13237317
112	0x3d3874b1	0.04503316
113	0xbdd9bc15	-0.10631577
114	0x3d123c2a	0.03570191
115	0xbdc146af	-0.0943731
116	0xbc9fecb0	-0.019522041
117	0xbdd0dcba	-0.1019835
118	0xbc94471d	-0.018100316
119	0xbdd8fe21	-0.10595346
120	0x3d06b02b	0.03288285
121	0x3d07f9c9	0.033197198
122	0xbdb2b19a	-0.08725281
123	0xbca83627	-0.020533634
124	0xbd91808b	-0.07104596
125	0x3b7ba8a4	0.0038400078
126	0x3cb88954	0.02252642
127	0x3de82d3c	0.11336753
128	0xbde84699	-0.113415904
129	0x3d3cbffe	0.046081536
130	0x3b8a165d	0.0042140917
131	0x3e033907	0.12814723
132	0x3db809a0	0.08986211
133	0x3ceb4b6b	0.028722486
134	0x3a71ab8d	0.00092189835
135	0xbd075b63	-0.033046138
136	0x3cf14b9a	0.029454995
137	0x3d90bfda	0.07067843
138	0x3dd419e3	0.103565
139	0x3c9fd0df	0.019508777
140	0x3bbc6187	0.005748931
141	0xbc7032e1	-0.014660568
142	0xbda056a6	-0.07829027
143	0x3d3a48c3	0.045479547
144	0xbdc15ecb	-0.094419084
145	0x3df98615	0.12183777
146	0x3e27c79c	0.16384739
147	0x3d0be0bf	0.03414988
148	0xbde0a126	-0.109682366
149	0xbc0e56ce	-0.008687688
150	0xbd8990f2	-0.06717099
151	0x3b7fbb02	0.0039021377
152	0xbd136b67	-0.0359911
153	0xbe51413f	-0.20435046
154	0xbc8cb177	-0.017174466
155	0xbdb9fd5f	-0.0908153
156	0xbda4e292	-0.08051027
157	0xbc7f5342	-0.015583815
158	0xbe3e904a	-0.1860973
159	0xbba5887c	-0.0050516706
160	0xbe48b747	-0.19601165
161	0x3e233d17	0.15941273
162	0xbc47ef89	-0.012203106
163	0x3db316f8	0.08744615
164	0xbd46c821	-0.0485307
165	0xbd191b07	-0.03737929
166	0x3d9ce9dc	0.07661793
167	0x3db5144a	0.088417605
168	0xbb607daa	-0.003425459
169	0xbd814240	-0.06311464
170	0xbd129c65	-0.03579368
171	0xbdc86a3c	-0.097858876
172	0x3df06463	0.11737897
173	0xbdec71c5	-0.11545137
174	0x3dc9ba21	0.098499544
175	0x3d82af5b	0.06381103
176	0x3caf789f	0.021419821
177	0xbd912af8	-0.07088274
178	0x3e57847a	0.2104663
179	0x3d8fb3d7	0.070167236
180	0x3e16b325	0.14716776
181	0x3d010960	0.03150308
182	0x3d225482	0.039631374
183	0xbdf54936	-0.119768545
184	0x3deda844	0.1160436
185	0xbce81665	-0.028330991
186	0xbc956446	-0.01823629
187	0xbcba0da4	-0.022711582
188	0xbd4c5c3e	-0.049892657
189	0xbe412943	-0.18863396
190	0xbdbd6ef5	-0.09249679
191	0x3e06df64	0.13171154
192	0xbd3d0b46	-0.04615333
193	0xbdf673a3	-0.12033775
194	0xbdb2a11e	-0.08722137
195	0x3e37b27e	0.17939183
196	0x3e10895c	0.14114898
197	0x3d829774	0.06376544
198	0xbcd2233e	-0.02565157
199	0xbdebdd22	-0.11516787
200	0xbe0cea30	-0.1376121
201	0xbcfaaf7a	-0.030601252
202	0x3e29b2a4	0.16572052
203	0xbcf64205	-0.030060777
204	0xbc9d8492	-0.019228254
205	0xbd5a22cb	-0.053255837
206	0x3cef3e54	0.029204525
207	0xbdeddfcd	-0.11614952
208	0x3bef9e49	0.0073125702
209	0x3dd1227d	0.10211656
210	0xbcec7a14	-0.028866805
211	0xbcf3d6fe	-0.029765602
212	0xbd33e521	-0.043919686
213	0xbdcee8d4	-0.10103002
214	0x3b5974da	0.0033181221
215	0x3d058284	0.032595173
216	0x3e09a86a	0.13443151
217	0xbe0b665a	-0.13613263
218	0x3dc4dba5	0.09612206
219	0x3d0ff259	0.03514323
220	0xbe25a9e0	-0.16178083
221	0x3d5b2dcd	0.053510476
222	0x3db1bd14	0.08678642
223	0x3d1078aa	0.035271324
224	0xbe071be6	-0.13194236
225	0x3d076b0d	0.033061076
226	0x3d4fe607	0.05075648
227	0xbd02ec72	-0.031963773
228	0x3e01d9be	0.12680718
229	0xbd8cf3f7	-0.0688247
230	0xbda325a0	-0.07966161
231	0x3d408f36	0.047011577
232	0xbdf8cd22	-0.12148501
233	0xbe178fa3	-0.14800887
234	0x398b7efc	0.00026606757
235	0xbd90458f	-0.07044517
236	0xbd86feaa	-0.06591542
237	0xbdabe282	-0.08392812
238	0xbd810a15	-0.06300751
239	0xbdc17909	-0.09446914
240	0xbd87bd59	-0.06627912
241	0x3d22f211	0.039781634
242	0xbd4fa97a	-0.050698735
243	0x3dcf8c04	0.10134128
244	0xbd265535	-0.040608604
245	0xbc8b16ff	-0.016978739
246	0x3df52fd2	0.119720116
247	0x3a328071	0.00068093004
248	0x3df2a444	0.118477374
249	0xbd8af5dc	-0.06785175
250	0xbd42b1ac	-0.047532722
251	0xbcf2e9c1	-0.029652478
252	0xbde60cc3	-0.11232903
253	0xbbc05d53	-0.0058705
254	0x3d8bd5b6	0.068278715
255	0x3df54961	0.119768865

lstm.bias_ih_l0_reverse f4 [256]
0	0xbe6d8724	-0.23196083
1	0xbe139f99	-0.1441635
2	0xbe9beed0	-0.30455637
3	0xbdc64be5	-0.096824445
4	0xbd846c08	-0.06465918
5	0xbe90e299	-0.2829788
6	0xbe71b4bd	-0.23604102
7	0xbe5cd5e5	-0.2156597
8	0xbe94cefc	-0.29064167
9	0xbe4e8c08	-0.20170605
10	0xbe39bfb2	-0.18139532
11	0xbe394933	-0.1809433
12	0xbde231fa	-0.110446885
13	0xbe5caaac	-0.21549481
14	0xbcc014c6	-0.023447406
15	0xbd181912	-0.037133284
16	0xbe4d869b	-0.20070879
17	0xbe23c407	-0.15992747
18	0xbe9835f0	-0.2972865
19	0xbd8703c6	-0.065925166
20	0xbebd096a	-0.36921245
21	0xbe855522	-0.26041514
22	0xbe217842	-0.15768531
23	0xbe3ae9a4	-0.1825319
24	0xbe1ee0cc	-0.1551544
25	0xbdeceea4	-0.115689546
26	0xbde6b85c	-0.112656325
27	0xbe86e5fb	-0.26347336
28	0xbe42d979	-0.19028272
29	0xbe856d74	-0.2606007
30	0xbdde344c	-0.108498186
31	0xbe5027cd	-0.20327683
32	0xbe1d3279	-0.15351285
33	0xbd8b8afe	-0.0681362
34	0xbe6954b5	-0.2278622
35	0xbe358032	-0.17724684
36	0xbde87754	-0.11350885
37	0xbc69a312	-0.01426007
38	0xbdb494c9	-0.08817441
39	0xbde8fc5e	-0.1137626
40	0xbb31e209	-0.0027142784
41	0xbe114b68	-0.14188921
42	0xbe580395	-0.21095116
43	0xbda601c3	-0.08105805
44	0xbd951ce8	-0.07280904
45	0xbdaac46b	-0.08338245
46	0xbe717da7	-0.23583089
47	0xbd93a39d	-0.07208941
48	0xbe8d71ec	-0.27625978
49	0xbe60110a	-0.218815
50	0xbe2144d0	-0.15748906
51	0xbeba49e6	-0.36384505
52	0xbd35cb43	-0.0443833
53	0xbd4f26b8	-0.050574034
54	0xbe8f556d	-0.27994862
55	0xbe6f693e	-0.2337999
56	0xbecf2534	-0.4045807
57	0xbeb68a11	-0.3565221
58	0xbe5bab8e	-0.21452162
59	0xbe4fa8f6	-0.20279297
60	0xbe94503c	-0.28967464
61	0xbe6e7ede	-0.23290583
62	0xbe4464a3	-0.19179015
63	0xbe383c50	-0.17991757
64	0xbe365b88	-0.17808354
65	0xbdcc4854	-0.09974733
66	0xbe6bc5de	-0.23024699
67	0xbe6e5837	-0.23275839
68	0xbde9d489	-0.11417491
69	0xbdabf9e1	-0.0839727
70	0xbe6bfa1b	-0.23044626
71	0xbe15bde5	-0.1462322
72	0xbe5d9261	-0.2163787
73	0xbe895304	-0.26821148
74	0xbe122fd1	-0.14276053
75	0xbe588c81	-0.21147348
76	0xbd3bd181	-0.045854095
77	0xbe806e1d	-0.2508401
78	0xbd2442f2	-0.040102907
79	0xbd7022c8	-0.05862692
80	0x3e27bc1c	0.16380352
81	0xbe80c51e	-0.25150388
82	0xbe18ac90	-0.14909577
83	0xbdd5e6f4	-0.104444414
84	0xbd603f27	-0.054747727
85	0xbe397aee	-0.181133
86	0xbe90bfb1	-0.2827125
87	0xbe368ead	-0.17827864
88	0xbe1ac6c5	-0.15114887
89	0xbe761e28	-0.24034941
90	0xbda851ba	-0.08218713
91	0xbca5279b	-0.020160487
92	0xbd0e3ecb	-0.034727853
93	0xbddefe8b	-0.10888394
94	0x3cb203b2	0.021730278
95	0xbdb07eb8	-0.0861792
96	0xbd04c191	-0.03241116
97	0x3dff59a7	0.12468272
98	0xbe3df95a	-0.18552151
99	0xbc82d0d5	-0.01596872
100	0xbe8e75a0	-0.27824116
101	0xbd978eed	-0.07400308
102	0xbe83ada9	-0.2571843
103	0xbe032c32	-0.12809828
104	0x3d103c7e	0.03521394
105	0xbe43fca9	-0.19139351
106	0xbd599563	-0.053120982
107	0x3c6f9616	0.014623186
108	0xbc8272b8	-0.015923843
109	0xbe0fd1f3	-0.14044933
110	0xbe7c9d9d	-0.246695
111	0xbcb68fc2	-0.022285346
112	0xbda7f8b7	-0.082017355
113	0xbe3b8904	-0.18313986
114	0xbe099bd2	-0.13438347
115	0xbe354db3	-0.17705421
116	0xbe460b06	-0.19340143
117	0xbd6fb023	-0.058517586
118	0xbe050832	-0.12991408
119	0xbc8dd8cf	-0.017315296
120	0xbe28f46d	-0.16499491
121	0xbe99abf8	-0.30014014
122	0xbe5c4aee	-0.21512958
123	0xbd1f0800	-0.03882599
124	0xbe0febe7	-0.14054833
125	0xbe7503b4	-0.23927194
126	0xbe82d6ad	-0.2555441
127	0xbe6f5f12	-0.2337611
128	0x3db0d124	0.086336404
129	0x3d949fe7	0.072570615
130	0x3c5de6a6	0.01354376
131	0x3c06ca8e	0.008227004
132	0xbbc8fd76	-0.0061337305
133	0x3d98406f	0.07434165
134	0x3a67bd88	0.0008840193
135	0x3cf651d8	0.030068323
136	0x3d847010	0.06466687
137	0xbe004bdc	-0.12528938
138	0xbd25bb58	-0.040461868
139	0xbdcfb994	-0.10142818
140	0x3d6073c0	0.054797888
141	0x3d3af8a6	0.045647286
142	0xbc1559e2	-0.009115668
143	0xbde13e54	-0.10998216
144	0xbbf1ad31	-0.0073753824
145	0xbd37fb16	-0.04491719
146	0xbd319be9	-0.043361578
147	0xbcb97cd7	-0.022642536
148	0xbcc9804d	-0.024597311
149	0xbdbab7c6	-0.09117083
150	0x3c2a80f2	0.0104067195
151	0x3d388384	0.045047298
152	0xbb3003f0	-0.0026857816
153	0xbd86f4c6	-0.065896556
154	0xbc737f11	-0.014861838
155	0x3ddfff01	0.1093731
156	0x3c534b3b	0.012896354
157	0xbde9591b	-0.11393949
158	0x3d339950	0.043847382
159	0xbc236766	-0.009973383
160	0x3c5e17c5	0.013555472
161	0x3c3f39de	0.011671511
162	0xbd631351	-0.055438343
163	0x3d9ab539	0.07554097
164	0x3dea4b5b	0.11440154
165	0xbd48a5da	-0.048986293
166	0xbdb94e41	-0.09048129
167	0xbe04737b	-0.12934677
168	0xbc193e5f	-0.009353249
169	0x3d6b9b97	0.05752143
170	0xbdc8f502	-0.098123565
171	0x3d8e6e48	0.06954628
172	0x3dc76342	0.09735729
173	0xbc38c8e8	-0.0112783685
174	0xbc468f49	-0.012119123
175	0xbb6590a4	-0.003502884
176	0xbdaa80cf	-0.083253495
177	0x3db30220	0.0874064
178	0xbd4bfd05	-0.049801845
179	0x3d548e3a	0.05189345
180	0x3ccca096	0.024978917
181	0x3ce88c74	0.028387286
182	0xbd409c19	-0.047023866
183	0x3de7bba0	0.113150835
184	0xbd3f4606	-0.04669764
185	0x3d50f604	0.05101587
186	0xbc2c3dfb	-0.010512824
187	0x3d94d5b9	0.07267327
188	0x3c56322d	0.013073486
189	0x3cd55992	0.026043687
190	0x3d9cc75c	0.07655212
191	0xbb9e27f2	-0.004826539
192	0xbdbb3cab	-0.09142431
193	0xbd76672c	-0.060156986
194	0xbe55bd79	-0.2087306
195	0xbde4e70d	-0.11176882
196	0xbcb6bd49	-0.022307055
197	0xbe803d23	-0.25046644
198	0xbddb8810	-0.10719311
199	0xbd793e34	-0.060850337
200	0xbe01647b	-0.12635987
201	0xbe96c6e3	-0.29448614
202	0xbeae196a	-0.34003764
203	0xbdc1337d	-0.09433649
204	0xbe43edd4	-0.19133693
205	0xbed2534b	-0.41079172
206	0xbcfaed35	-0.030630687
207	0xbcea475b	-0.028598478
208	0xbe76eae1	-0.24113037
209	0xbdffa911	-0.12483419
210	0xbe934bec	-0.2876886
211	0xbe0466c6	-0.1292983
212	0xbe88ae40	-0.26695442
213	0xbe48373b	-0.19552319
214	0xbe9c3aef	-0.30513713
215	0xbe91b8a0	-0.2846117
216	0xbea1cb22	-0.3160029
217	0xbe80b0e1	-0.25134948
218	0xbe75b081	-0.23993112
219	0xbe5ec079	-0.2175311
220	0xbe654ad0	-0.2239182
221	0xbda231ad	-0.07919631
222	0xbd951482	-0.07279302
223	0xbc9ee30b	-0.019395372
224	0xbe65af22	-0.22430089
225	0xbdf16aa2	-0.11787917
226	0xbe26bd11	-0.1628306
227	0xbd980ca4	-0.07424286
228	0xbe9cbc1f	-0.30612275
229	0xbc0e683b	-0.008691843
230	0xbdc865be	-0.09785031
231	0xbe78300f	-0.24237083
232	0xbcbcf040	-0.023063779
233	0xbe228a28	-0.15873015
234	0xbe2770ec	-0.1635167
235	0x3d867955	0.06566111
236	0xbdb63515	-0.08896843
237	0xbc33a6d3	-0.010965067
238	0xbdeef403	-0.11667635
239	0xbe623db7	-0.22093855
240	0xbe8a3e55	-0.2700068
241	0xbd997604	-0.07493213
242	0xbe27a46d	-0.16371317
243	0xbe319354	-0.17341357
244	0xbd9e1228	-0.07718307
245	0xbe4793be	-0.19489953
246	0xbe3e57e9	-0.18588223
247	0xbe4fa675	-0.20278342
248	0xbe979307	-0.2960436
249	0xbe82da45	-0.2555715
250	0xbe21895c	-0.15775055
251	0xbe0e3837	-0.13888632
252	0xbe70f570	-0.23531127
253	0xbe9b3b16	-0.30318516
254	0xbe3abdb2	-0.18236426
255	0xbdf31115	-0.118684925
