attn_lstm_model.pth (torch, 170575 bytes, 11 tensors)

lstm.weight_ih_l0 f4 [256, 13]
000000 32 0b c7 bd bd cd 6a be ec 0b 1e be f9 59 a2 bd
       -0.09718932 -0.22930045 -0.15434235 -0.07927317
000010 4f 8d d5 bc 2c c5 24 be 75 18 4c 3c f9 7d 3f bc
       -0.026068358 -0.1609084 0.012457003 -0.011687749
000020 42 f9 d9 bd 35 37 d1 bd 79 74 54 be fc 92 7a be
       -0.10643245 -0.10215608 -0.20747556 -0.24470133
000030 55 d9 c5 bd d4 fb c2 bd ab ce 56 be d4 c9 26 be
       -0.096605934 -0.09520689 -0.20977275 -0.16287929
000040 60 34 8f bd 85 c5 a0 be 76 16 35 be f3 3f 73 bd
       -0.069924116 -0.31400695 -0.1768435 -0.05938716
000050 52 fb ed bc 78 91 3e bd c0 bc b6 be 38 46 86 be
       -0.029050503 -0.04652545 -0.3569088 -0.26225448
000060 68 6a 72 be 5b a8 18 be d2 3e f9 bd 1f 73 31 be
       -0.23673403 -0.14907973 -0.12170185 -0.17329071
000070 aa c1 85 be a5 c2 6d bd 17 d5 61 be a5 ca 95 bd
       -0.26124316 -0.058046956 -0.22053944 -0.07314042
000080 b0 a8 0d bd 87 5d ae bd fc ab ea bd b7 bd 12 be
       -0.0345847 -0.08513933 -0.11458585 -0.14330183
000090 60 cd 87 bc df 4e 1b be 6f f8 c6 bd ca ee a6 bd
       -0.016577423 -0.15166806 -0.09715354 -0.08151014
0000a0 d3 11 86 bd d5 b8 83 be 02 20 5a bd 47 c7 0b 3d
       -0.065463684 -0.25726953 -0.05325318 0.034125593
0000b0 a2 b1 3f be 07 2d 3f bd 05 45 c9 bd 34 71 b7 3c
       -0.18720105 -0.0466738 -0.098276176 0.022392847
0000c0 8d 63 34 be 92 73 5f 3c 60 b2 27 be 0d 59 00 bd
       -0.176161 0.013638394 -0.16376638 -0.031334925
0000d0 cc 04 f2 bd 87 db a7 bd 29 ac 81 bd c0 c6 07 be
       -0.11817321 -0.081961684 -0.06331665 -0.13259411
0000e0 c3 f6 8a be 60 e2 f9 3c 61 9d 7c bd fb 8a 79 3d
       -0.2714139 0.030503452 -0.061673526 0.060923558
0000f0 52 fb 87 be 26 05 1b be d2 f9 9c 3c 23 47 cd bd
       -0.2655893 -0.15138683 0.019162092 -0.10023334
000100 7e cd 02 be 88 b6 27 be 3f ac 2d be 4c 66 dc bd
       -0.12773702 -0.16378224 -0.16960238 -0.10761699
000110 8b ac 36 be cf 13 fb bd e6 b4 4d bd a5 da 54 be
       -0.17839257 -0.122596376 -0.050221346 -0.20786531
000120 7e 2d 1b bd 5c cb da 3c b2 ff 5c be 82 c7 31 be
       -0.03788518 0.026708297 -0.21581915 -0.17361262
000130 4b 40 2d be 72 91 67 be 43 b9 9b be 22 ce 75 be
       -0.16919057 -0.22614077 -0.3041478 -0.24004415
000140 25 86 a9 be 59 cc ba be a8 76 ba 3d 55 47 dc bd
       -0.33110157 -0.3648403 0.09104663 -0.10755793
000150 df f6 11 be 28 f0 fb bd a2 c0 b2 bc be 0e 15 be
       -0.1425433 -0.123016655 -0.02182037 -0.14556405
000160 ea 81 87 bd 70 f7 30 be 8d 9d 36 bd 9a 73 54 be
       -0.06616576 -0.1728189 -0.044583846 -0.20747223
000170 46 e8 eb bd 16 b4 64 bd c7 3e 3d bd dd 58 37 be
       -0.11518912 -0.055835806 -0.046202447 -0.17904992
000180 c5 d9 b3 3d 59 c0 8c 3d fd b5 60 3e 29 9b d3 3d
       0.087817706 0.06872625 0.21944423 0.10332329
000190 0d d8 62 be 7f 22 df bd e6 f1 df bc ba 8a 14 be
       -0.2215273 -0.108952515 -0.027337026 -0.14506045
0001a0 c3 c4 4a be 23 4e 53 be 82 51 a9 bd 84 05 13 be
       -0.19801621 -0.20635276 -0.082674995 -0.14357573
0001b0 77 85 57 be 1e 6b 75 be 12 25 ad bd 24 09 23 bd
       -0.21047007 -0.23966643 -0.08454336 -0.03980364
0001c0 eb 8d 0c bd 98 3a 8f be 10 c5 0f be 7c 6c 06 be
       -0.03431503 -0.2797439 -0.14040017 -0.13127321
0001d0 f9 56 52 be db d2 3f bd f8 cc 77 bc 33 ee 31 bd
       -0.2054099 -0.046831947 -0.015124552 -0.043440055
0001e0 4f db 7a bb 6a 57 47 3d 90 55 a3 3c fb ee 4c be
       -0.003827769 0.04866735 0.01993826 -0.20013039
0001f0 e1 14 47 3d 9b b1 88 bd 63 6c a7 bd af fd 33 bc
       0.048603896 -0.066745006 -0.0817497 -0.010985776
000200 ca 17 5e be 5f 10 fd bc 19 cc 82 be d8 f0 1d be
       -0.21688762 -0.030891595 -0.2554634 -0.15423906
000210 f9 1c 93 be 66 c2 3d be a9 b1 ba bc 06 22 ff bc
       -0.28733042 -0.18531188 -0.022789793 -0.031144153
000220 b1 0a 32 bd 9c c9 02 3c 29 79 70 bc 08 37 22 be
       -0.043467227 0.007982638 -0.014677324 -0.15841305
000230 24 56 63 be 88 3a e2 bd 3e f9 94 bd d8 4e b3 bd
       -0.22200829 -0.1104632 -0.07274102 -0.087552726
000240 7b 91 d0 bd 96 cd c0 bd 6f 62 6e be 5d b9 0b be
       -0.10183998 -0.094142124 -0.23279737 -0.13644929
000250 7c f1 dc bd 08 dc 5c be 2d f8 0a 3d 64 68 99 3c
       -0.10788247 -0.2156831 0.033928085 0.018726535
000260 e9 c4 23 be 2a ab 46 be a3 4a a1 be fd a0 08 be
       -0.15993084 -0.19401231 -0.31502256 -0.13342662
000270 95 f4 83 be 2f d2 03 be 30 3c 5b be 7d 76 1b bd
       -0.2577254 -0.12873147 -0.21409678 -0.037954796
000280 81 a2 63 be 1a 92 c1 bd 11 f6 22 be 4c ce 85 be
       -0.22229959 -0.09451695 -0.1591418 -0.26133955
000290 bb da 16 be 6a fd de bd 3a 10 b3 bd 77 3d 6a bd
       -0.14731877 -0.10888179 -0.08743329 -0.057187524
0002a0 66 7e 00 be fd 0e 68 be f1 c5 31 be f7 81 23 be
       -0.12548217 -0.22661968 -0.17360665 -0.15967546
0002b0 58 9a eb bd 4b 2d fa bd 77 4f 76 bd f7 5c 6d be
       -0.11504048 -0.1221567 -0.060134377 -0.23179995
0002c0 63 0b 1d be c3 6d 21 3c 4b a8 25 be 78 9f 28 bd
       -0.15336375 0.009852829 -0.1617748 -0.041167706
0002d0 85 ac 99 be 3a c9 8e be ec 78 d7 3c c6 c1 19 bd
       -0.30014434 -0.278879 0.026302777 -0.037538312
0002e0 1a 06 ec bd dd 70 cb bc fa b7 91 bd 7a d2 16 bd
       -0.11524601 -0.02483409 -0.07115169 -0.03682182
0002f0 e3 ea 0b be 32 62 a8 3d 4e 4b a4 3c aa e8 0b be
       -0.13663821 0.08221854 0.02005544 -0.13662973
000300 0a eb c1 bd 6e d6 96 bd c8 35 cb bc c8 04 44 be
       -0.09468658 -0.07365118 -0.024805918 -0.19142449
000310 2b 3d 98 bd e4 87 0e be da 05 0a be a7 c9 d2 bc
       -0.07433542 -0.13919026 -0.13478795 -0.025730921
000320 44 7f 14 3c b4 54 10 bd b9 d1 f2 39 37 02 59 bc
       0.009063546 -0.03523703 0.00046314092 -0.013245157
000330 94 d5 a4 bd 2e 7f d0 bd 23 1f 73 be 7b 5a ac 3c
       -0.08048549 -0.101805076 -0.23742346 0.021039238
000340 24 3c 40 be 25 b4 26 be 9c 49 2b be 84 23 2b be
       -0.18772942 -0.16279657 -0.16727298 -0.16712767
000350 85 12 fc bd 03 74 a7 bd ab 88 af bd c7 7c bf bd
       -0.1230822 -0.08176424 -0.08570989 -0.09349971
000360 9a 3e 55 be fc 9e 19 be 79 91 93 bd e2 2e e9 bd
       -0.20824662 -0.15002054 -0.07205481 -0.11385895
000370 fe 2b d9 bd 99 30 fd bd 1a 10 4f be 6c b8 65 be
       -0.10604094 -0.12362785 -0.20220986 -0.22433633
000380 89 e7 01 be a6 8d 13 be 48 32 4a be 53 bc 3c be
       -0.1268598 -0.14409503 -0.19745743 -0.18431215
000390 de ec 20 bd b1 a7 5e be 84 1d c7 bd a4 37 6b bc
       -0.039288394 -0.21743657 -0.097224265 -0.0143565275
0003a0 fd fd a8 bd 8d 74 14 3c f5 6e a8 bd a9 b8 2e be
       -0.082515694 0.009060991 -0.082242884 -0.1706263
0003b0 97 3e 47 be 4b 44 04 be e5 20 ed be 16 ca 39 be
       -0.1945747 -0.12916677 -0.4631416 -0.18143496
0003c0 54 a5 b3 bd 70 9a 1a be c7 ab 80 3c e2 43 f9 bc
       -0.08771768 -0.15097976 0.01570691 -0.030427877
0003d0 84 8b 08 be 44 4c 03 be fb 08 a0 bd 19 4e 69 be
       -0.13334471 -0.12822062 -0.07814213 -0.22783698
0003e0 d4 c0 52 be 37 52 85 be 30 d8 e5 bd b5 3d f3 bd
       -0.2058137 -0.26039287 -0.11222875 -0.11877004
0003f0 58 06 b7 bd 35 8a 8a bb 70 02 72 bd b4 bd 65 be
       -0.08936757 -0.0042279013 -0.059084356 -0.22435647

lstm.weight_hh_l0 f4 [256, 64]
000000 94 49 98 3d 39 73 60 3d f2 6f e8 3c de b0 82 bd
       0.07435909 0.054797385 0.028373692 -0.06381391
000010 d6 11 26 be 4c 1b 1c bd 3a 9f e2 3d 71 de 87 3d
       -0.16217741 -0.03811197 0.11065526 0.06634224
000020 ad 78 a0 bd 5e c1 76 3c 67 29 3c bd 5c 84 ba bd
       -0.07835517 0.015060751 -0.04593792 -0.09107277
000030 94 72 3c bd bf 85 f0 ba f7 52 90 bd 0c ca ad 3d
       -0.046007708 -0.0018350406 -0.07047074 0.08485803
000040 69 03 a8 bc da b0 2e bd 93 f6 77 3d 2a c6 c4 3d
       -0.020509439 -0.042649128 0.060537886 0.09608109
000050 5c 9b 10 3d 7d 30 a2 bc 8c d3 56 bd c3 36 05 be
       0.035304412 -0.019798512 -0.05244784 -0.13009171
000060 9d 82 99 3c c5 52 5a 3d cc 31 c2 bc d3 b9 a8 bd
       0.01873904 0.05330159 -0.023705386 -0.08238568
000070 7f df 49 bd 8c 74 7c 3c 4d 34 14 3e b5 6c 58 bd
       -0.049285408 0.015408646 0.14473076 -0.052838046
000080 15 b2 0e 3e ce 64 14 be f1 98 a2 3b f5 20 83 3d
       0.1393512 -0.14491579 0.0049620797 0.064027704
000090 85 bb 1d bd f8 14 6c 3d ee 2d 08 bd 07 a0 12 3d
       -0.03850891 0.057637185 -0.033246927 0.035797145
0000a0 1a a2 67 3d 5d 4e f7 bd e2 e4 ca 3d 8a d7 00 bd
       0.056551076 -0.120754935 0.09906937 -0.031455554
0000b0 d8 03 94 3d 7e ae bb 3d 91 6e 4e bd 5d 4e 42 bc
       0.07227296 0.09164141 -0.050398413 -0.011859504
0000c0 3c dd 0f 3d 4c 25 7f bd 93 ea df 3b e0 df 0a be
       0.035123095 -0.06229143 0.0068333833 -0.13561964
0000d0 55 e0 8f 3d 12 fb 90 3b 1b 72 08 3e e8 50 68 3d
       0.0702521 0.004424461 0.13324778 0.056717783
0000e0 ed 86 ae bd 7c b5 2f bd 3e 3c 91 bd 74 9d 45 3c
       -0.08521829 -0.042897686 -0.070915684 0.0120614655
0000f0 b1 04 98 3d f5 6f fa bc 73 ec ca 3d da 83 00 3d
       0.0742277 -0.030570963 0.0990838 0.031375743
000100 e5 9d b6 bd 81 a9 b4 bd c6 02 96 bc cb bb a0 bd
       -0.08916835 -0.08821393 -0.01831187 -0.07848319
000110 f4 db 7f bd 7e 17 43 3d 7f 49 e5 bd 73 69 e8 bd
       -0.062465623 0.047629826 -0.11195659 -0.11348238
000120 56 5c 8f 3d 94 ec 31 3d b7 9f 42 3d bd 88 97 3d
       0.070000336 0.04343851 0.047515597 0.07399128
000130 7d 4b fd b9 06 e3 7c bd 74 b5 8a bd 23 4d 09 3e
       -0.00048312164 -0.061739944 -0.06772891 0.13408332
000140 6f 34 6c bd 4a de 2c 3c 16 d8 2e 3e 6f ef 3e bd
       -0.057667192 0.010551045 0.17074618 -0.04661506
000150 6c 4b 9d bd bb de d9 bc ec 00 05 bd f4 dc 22 be
       -0.07680401 -0.026595464 -0.032471582 -0.159046
000160 12 0a 42 3d ec a3 2d 3d fa cd 52 3d 91 5b 2d 3e
       0.047372885 0.042392656 0.051465966 0.16929461
000170 bc e3 83 ba 0a 68 79 3d aa 93 72 3d a9 4f 2b 3d
       -0.0010062377 0.060890235 0.059222855 0.041824017
000180 ec 11 5f 3d 23 81 8e bd ab fb ed bd 89 66 cb 3d
       0.05446045 -0.069582246 -0.116202675 0.099316664
000190 06 7d b2 bd ae 1e 40 bd ad b1 c7 3d 45 68 ac bd
       -0.087152526 -0.04690426 0.09750686 -0.08418325
0001a0 c8 74 19 3d 81 0d 74 bd f1 d6 9d 3d 1e 7c 10 3d
       0.037464887 -0.05958319 0.077070124 0.035274617
0001b0 0d f7 87 3d 2e e1 7a bd 74 5d 80 be f5 20 85 3d
       0.06638918 -0.061249904 -0.250713 0.06500427
0001c0 41 a7 e6 3d e8 45 21 3b e2 3c e9 bc ee bc a9 3d
       0.1126237 0.0024608318 -0.028471414 0.082879886
0001d0 7b ec 05 3b 78 b7 29 be fe ee a0 bc 41 80 a6 3d
       0.0020435143 -0.16573894 -0.01964521 0.08129931
0001e0 60 16 70 bd 17 da 5f 3b ee bc b0 bd b4 5d d9 bd
       -0.05861509 0.0034157091 -0.086297855 -0.106135756
0001f0 89 f0 0d be 86 e9 ba 3d 8b 28 88 3c dd 12 b6 bd
       -0.13861288 0.09126572 0.016620895 -0.08890317
000200 1e 7f 91 bd 2f 8e 89 bc d0 69 5f 3d cd 28 d3 3c
       -0.07104324 -0.016791431 0.05454427 0.025776291
000210 e4 5e 91 3d 49 a5 b9 bd b0 02 ef b9 f2 c0 0e be
       0.07098177 -0.09064729 -0.00045587635 -0.1394079
000220 df 7e b5 3b 94 13 87 3c 49 95 52 3d 55 a0 10 3d
       0.005538806 0.016488828 0.0514119 0.035309155
000230 8a 15 c8 bd 2e dd dd bc 86 95 ce bd 67 39 fa 3c
       -0.09769733 -0.027083006 -0.10087113 0.03054495
000240 f8 be fe bd fa 08 60 3c 0d ac 6f 3d 13 78 b6 3a
       -0.12438768 0.013674015 0.05851369 0.0013921283
000250 4e 8b 9e bd 3d 99 d5 ba c3 0d 6f bd 51 8d 25 bc
       -0.07741414 -0.0016296279 -0.058362734 -0.010104493
000260 cc b5 0f 3e 9b 0d ed bd de 92 b3 bb ef fb f4 3c
       0.14034194 -0.11574861 -0.0054801544 0.029905288
000270 01 0a 80 3d 84 2c a0 3d 08 a8 f9 3d f2 50 a8 bd
       0.06251908 0.07820991 0.121902525 -0.08218564
000280 29 cd 91 bd e0 2e 85 3d c9 bc ac bd 0b 2c 18 bc
       -0.07119209 0.06503081 -0.084344454 -0.009287844
000290 c7 0f 0d bd 8d b2 b2 3c c0 57 8c 3d a3 8c f3 3d
       -0.034438875 0.021813655 0.068526745 0.11892059
0002a0 1a aa 95 3d a6 5b 74 3c 87 12 31 3e 38 21 0f be
       0.07307835 0.014914429 0.17292224 -0.13977516
0002b0 07 97 2c 3d cb 12 bf bc 6c 50 0f be dd 01 96 3c
       0.04213622 -0.02332439 -0.13995522 0.018311435
0002c0 d6 d2 53 3d cd 73 d5 3d 38 be b0 bd 44 57 84 3c
       0.05171474 0.10422478 -0.08630031 0.016154893
0002d0 0f 4f 82 bd 45 3a 38 bb 6e 76 5f 3d e7 19 0e be
       -0.063627355 -0.0028110903 0.054556303 -0.13877068
0002e0 ff 60 65 3c 84 3c 0c be 95 17 96 bd 3b 8f 13 3e
       0.014000176 -0.1369496 -0.07328717 0.14410107
0002f0 31 ad 2d bd d8 49 9c bc bf ea 1c 3e 81 96 80 bc
       -0.042401496 -0.01907818 0.15323924 -0.015696766
000300 48 db 9b 3c a9 b7 53 bb 18 d8 0b bc 0d dc c7 3c
       0.01902546 -0.0032305515 -0.0085354075 0.02439692
000310 f6 16 da 3d 38 7c 81 3c 2d da c3 39 f7 47 9f 3d
       0.10648911 0.015806302 0.00037355852 0.07777398
000320 c9 75 94 bc 1e 97 5a 3d 8f 3e d5 3c 15 d1 3c bd
       -0.01812257 0.053366773 0.026030807 -0.046097834
000330 81 69 d9 3c 95 58 96 3d aa 1c 46 bd 88 6b ee 3d
       0.026539566 0.073411144 -0.04836718 0.11641604
000340 05 42 b9 3d 3f e5 1c 3e ea 2c 0a bd 46 ca 73 3d
       0.09045795 0.15321825 -0.03373424 0.059519075
000350 22 8f b9 bd 8d f5 2a 3e 72 18 22 be 7c 20 92 3d
       -0.090605035 0.16695233 -0.15829638 0.07135102
000360 31 a2 38 3d db 5b bf bd 1b e4 8c 3d 3d 84 03 be
       0.045076553 -0.09343692 0.06879445 -0.12843414
000370 55 62 39 3d 8e ce 08 3e f9 39 04 3e 16 18 09 3d
       0.045259792 0.13360044 0.1291274 0.033470236
000380 15 fc ce bc 52 b9 d3 3d 8e 9c ca bd 9a 2b 2e bd
       -0.025266686 0.103380814 -0.09893142 -0.04252205
000390 48 13 b9 bd 78 10 0d 3e 0f 70 15 be 0f 02 74 bd
       -0.09036881 0.13775814 -0.14593528 -0.059572276
0003a0 97 a7 e9 bd bf 84 f1 3d 61 e1 05 bd 34 ae 81 3c
       -0.11408918 0.117928974 -0.03268564 0.015830137
0003b0 c0 54 f0 bc c3 a1 5e bd 44 b8 ee bd 7f b8 82 3d
       -0.029337287 -0.054353487 -0.1165624 0.06382846
0003c0 1f 79 24 3e 08 18 b6 bd 3b fb a7 3c f9 8b c4 bd
       0.16061829 -0.08891302 0.020505538 -0.0959701
0003d0 0e 0f 3a bd 04 ad 99 3d 0f 10 4a bd 3d 65 63 bd
       -0.045424514 0.07503703 -0.04933172 -0.05551647
0003e0 64 01 69 3c 95 66 ed bc af 23 52 3d 64 b4 64 bd
       0.014221523 -0.028979579 0.05130356 -0.055836096
0003f0 86 1f 00 be 11 85 31 3e d9 26 12 3d 00 2b 61 bd
       -0.12512025 0.17335917 0.03568158 -0.05497265

lstm.bias_ih_l0 f4 [256]
000000 99 e5 78 be d6 0d a1 be 60 29 03 be 82 86 18 be
       -0.24306335 -0.31455868 -0.12808752 -0.1489506
000010 2b 47 0b be 02 0f 17 be 0a 3e e9 bd f7 da 33 be
       -0.13601367 -0.14751819 -0.11388786 -0.17563997
000020 9e bb 86 be ee 12 73 be 2c e5 f7 bd 7c d4 81 be
       -0.26315016 -0.2373769 -0.12104258 -0.25357425
000030 fd 1d 72 be d0 97 41 be 8d 90 41 be f2 e1 bc bd
       -0.23644252 -0.18905568 -0.18902798 -0.09222783
000040 cd 67 18 be 25 26 33 be 32 30 33 bd 7a 7d f3 bd
       -0.14883347 -0.1749502 -0.043747135 -0.11889167
000050 34 71 aa bd 72 60 00 be 43 bb b8 be 64 4e fa bd
       -0.08322373 -0.12536791 -0.3608037 -0.12221983
000060 f7 bc 13 be 19 b1 0d bd c5 69 0a be ca b4 80 3d
       -0.14427553 -0.03459272 -0.1351691 0.06284483
000070 e5 1c 8f be 2a ef a8 be ca af 64 be 64 e4 39 be
       -0.27951732 -0.32994968 -0.22332683 -0.1815353
000080 3b a0 b0 be 37 91 26 be 05 53 44 be 5b 51 89 be
       -0.34497246 -0.16266333 -0.19172294 -0.26819882
000090 7f 0b 4b be 60 01 29 be c6 b5 86 be 85 ef 4c be
       -0.19828604 -0.16504431 -0.26310557 -0.20013244
0000a0 d9 b2 0b be 39 c4 05 be 17 9a 1e be 4e 04 26 bd
       -0.13642444 -0.13063134 -0.15488468 -0.04053145
0000b0 b4 5a 56 bc a1 5a 50 be 2d d7 03 be f6 de 84 be
       -0.013083149 -0.20347072 -0.12875052 -0.25951356
0000c0 25 27 fc bd bc 84 7f be 40 2d 73 be 0d 79 88 be
       -0.12312154 -0.24952978 -0.2374773 -0.26654854
0000d0 32 f0 62 be 37 80 b0 be d3 d3 ad be 53 60 de be
       -0.2216194 -0.3447282 -0.33950672 -0.43432865
0000e0 13 96 4f be db 06 8f be 20 7c ab bd 1b 0e 01 be
       -0.20272093 -0.27934918 -0.08373284 -0.12603037
0000f0 5d 81 49 be ea 42 07 be ec 75 c2 bd 66 9e 18 bd
       -0.19678254 -0.1320912 -0.09495148 -0.037260436
000100 cd 06 45 be 15 99 cb bd 4b df 55 bd 8f 2e 1b 3c
       -0.19240876 -0.099413075 -0.052214902 0.00947155
000110 4e 69 25 be 1d 97 1a be 56 ed 68 be a2 e5 4e be
       -0.16153452 -0.15096708 -0.22746786 -0.20204785
000120 15 64 85 bd 65 73 14 be 65 ac fc bd ba b0 a7 bd
       -0.0651323 -0.14497145 -0.12337569 -0.08188005
000130 34 4b c3 bd 7a 43 3c be 88 dd 6a be 26 cc f9 bd
       -0.09535828 -0.18385115 -0.2293607 -0.12197141
000140 e3 7e 92 bd ee bb 61 be ce cd bf bd 95 30 8c bd
       -0.07153108 -0.22044346 -0.09365426 -0.06845204
000150 e2 d0 5b be 63 51 79 be 5e 6f 20 be 51 31 fd bd
       -0.21466401 -0.24347453 -0.15667483 -0.12362922
000160 88 6c bd bc a4 a2 e4 bd 1c a9 ab bc 05 c9 ec 3a
       -0.02312304 -0.11163834 -0.020954661 0.001806528
000170 cc 38 96 bd e5 3e 82 be 0b f4 b3 bd 4a 56 40 be
       -0.07335052 -0.2543861 -0.08786782 -0.18782917
000180 9b ad f0 bd cb 33 15 be dd ce 4d be 10 6e 4c be
       -0.117518626 -0.14570539 -0.20098443 -0.1996386
000190 08 aa 6c be 28 e4 1a bc bb 7f 3c bd 6f db 80 be
       -0.23111737 -0.009453811 -0.04602025 -0.25167415
0001a0 45 03 7b 3c 52 66 fb 3d fe 40 c7 bc 52 71 b8 bd
       0.015320604 0.122753754 -0.024322983 -0.09005989
0001b0 f7 e4 54 be bd 35 86 bd 27 43 f3 bd b5 8e b5 bd
       -0.20790468 -0.065532185 -0.11878043 -0.0886511
0001c0 87 5c 12 bd 60 33 50 bd f1 25 19 3d fd 4d 3f be
       -0.035732772 -0.050830245 0.0373897 -0.18682094
0001d0 46 d0 1d be 93 cc 81 be 15 45 21 be b2 85 af be
       -0.15411481 -0.2535139 -0.15749009 -0.3428169
0001e0 fd 4f eb bd 28 fa 97 be b3 07 a3 3d 76 e1 56 be
       -0.11489866 -0.29683042 0.07960453 -0.20984444
0001f0 0a 92 d0 bd 8a 55 27 be 95 38 60 be 39 88 55 be
       -0.10184105 -0.16341224 -0.21896584 -0.20852746
000200 a7 02 ac 3c d4 97 c1 3c b8 17 6c 3d 52 6d ae 3c
       0.020997358 0.023631968 0.057639807 0.021292362
000210 db 7a 38 3d a7 ad cd 3d 16 9a f4 3d 5e bc 1b 3d
       0.04503904 0.10042887 0.11943452 0.038021438
000220 8e 62 e1 3c c0 98 7f bd 1e 66 ff bc a4 b4 49 bb
       0.027512815 -0.062401533 -0.031176623 -0.0030777836
000230 3c 8c 01 3d 2b b9 11 3d 13 70 8d 3d ce c0 ed bd
       0.03162788 0.03557698 0.06906142 -0.1160904
000240 53 5e 8a bd 8b 16 a5 3d fe b1 13 3b ec 21 bd bc
       -0.06756272 0.0806094 0.0022536512 -0.023087464
000250 b6 98 02 bd 38 58 7f bd e8 94 71 bd 56 d2 ff 3c
       -0.031883918 -0.06233999 -0.0589799 0.031228226
000260 85 ef bd bd 0c 14 1f bd 4a 61 29 bd 75 e5 57 bd
       -0.092742 -0.038837478 -0.041352548 -0.05270906
000270 e4 8a c8 bd cc 6c 3b bd 60 46 a3 3d ce ed 72 3c
       -0.09792116 -0.045758054 0.07972407 0.014827205
000280 3b 1f 56 3d e1 8c 8a bd 7f 5b 8e 3c c6 a8 55 3d
       0.052275877 -0.06765152 0.017377613 0.052162908
000290 cc ab 06 bd 75 76 98 3c 0a 8d c9 bd bd 8c 99 3d
       -0.032878682 0.018611172 -0.09841354 0.07497547
0002a0 64 9d 49 bd 31 f1 9d 3d 47 3e 98 3c 7e 4d 07 bc
       -0.049222365 0.07712019 0.018584384 -0.008258222
0002b0 e6 87 ca bc 0a ec b5 bd 20 ea 5e 3d e3 a2 d0 bd
       -0.024723005 -0.088829115 0.054422498 -0.10187318
0002c0 a3 4b a4 bc 1c 2e 54 bd 78 12 ef bc 76 ea f6 3c
       -0.020055598 -0.051801786 -0.029183611 0.030141097
0002d0 d7 96 06 bc 26 a4 3e bd c9 da cb 3c 7e d4 bf bd
       -0.008214674 -0.046543263 0.024884598 -0.093667015
0002e0 9f 89 9f bd 0d 5c cc bd 7d df 7f 3d 29 de 9b 3c
       -0.07789921 -0.09978495 0.062468994 0.019026833
0002f0 0a 00 04 bc 8e a2 40 bd b0 28 8c 3d e0 b3 c1 3c
       -0.00805665 -0.047030024 0.06843698 0.023645341
000300 5d 02 65 be 2a d9 49 be c7 c6 e3 bd b1 26 a5 bc
       -0.22364183 -0.19711748 -0.11121898 -0.020160051
000310 46 6b 0e be d6 8b 74 be 87 41 81 be 02 57 56 be
       -0.13908109 -0.23881468 -0.25245306 -0.20931628
000320 0c 1a a4 be 4e 03 89 bd 54 61 0b be 8c 77 35 be
       -0.32051122 -0.066900834 -0.13611346 -0.17721385
000330 27 4d 3a be 3a ff c9 be d5 af 26 be 56 43 0c be
       -0.18193494 -0.39452535 -0.16278012 -0.13697562
000340 58 a9 a4 be 84 85 8c be ab 22 3e bd 4a 06 b5 bd
       -0.3216045 -0.27445614 -0.04641978 -0.0883909
000350 42 2b 6b be 9c d5 2f be f1 c8 7e be 69 b0 90 be
       -0.2296572 -0.1717133 -0.2488134 -0.2825959
000360 7e 3f 0f bd 8b 90 8f be de cf 0f be b2 4d 49 bd
       -0.03497266 -0.28039965 -0.14044139 -0.04914636
000370 4d 79 d2 be 79 4e 39 be 9f 32 42 be 4d ae 8e be
       -0.4110817 -0.18096341 -0.18964623 -0.27867356
000380 ac c3 96 be 03 2d 85 be f9 67 39 be bb 10 8e be
       -0.2944616 -0.26010904 -0.18106069 -0.2774714
000390 55 fa 51 be 40 52 19 bd 65 96 68 be 9a 47 7a be
       -0.2050565 -0.037431955 -0.22713621 -0.24441376
0003a0 c6 13 14 be 01 ec c8 bd e6 dc 2b be d1 a8 e2 bd
       -0.14460668 -0.09810639 -0.16783485 -0.110673554
0003b0 b3 f9 31 be 2e 11 7c be 9f 58 2d 3b d0 e1 5d be
       -0.17380409 -0.24615929 0.0026450527 -0.21668172
0003c0 e6 4d da bd da f4 f3 bd 37 ed 01 be ca 70 7e bd
       -0.10659389 -0.11911936 -0.12688147 -0.062119283
0003d0 26 9f 71 be 40 0c 1a be 85 06 51 be 54 8b 79 be
       -0.23595867 -0.15043736 -0.20412643 -0.24369556
0003e0 b5 74 1f be cb 59 92 be 25 0d 19 3d f6 58 10 be
       -0.15571864 -0.28584132 0.03736605 -0.14096436
0003f0 18 8d 0a be 57 a0 92 be ca 0a 57 be 80 ff 61 be
       -0.13530385 -0.28637955 -0.2100021 -0.22070122

lstm.bias_hh_l0 f4 [256]
000000 9a d7 58 bd 6c 2d 92 be f2 ec 2c be d5 3c 3e be
       -0.05293999 -0.2855028 -0.16887262 -0.18577893
000010 4d ac 83 be 50 08 90 be f6 c8 82 be 0c 18 52 bd
       -0.25717393 -0.28131342 -0.25543946 -0.051292464
000020 2b 39 b1 be a0 48 5e be 24 33 86 be 89 95 22 be
       -0.34613928 -0.21707392 -0.26210892 -0.15877356
000030 3c ce 95 bd f7 6f bf be ca 9e 62 bd c2 4b da bd
       -0.07314727 -0.3739011 -0.055327214 -0.10658981
000040 36 93 35 be 07 a9 82 be ae 63 73 bd 8e fb c2 bd
       -0.17731938 -0.25519583 -0.059421234 -0.095206365
000050 74 fe 8c be ed ea 70 be 14 70 10 be 5f 8f 98 be
       -0.27537882 -0.23527117 -0.14105254 -0.29796883
000060 55 3f 1e be b6 cd 90 be 86 32 4c bd 99 05 fc 3c
       -0.15453847 -0.28281945 -0.04985287 0.030764388
000070 6a 7b 4d be 6a 99 e7 bd 34 30 51 bd be 9e 7d be
       -0.2006661 -0.11308558 -0.05107136 -0.24767587
000080 69 41 ba be 50 06 ba be 58 f0 cc bd 59 ae ad be
       -0.3637803 -0.3633294 -0.100067794 -0.3392208
000090 6d 96 02 be e5 5a 82 be 9f fc 8b be bb a0 85 be
       -0.12752695 -0.25459972 -0.27341172 -0.2609919
0000a0 d3 33 11 bd 8a 04 f2 bd cb 49 1a be 5a 2e 15 be
       -0.035449814 -0.11817272 -0.15067212 -0.14568463
0000b0 98 e7 e4 bd 7e f3 47 bd 19 eb c7 bd f0 0c 99 be
       -0.111769855 -0.048816197 -0.09761638 -0.29892683
0000c0 80 b7 4f bd 8c ea 66 be be 87 55 be 3a 33 02 be
       -0.05071211 -0.2255041 -0.20852563 -0.12714854
0000d0 6c 54 7d be c2 2a d3 bd 6d c8 bd be b0 4a bd be
       -0.24739236 -0.1031089 -0.37066975 -0.36971045
0000e0 c7 fd 2f be 06 f4 64 be 52 02 ce 3b 02 d5 89 be
       -0.17186652 -0.22358713 0.0062868977 -0.26920325
0000f0 af 26 1e be 31 e7 34 be e6 b1 71 be 1f 2a 40 be
       -0.15444444 -0.17666318 -0.23603019 -0.18766068
000100 f9 be 2f bc a8 3d 28 be 62 d0 08 be 41 aa af bd
       -0.010726684 -0.1642977 -0.13360742 -0.08577395
000110 59 29 79 be f7 0f 04 be af 8e b9 bc 14 11 69 be
       -0.24332179 -0.12896715 -0.022651045 -0.22760421
000120 16 41 03 be ca 72 a4 bd bf 5c b1 bd 50 d6 9a bd
       -0.12817797 -0.08029707 -0.08660268 -0.07560408
000130 2a 8d 58 be 47 5d dd bd de 6c 17 be 8a a8 04 be
       -0.211476 -0.10808807 -0.14787623 -0.12954918
000140 88 b3 3c be 1b 1f 79 bd 76 74 89 be 0c 47 56 bd
       -0.1842786 -0.06082068 -0.26846665 -0.05231385
000150 f0 1e 78 be 6b 00 2f be 56 a0 67 be 55 fd 82 be
       -0.24230552 -0.17090003 -0.22619757 -0.25583902
000160 0c 01 24 bd 9a f8 e5 bd f5 3c 7a bd d4 b0 39 3d
       -0.04004006 -0.112290576 -0.06109329 0.045334652
000170 85 22 7c be a9 3c 5d be 8c 13 d7 bc e9 19 0d be
       -0.24622543 -0.21605171 -0.026254438 -0.13779415
000180 0b e7 1b be 57 9b 96 be 03 f5 2d be 62 7e a3 bd
       -0.15224855 -0.2941539 -0.16987996 -0.0798309
000190 4f 4b d1 bd 8e 2c 18 be 3e 59 b3 bc f3 97 ab bd
       -0.10219442 -0.14860746 -0.02189314 -0.083785914
0001a0 b4 19 2c be 8d 44 de 3d 2f 2f 7a be 8f b7 23 bd
       -0.1680668 0.10852919 -0.24432062 -0.039969977
0001b0 35 9c 33 be 35 5a 2d ba 2f db 7c 3b 5d d1 5e be
       -0.17540057 -0.0006612868 0.0038582792 -0.21759553
0001c0 95 5c 5e be 97 20 62 be b4 6d fe bc a4 06 9d bc
       -0.21715005 -0.22082745 -0.03105817 -0.019168206
0001d0 e1 c3 0b be 95 fd ef bd 58 a4 88 be f0 ef 8f be
       -0.1364894 -0.11718289 -0.26687884 -0.28112745
0001e0 bf 67 0a 3b 3e b4 9a be 97 3b a7 3d 92 35 46 be
       0.0021118966 -0.3021564 0.08165663 -0.19356373
0001f0 76 42 72 be 34 0e 50 be 74 a0 82 be 20 88 7b 3a
       -0.23658165 -0.20317918 -0.2551304 0.00095951743
000200 fd 7b 13 3d 0d 64 94 bb 86 de 82 bd 0c 23 36 3d
       0.036006916 -0.0045285285 -0.06390099 0.044467017
000210 43 9d 09 3c e5 a9 f0 bc 99 c0 ac bb 54 1f 9b 3d
       0.0083993105 -0.029377887 -0.005271983 0.07574335
000220 5c 40 0d bd 5c fb 94 3d 60 81 7c 3d f8 b1 3e bc
       -0.034485206 0.072745055 0.06164682 -0.011639111
000230 a9 85 2a 3c db 6d 46 bd 48 a5 f1 3c c0 2f ab 3d
       0.010407844 -0.04844461 0.029497758 0.08358717
000240 90 0f c8 bc 5c 3f d9 bc bf 08 3c bd f5 e6 8d bd
       -0.024421483 -0.02651947 -0.04590678 -0.06928817
000250 1d dc c4 3d 9c 31 db bb 31 d3 cf 3d ea 16 07 3d
       0.09612296 -0.0066892635 0.101477034 0.032980837
000260 7b be 82 3d b6 a1 64 3d 52 a8 16 bd 87 cb 42 bd
       0.063839875 0.055818282 -0.036781617 -0.04755738
000270 62 2d e6 3d c4 ee e6 bc 1a b8 8b bd 33 53 63 3d
       0.11239125 -0.028190024 -0.06822224 0.055499267
000280 83 ea 2a 3c 3e d4 b1 3d 23 b3 3b 3c a1 c9 dd 3c
       0.0104318885 0.0868306 0.011456284 0.027073683
000290 07 a8 c0 3d a9 f0 3e 3c 64 b8 8f 3d 80 2c 38 bd
       0.09407049 0.011654058 0.070175916 -0.044964314
0002a0 74 a2 fe bc fe 10 a2 bc 09 72 60 3d df 5b bc 3d
       -0.031083323 -0.019783493 0.054796252 0.091972105
0002b0 66 25 9c bc 3f 0b 12 3d 84 fe b4 3d bd 61 a4 3d
       -0.019060802 0.035655256 0.088376075 0.080264546
0002c0 fd 83 d0 3d 46 e4 c6 3c 05 c1 6f bd 72 31 da bb
       0.10181425 0.024278771 -0.058533687 -0.0066587264
0002d0 b5 98 85 bd 04 65 9c 3d 56 8b 1c bd fe b1 c7 3d
       -0.06523267 0.07636455 -0.03821882 0.09750746
0002e0 c4 3b 75 bd 8e dd 4a bc 61 b1 5c bc b1 51 d3 3b
       -0.05987145 -0.012381924 -0.013470025 0.0064489474
0002f0 46 80 4a 3d 1c d1 96 bc 32 9e f6 bd cb 41 c3 3b
       0.049438737 -0.018410258 -0.12041892 0.005958771
000300 1b c3 64 bd 40 18 b3 be ec 62 64 be 8d 4c 85 bd
       -0.05585013 -0.3497944 -0.2230336 -0.065087415
000310 aa 14 58 be 46 fd 71 be 4c fe 80 be d2 35 d1 bc
       -0.21101633 -0.23631772 -0.25194013 -0.025538359
000320 d2 01 1c be da a2 35 be a8 80 2b be 07 18 8e be
       -0.1523507 -0.17737904 -0.16748297 -0.27752706
000330 8b 60 4b bd 58 53 c4 be 3c fa 84 bd c7 7d 01 be
       -0.049652617 -0.38344836 -0.06493041 -0.12645636
000340 cc 4c 3c be ad 77 a2 bd fe d1 64 be 32 80 5e be
       -0.1838867 -0.079329826 -0.2234573 -0.2172859
000350 ca 84 75 be 9d 51 3a be 85 df bc be 51 a9 75 be
       -0.23976436 -0.18195195 -0.36889282 -0.2399037
000360 cb fe d2 bc c6 75 8c be eb 41 89 be 47 3f d2 bd
       -0.02575626 -0.27433604 -0.26808104 -0.102659754
000370 66 c7 9f be 2b 03 46 be ca 89 06 bd db b8 08 be
       -0.31206816 -0.19337146 -0.03284625 -0.13351767
000380 fe cc 90 be 60 df 43 be ba a0 84 bd 83 f4 13 be
       -0.28281397 -0.1912818 -0.06475969 -0.14448743
000390 19 4b 7b be f0 8b 68 bd 76 b6 9b bd 52 ee 88 be
       -0.24540366 -0.05677408 -0.07603161 -0.26744324
0003a0 3c 18 1a be 24 68 72 3d fc 47 38 be ed 40 4d be
       -0.15048307 0.059181347 -0.1799621 -0.20044298
0003b0 12 05 1d bd 16 b2 37 be 37 de 72 bd 4a 5e ad be
       -0.038334914 -0.17939028 -0.05929395 -0.33861
0003c0 f0 5c be bd 5b 08 09 be b0 41 92 bd c2 e1 52 bd
       -0.0929507 -0.13382094 -0.07141435 -0.05148483
0003d0 8c 86 58 be 80 e3 57 be 2f 38 a9 be a8 cc 82 be
       -0.21145076 -0.21082878 -0.33050677 -0.25546765
0003e0 c5 53 31 be 51 3f e6 bd eb 08 45 3d 19 44 dc bd
       -0.17317112 -0.112425454 0.048104208 -0.10755176
0003f0 15 30 55 be f2 ba 91 bd 5f 1d 83 be 46 6f 35 be
       -0.20819123 -0.07115735 -0.25608346 -0.17718229

lstm.weight_ih_l0_reverse f4 [256, 13]
000000 7f 8e 53 be 13 bc 4e be be a9 80 be 35 14 a9 be
       -0.20659827 -0.20188932 -0.25129503 -0.3302323
000010 69 e7 42 be c4 9a ae bd 45 ce 0a be 38 b6 f0 bd
       -0.19033588 -0.08525613 -0.13555248 -0.117535055
000020 ef 4c 6c bd 0b 70 95 be ac b3 1d be 5d 9e 86 be
       -0.057690557 -0.29187045 -0.1540057 -0.26292697
000030 3c b0 1b be 8a 63 b1 bd ff 0f 04 be 46 e2 4e be
       -0.15203947 -0.08661564 -0.12896727 -0.20203504
000040 fc 94 09 be ff 8f 95 bd 19 51 82 be f0 bc 0e be
       -0.1343574 -0.07302856 -0.25452498 -0.13939261
000050 8d 56 24 be c6 10 b2 3d cb f0 ff bd 8c 17 2f be
       -0.16048642 0.086946055 -0.124970995 -0.17098826
000060 9f db 1c be 02 28 e8 bc e5 58 3f be f0 d0 a7 bd
       -0.15318154 -0.02833939 -0.18686254 -0.081941485
000070 a4 01 1e bd 1c 23 40 be 90 2c 98 bd 3b c7 8f 3d
       -0.038575783 -0.18763393 -0.074303746 0.07020422
000080 f2 fd 79 3d d1 38 e7 3d 00 04 6f be 37 88 5b be
       0.061033197 0.11290134 -0.2334137 -0.2143868
000090 10 d5 a7 bd c6 72 2b bd 80 14 4a be d8 83 8b bd
       -0.08194935 -0.041857503 -0.19734383 -0.068122566
0000a0 ef 85 57 be e1 93 8f be f9 7b 72 bd 89 eb a6 be
       -0.21047185 -0.2804251 -0.05920026 -0.32601574
0000b0 4f 17 08 be 91 36 12 be 1a 0d 3b 3d 42 67 15 3d
       -0.13290142 -0.14278628 0.04566679 0.036475427
0000c0 fe 2c 35 be 33 d9 f9 bd 84 48 89 be c0 01 9d bc
       -0.17692944 -0.121996306 -0.26813138 -0.019165874
0000d0 94 e1 3e be 0f 0a ef bd cd 84 25 bd 79 89 81 be
       -0.18640739 -0.116718404 -0.04040985 -0.25300196
0000e0 b2 20 26 bd 95 02 19 b9 e8 c6 1b be 17 f8 ef bd
       -0.040558524 -0.00014592179 -0.15212595 -0.11717241
0000f0 04 b4 b1 bd ef a1 4c be a1 0d 37 be c2 98 6f be
       -0.086769134 -0.19983648 -0.17876293 -0.23398116
000100 6f 3c 30 3d 6c eb 5a be 89 4d 38 be c6 ab 0c be
       0.043026384 -0.21378869 -0.17998327 -0.13737401
000110 b2 c7 5c be 0f d4 c3 be 3d 91 d5 bd 9a 79 d8 bd
       -0.21560553 -0.38247725 -0.10428093 -0.10570069
000120 68 27 f7 bd 09 14 bb be 7d 15 b7 bd 98 05 50 be
       -0.12068063 -0.36538723 -0.089396454 -0.20314634
000130 b5 71 46 be b2 41 d8 bd b2 04 3f be c1 dd ca bd
       -0.19379313 -0.105594054 -0.18654135 -0.099055775
000140 54 da 45 be e7 8c c6 3c dd ab 32 3e 5a 68 19 3e
       -0.19321567 0.02423711 0.17448373 0.14981213
000150 ab e7 9c 3d 05 dc 5a be 67 1b aa bc 48 cc 67 be
       0.07661375 -0.21372993 -0.02076502 -0.22636521
000160 97 4a 0e be 3e 7f 3e be d0 4f 1b 3e ef db 9a be
       -0.13895641 -0.18603227 0.15167165 -0.3024592
000170 12 5b cf bd 3f 8e aa bd 2e 35 a7 bd 18 c4 14 bf
       -0.10124792 -0.083279125 -0.0816444 -0.58111715
000180 b1 5a 9c bb 73 05 88 bc d6 4c fc bc 6a 58 54 be
       -0.0047715534 -0.01660416 -0.030798357 -0.20736852
000190 31 7d 0e be 65 6a a1 bc f8 cc 9e bc 27 ab 1d be
       -0.13914944 -0.019704053 -0.019384846 -0.1539732
0001a0 ce 50 29 be a0 d3 4b be 88 9e 28 be cf e0 6c be
       -0.16534731 -0.19904947 -0.16466725 -0.23132633
0001b0 b2 f0 0c bd e1 a6 4f be 0e 6e 0c be 68 e0 ae ba
       -0.034409232 -0.20278503 -0.13713858 -0.0013342025
0001c0 03 67 36 be f5 83 3b be 24 cf 61 be 34 e8 45 be
       -0.17812733 -0.18312056 -0.22051674 -0.1932686
0001d0 58 e3 88 be f1 96 33 be 82 8c c4 bd b9 65 a4 bd
       -0.2673595 -0.17538048 -0.09597112 -0.080272146
0001e0 19 0d 2a be c5 8c 1a 3d 0d e9 2a be 0f dc bc 3c
       -0.16606559 0.037731905 -0.16690464 0.02305415
0001f0 be 53 06 3b 52 59 90 bd ad 0c 7b be 27 b9 ac bc
       0.0020496692 -0.070482865 -0.24516554 -0.021084381
000200 0d 70 29 be 04 af 81 be a1 93 96 bd ce 28 7c be
       -0.1654665 -0.2532884 -0.07352377 -0.24624941
000210 95 dd cb bd 04 a2 02 be 6f 12 58 bd 15 94 3f bd
       -0.09954373 -0.12757117 -0.052751955 -0.04677208
000220 a7 73 0f be 52 a4 83 bd 71 57 28 3c e5 7b 75 be
       -0.14008962 -0.06427826 0.010274754 -0.23973043
000230 fe fa 07 3d 68 7c 1b be f2 f4 35 bd 54 25 25 be
       0.03319835 -0.15184176 -0.04442305 -0.16127521
000240 5a db 6f be 88 a8 4d bd c4 7a e9 bd 87 bd fa bd
       -0.2342352 -0.050209552 -0.11400369 -0.12243181
000250 53 ad 53 be b2 42 b2 bd 26 f3 ae 3d 03 a6 6d be
       -0.20671587 -0.08704127 0.08542471 -0.2320786
000260 27 2b c7 be fe 40 04 be a7 bf c2 bb bd 83 94 be
       -0.3890011 -0.12915418 -0.005943257 -0.29006758
000270 13 59 94 be cd b3 e5 bd 00 2b 26 be da fc 2a be
       -0.28974208 -0.11215935 -0.1622734 -0.16698018
000280 bf 6b a5 bd 7e 64 c3 bd 03 73 94 be 88 1f c8 bd
       -0.080771916 -0.09540652 -0.28993997 -0.09771639
000290 5e 31 c7 3c 09 eb 38 be 32 dd 3c bd 66 c3 a2 be
       0.024315532 -0.18058409 -0.046109386 -0.31789702
0002a0 0a 5f 88 be fc 9b 33 be ad d0 93 bd c6 fe 3c be
       -0.2663501 -0.17539972 -0.07217536 -0.18456563
0002b0 26 34 24 be 2e b9 88 be bb a4 a9 bd ed 75 fa bd
       -0.16035518 -0.2670378 -0.08283373 -0.12229524
0002c0 13 ba 9a 3c 42 e0 9e 3d 99 b7 8e bd 8f 6a 3b bd
       0.018887555 0.077576175 -0.06968612 -0.04575592
0002d0 80 fc 8a be a8 ef 8e be da cc 0d 3e 29 7b 97 3d
       -0.27145767 -0.27917218 0.13847676 0.07396538
0002e0 c5 bd 5f bd cd 8a a8 3d 90 3e 80 3d 0f fc 84 bd
       -0.054624338 0.08229599 0.06261933 -0.06493389
0002f0 a5 04 de bd d6 53 33 be 62 a2 fc 39 51 23 96 3d
       -0.108407296 -0.1751245 0.0004818617 0.07330955
000300 c5 4f 57 3d 73 77 76 3d d8 93 3a be 92 3a da bd
       0.05256631 0.06017251 -0.1822046 -0.10655703
000310 58 a9 7c be 8c a0 07 be 94 b8 c2 bd f8 e9 5d be
       -0.24673975 -0.13244838 -0.09507862 -0.21671283
000320 61 52 6c be d8 39 67 be 0a 9b a3 bd 44 1b 2c be
       -0.230783 -0.2258066 -0.07988556 -0.16807276
000330 f9 18 1c be c4 36 64 be 5e c6 2b be c5 6f c1 bd
       -0.15243901 -0.22286516 -0.1677489 -0.094451465
000340 83 cd 16 be cf 3a 73 bd 5e 21 33 be be 50 0c bd
       -0.14726834 -0.059382256 -0.17493197 -0.03425669
000350 f0 b8 b3 bd ba 56 20 be 09 fb 15 be 35 95 ac 3d
       -0.087755084 -0.15658084 -0.14646544 0.084268965
000360 a4 67 39 be c6 2d d3 be aa 46 7b be b8 ae 77 be
       -0.18105942 -0.4124586 -0.24538675 -0.24187744
000370 ff 26 61 be 30 4b 3e bd 44 b7 c9 3d c2 e8 7c 3c
       -0.21987532 -0.046458423 0.09849408 0.015436353
000380 bc 72 52 bd af ad 88 be dd 2e 16 bd 79 3e 5e bd
       -0.05137895 -0.2669501 -0.036665786 -0.054258797
000390 01 68 31 be 4c dc 8e be 85 e1 a8 bd 95 7d dd 3d
       -0.1732483 -0.27902448 -0.082461394 0.108149685
0003a0 57 61 bb bd 1a 25 44 bc a2 e3 0c be 56 5c 64 bd
       -0.091494255 -0.011971736 -0.1375871 -0.05575212
0003b0 27 df 0b 3c d1 a9 90 bd 97 35 af 3d 7d ca b0 3d
       0.00853709 -0.0706364 0.08555143 0.086323716
0003c0 a6 7a 36 3e 6d 92 8f be 97 63 89 bd fd f5 8e 3d
       0.17820224 -0.28041402 -0.067084484 0.06980512
0003d0 c0 98 85 bd 85 65 af bc 37 34 6a bd 81 1e 0a 3e
       -0.065232754 -0.021410713 -0.057178702 0.13488199
0003e0 46 70 2b 3d 62 2b fc ba fa 46 1c bd ae 09 01 bf
       0.04185512 -0.0019239003 -0.038153626 -0.50405395
0003f0 72 6e 55 bb fe 68 02 3c e2 40 4c 3e 0b 79 5e be
       -0.0032567051 0.007959602 0.19946626 -0.21725862

lstm.weight_hh_l0_reverse f4 [256, 64]
000000 b1 53 a7 3d a9 21 90 3d ab 48 92 bd 76 bf 35 3e
       0.0817026 0.0703767 -0.071427666 0.17748818
000010 2b 3a 83 3d 50 04 f1 3d bd f6 3b 3d 73 9a 2f bd
       0.06407579 0.11768401 0.045889605 -0.042871904
000020 de b4 8f 3d 09 ed 43 bd 39 38 37 bd fe a3 b9 3d
       0.070169196 -0.047833476 -0.044731352 0.09064482
000030 a9 35 be 3c 07 72 e3 bd af de fc bd 7d 9b 2a bd
       0.023218947 -0.11105733 -0.12347161 -0.04165219
000040 3d e9 f5 3c 55 fb c3 3d 01 f0 25 3d f5 7a 05 3e
       0.030018443 0.09569422 0.04051209 0.13035186
000050 a0 c8 18 be ae d2 13 be 9e e5 6b bc c0 54 16 3e
       -0.14920282 -0.14435837 -0.014398007 0.14680767
000060 d6 31 4c 3d 87 e7 6e bd 88 69 96 3c c2 36 a1 3d
       0.049852215 -0.05832627 0.018360868 0.07871772
000070 cb 13 f9 3d ab 65 61 bd 2b 93 3b 3d 64 59 10 3e
       0.12161978 -0.0550286 0.045794647 0.140966
000080 9b 2d 77 bd 58 30 5a bd 7b 7c 12 3e c9 5a c2 3c
       -0.060346227 -0.05326876 0.14305298 0.02372493
000090 33 53 93 3d a3 9e 0c 3e e3 53 36 be a4 69 8d bc
       0.07193603 0.1373239 -0.17805438 -0.017262287
0000a0 05 61 1d bc ec 9c 6a bc e5 24 93 3d bb a9 38 be
       -0.009605651 -0.01431964 0.071847714 -0.18033497
0000b0 d6 42 82 bd bd 97 a1 bc 99 94 e4 bd c9 46 b1 3d
       -0.06360404 -0.019725675 -0.11161155 0.08656079
0000c0 be d2 05 3e 68 c6 14 be 3d 3f 9f bc c7 9d 3e be
       0.13068673 -0.14528811 -0.019439334 -0.18614875
0000d0 5a 04 86 bd 80 69 58 3c 6f 18 c7 bc 9b b6 83 3d
       -0.06543799 0.013208747 -0.024303643 0.064313136
0000e0 86 76 84 bd ef c0 36 be d3 95 2f 3e 67 86 da bd
       -0.06467919 -0.17847036 0.17146997 -0.106701665
0000f0 c2 8e 94 bd 0d 62 2c bd e0 1f 3f 3d 49 5f 28 3c
       -0.072537914 -0.042085696 0.046661258 0.010276624
000100 dc 04 e4 bb 90 4d 47 be 09 9a 2b 3e c7 cc cb 3d
       -0.006958587 -0.19463181 0.16757978 0.099511676
000110 ac 64 b9 bd f8 d1 25 bd eb 60 f2 3c 88 4c d6 bd
       -0.09052405 -0.040483445 0.02958723 -0.10463816
000120 f5 24 30 3d 3b 19 b9 bd 83 03 45 bd f0 7d 86 bd
       0.043003995 -0.090380155 -0.048099052 -0.065669894
000130 1b c6 13 3e 44 2c 0b 3d 54 05 09 3d 31 97 c7 3d
       0.1443104 0.033977762 0.033452347 0.09745634
000140 1a b9 9f 3c 34 e8 d1 3d 46 7b bc bc 32 cf b1 bd
       0.019497443 0.10249367 -0.023008 -0.086820975
000150 5c aa d4 3b e6 90 07 bc f6 c7 57 3d 69 72 15 be
       0.006490035 -0.008274293 0.052680932 -0.14594425
000160 ca dc 08 3c 64 46 17 ba fd ae 61 3c 1c 98 04 3d
       0.008353421 -0.0005770682 0.013774631 0.032371625
000170 32 f8 ec 3d 49 69 24 3c 86 5e 54 3d c7 45 2f 3d
       0.11570777 0.010034868 0.051847957 0.042791154
000180 f3 c6 6b 3d b2 a6 fa 3d 91 b8 28 3d 1f 69 e5 bd
       0.05756278 0.12238826 0.04119164 -0.11201691
000190 1e ef 9b 3c 48 96 03 3e 2f 0c 89 bd de be 2e bd
       0.019034918 0.12850296 -0.06691777 -0.042662494
0001a0 15 28 74 bd e0 51 e6 bc e6 89 45 3e e1 e6 ee bd
       -0.059608538 -0.028115213 0.19290885 -0.116651304
0001b0 f7 62 62 3d d6 47 b5 bb e8 9f 06 3e cd 80 13 3e
       0.05527016 -0.005532245 0.13146937 0.14404602
0001c0 48 81 8b bd e4 bc ae 3c 74 ba 3e 3c 36 3c 05 be
       -0.06811768 0.021330304 0.011641134 -0.1301125
0001d0 69 7f 3b bc 66 cf 02 bd 98 5c c7 3c 19 58 28 be
       -0.011443951 -0.03193607 0.024336144 -0.16439857
0001e0 bb 68 88 3d a8 d6 86 bb 08 8b 26 3e c8 4a b9 3b
       0.06660601 -0.0041149445 0.16263974 0.0056546666
0001f0 e3 ea 28 bb 6f 29 fb 3d a4 01 b6 3c fd 4d 1d 3d
       -0.002577477 0.12263762 0.02221758 0.038404454
000200 e0 48 c2 bd 75 c1 08 3d 32 06 e9 bc d8 09 83 3d
       -0.09486556 0.03338762 -0.028445337 0.06398362
000210 2b ec ac bd 8f e6 e2 bd 38 94 51 3d 38 bb 09 3d
       -0.08443483 -0.11079132 0.051166743 0.03362581
000220 da ad b4 bd 84 1c a4 3d ba 50 1b bd a1 01 9f 3d
       -0.08822222 0.080132514 -0.037918784 0.077639826
000230 51 70 ae 3d 0f 3e d2 3c 0a 11 ee bd fa 88 cc 3c
       0.085175164 0.025664357 -0.11624344 0.02496766
000240 1e 56 c1 3d 93 fc 9b 3c 7f a8 db 3d 21 9d 7e 3d
       0.09440254 0.019041335 0.107254975 0.06216157
000250 81 f9 ac 3d ec 00 96 3d 1a 6e 21 bd 68 bd 1e 3e
       0.084460266 0.073243946 -0.03941164 0.1550194
000260 b0 dd 4d bd 9b a0 d4 3c ce e1 77 bd ad f1 d1 3d
       -0.050260246 0.025955489 -0.06051808 0.10251174
000270 dd bb 86 bd 08 6f fe bd 51 e2 61 bd 49 bf 98 3d
       -0.06578801 -0.12423521 -0.055147473 0.0745836
000280 37 12 bd 3c 78 67 61 3d 05 b0 da 3d eb 46 11 3e
       0.023079975 0.055030316 0.10678104 0.1418721
000290 48 49 8d bd d3 e8 95 3d b4 4f a3 bd 39 9c 3c 3d
       -0.06898743 0.07319798 -0.079741865 0.046047423
0002a0 be 35 c3 bd e9 fc b4 bd 00 25 cf bd 1b 03 ca bc
       -0.09531735 -0.08837301 -0.10114479 -0.024659684
0002b0 6b be 08 3d a7 3f c9 3d 3e 1a 9d bd 80 99 d3 3d
       0.03338472 0.09826594 -0.07671021 0.10332012
0002c0 41 8f 0c 3d 50 6b 94 3d 8d 38 75 3c 3c cd d1 bc
       0.034316305 0.07247031 0.014967096 -0.025610559
0002d0 ad 3b 09 3d b4 43 93 3c b4 51 f2 3d 0e 43 33 bc
       0.033504177 0.01797662 0.1183199 -0.01094128
0002e0 dc 50 d8 bd c7 04 f4 3c 6a 1e 2e bd 8a 68 d2 3d
       -0.10562298 0.029787434 -0.042509474 0.102738455
0002f0 51 bf 15 3d a3 69 e0 bd 76 71 d7 3c cd 45 58 bd
       0.036559407 -0.109576486 0.02629922 -0.052800942
000300 cd 2f 55 bd 52 4d 8a 3d b4 70 02 bc 03 09 3c 3d
       -0.05204754 0.06753029 -0.007961441 0.04590703
000310 6a c5 a4 bd bf ea 1c bd 0c bc 9a 3c c7 e1 14 bd
       -0.08045466 -0.03830981 0.018888496 -0.03634813
000320 2a bb d8 bd 46 5d 0a 3c 6a b3 f9 bd 4c 9f 8f bc
       -0.10582574 0.00844509 -0.12192424 -0.017532013
000330 db 9d b7 bb 50 3d c8 bd b1 4a 18 3c 6c bd db 3d
       -0.0056035346 -0.097773194 0.009295152 0.10729489
000340 6c a8 eb bc aa 3b 00 3e 84 53 26 bc b2 9e 3a 3d
       -0.028766833 0.1252276 -0.010151748 0.0455615
000350 4e e5 37 3d ec c8 54 3d c1 b1 cf 3d f2 74 6d bc
       0.044896416 0.051949427 0.10141326 -0.014493214
000360 20 e8 f7 3c e9 b2 b2 3b e8 53 d4 bd 1f 7e 9d bd
       0.030262053 0.0054534567 -0.10367566 -0.07690071
000370 d3 fa ac bd 93 f1 74 bc 6c 8f 82 bc f5 59 db 3d
       -0.084462784 -0.014950174 -0.01593753 0.10710517
000380 36 b4 61 3d 3b 5b 13 3d 26 de bd bd 82 d6 98 bd
       0.055103503 0.035975676 -0.09270887 -0.07462789
000390 64 d8 83 3b 3e 45 95 3d 73 ed 43 3d 11 90 e9 3c
       0.0040235985 0.072885975 0.04783387 0.028511079
0003a0 5b 8d 05 3e ac 20 90 3d 4f a5 4e 3d a1 b4 a0 bd
       0.13042204 0.07037482 0.05045062 -0.07846952
0003b0 eb 53 66 bd 05 30 a5 bc 71 9a 73 bd 7c 64 08 3e
       -0.056232374 -0.020164499 -0.05947346 0.13319582
0003c0 07 a8 0c 3e 20 c9 ce bc 2a c4 10 be f0 ef 29 be
       0.13735972 -0.025242388 -0.1413733 -0.16595435
0003d0 06 a1 21 bc 30 1a 93 bc de 4e 5e bd c3 68 25 be
       -0.009865051 -0.017956823 -0.054274432 -0.16153245
0003e0 d4 a0 0d 3e 98 81 26 bc d3 ef 86 bd d4 94 0e bd
       0.13830882 -0.0101627335 -0.065887116 -0.034809902
0003f0 17 22 76 3c 64 eb e1 3d 69 ce c2 3d 2a 94 9a 3d
       0.015022776 0.11031225 0.09512026 0.07547791

lstm.bias_ih_l0_reverse f4 [256]
000000 46 5d 95 be 2f 55 06 be 7d 81 14 be 4d cf 0a be
       -0.29172724 -0.13118432 -0.14502521 -0.13555641
000010 61 2b 9f bd ea f8 a1 be b4 06 19 bb ae b0 de bd
       -0.07771946 -0.3163522 -0.0023349943 -0.10873543
000020 e6 ec 2c be 38 d4 2e be 48 20 29 be ca 6b d5 be
       -0.16887245 -0.17073143 -0.1651622 -0.416838
000030 93 25 44 be 22 9a 0a be e8 8c ba bd 29 b1 f5 bd
       -0.19154958 -0.1353536 -0.09108907 -0.11996681
000040 dc 0f 2f be c8 97 44 be 6e 40 79 3a 03 4d 5e be
       -0.17095894 -0.19198525 0.0009508197 -0.21709065
000050 a7 d8 98 be a0 8b 54 be 64 4e b8 bd 43 d6 96 be
       -0.29852793 -0.20756388 -0.08999327 -0.29460344
000060 bf eb 8a be ce a7 89 be 05 cf 99 be 48 df ee bd
       -0.27132985 -0.26885837 -0.30040756 -0.11663681
000070 60 39 94 bd 7a 78 0b be e6 49 1b be 13 87 5b be
       -0.07237506 -0.13620177 -0.15164909 -0.21438245
000080 59 95 de bd be 2f 24 be b0 3c a7 bd f2 6d 33 be
       -0.108683296 -0.16033837 -0.08165872 -0.1752241
000090 61 65 34 be 44 9d 34 bd 98 d4 90 bd 11 94 7a be
       -0.17616798 -0.044095293 -0.07071799 -0.24470545
0000a0 91 1c 4e be 45 a6 1b be ea 17 0e be 9d c3 4f be
       -0.20128085 -0.15200146 -0.1387631 -0.20289464
0000b0 9e 09 2c be dd 5e 49 be 8d 18 41 be e8 bd fa bd
       -0.16800544 -0.19665094 -0.18857022 -0.12243253
0000c0 0b af 91 bd 04 08 67 be 70 74 31 be a3 c8 dd bd
       -0.07113465 -0.22561651 -0.17329574 -0.10829284
0000d0 cd da 94 be 91 99 ff bd 73 38 cd be b8 45 e2 bd
       -0.29073182 -0.12480462 -0.4008213 -0.11048454
0000e0 d4 0a 3d be 23 dc 0d bd 39 96 a5 bc f7 72 88 be
       -0.18461162 -0.034633767 -0.020213233 -0.2665021
0000f0 d7 b6 86 be 69 b2 3a be 8c cf 71 bd b9 ca c5 bd
       -0.2631137 -0.1823212 -0.059035823 -0.09657807
000100 8b d0 67 bd e7 08 fe bc 10 7f 3e bd c0 38 fc bd
       -0.056595366 -0.031010104 -0.046507895 -0.12315512
000110 c2 19 43 be 86 98 28 be b0 cb 78 bd 26 df 10 bd
       -0.19052795 -0.16464433 -0.060741127 -0.03536906
000120 15 81 be bd 60 b3 22 be 78 9d 92 be 3e 9e a1 be
       -0.09301964 -0.15888739 -0.28635764 -0.31566042
000130 cf dc 8d bd f8 8a 00 be bf 76 42 be 3d d1 6f be
       -0.069268815 -0.12553012 -0.1899061 -0.23419662
000140 17 38 8a be 99 23 ea bd 20 f5 eb bd 24 f8 a3 bd
       -0.26995918 -0.11432571 -0.11521363 -0.080063134
000150 85 77 86 be 4c 2c 5a be af cf 0e be 9d e4 6c be
       -0.2626306 -0.2130596 -0.13946413 -0.23134084
000160 41 59 54 bd 6a 6d 28 bd 1f 93 07 be 5e eb 15 be
       -0.05184293 -0.04111997 -0.13239716 -0.14640567
000170 af e3 c0 bd 3d 88 47 be 3d e3 4d bd 97 5e 37 bd
       -0.09418427 -0.19485565 -0.05026554 -0.044767942
000180 5b 20 06 be e9 3e 58 be 18 4b fb bc db c0 f1 bc
       -0.1309828 -0.21117748 -0.030675456 -0.029510906
000190 85 6d 20 3b 61 80 65 be 27 db 75 ba 19 70 87 be
       0.0024479341 -0.22412254 -0.00093786645 -0.2645271
0001a0 96 8c 90 bd 52 02 57 bd a6 35 4b be 81 cc 5c be
       -0.07058065 -0.052492447 -0.19844684 -0.21562387
0001b0 e6 dc d7 bd 6b 97 39 be 01 91 2c bc e9 d8 4d bd
       -0.1054018 -0.18124168 -0.0105326185 -0.05025569
0001c0 7f c7 ef bc b5 28 aa be d7 55 84 bd e9 dd c0 bb
       -0.029269932 -0.33234182 -0.06461685 -0.0058858288
0001d0 68 45 87 be e9 36 28 be 59 e1 c0 bd f2 6a 65 be
       -0.2642014 -0.16427197 -0.09417982 -0.22404078
0001e0 50 89 ff bd d3 d0 fe bd 9a a0 29 bd 96 30 95 be
       -0.12477362 -0.12442174 -0.041412927 -0.2913863
0001f0 d7 94 80 be 90 be 9f bd da 77 27 bd b6 6d 60 be
       -0.25113556 -0.07800019 -0.040885784 -0.21916851
000200 04 0b 57 3d a6 91 39 bb 7c 75 64 bd 3c 5f 04 bd
       0.05250074 -0.0028315573 -0.055776104 -0.032317385
000210 b3 01 08 be 84 da 3a bc 2f ca 05 3c a0 b1 0c bd
       -0.13281898 -0.011404637 0.00816588 -0.034349084
000220 b7 e3 04 3d 1e e3 f5 bd f5 27 a5 3d bf da 01 3d
       0.03244373 -0.1200621 0.08064262 0.031702753
000230 a5 3b 98 bd 63 17 18 3d cc 05 27 3d 93 fc 8c bd
       -0.07433251 0.03713168 0.040777013 -0.06884112
000240 80 f7 f0 3c 21 a4 03 3d 24 d1 4a 3d 2e ca 8b bb
       0.029414892 0.032138947 0.04951586 -0.004266045
000250 d8 1e 2f 3c 8d a9 19 3d a0 79 4e bd 89 51 d8 3c
       0.010688506 0.03751521 -0.05040896 0.026406066
000260 5c b0 44 bc 29 fa 17 3d 00 a9 47 bd 34 31 18 3b
       -0.012004938 0.037103806 -0.048745155 0.0023222687
000270 69 68 71 3d b0 ec a5 bd 25 d3 1b bd ee 07 39 3c
       0.058937464 -0.08101785 -0.03804316 0.0112933945
000280 b5 65 ce bc cc 18 0f bd 28 cb 90 3b 59 be 1d 3d
       -0.025194982 -0.034935758 0.0044187494 0.038511608
000290 d4 9f a4 ba 9e b8 46 bd 76 2d 7a 3d 43 19 b4 bd
       -0.001255984 -0.04851591 0.06107851 -0.08793881
0002a0 d0 49 6e 3d ea 47 8c 3d 51 4e 22 bd 08 82 be 3c
       0.05817586 0.06849654 -0.03962547 0.023255363
0002b0 9a 61 b1 bd aa c9 7d 3d 9c 85 e4 bd fb c6 41 3d
       -0.08661194 0.0619599 -0.111582965 0.047308903
0002c0 e7 e4 a9 bd 1e 08 cb bd 03 5d c8 bd 77 c2 e4 3c
       -0.08295613 -0.099136576 -0.097833656 0.02792476
0002d0 f7 2f 30 3d a2 72 81 3d 20 71 03 bd 20 a7 d6 3d
       0.043014493 0.063206926 -0.032090306 0.10481095
0002e0 26 4a b7 bd 59 a3 18 bd 6b 99 1e 3d 17 b4 bd bc
       -0.089496896 -0.037265155 0.03872053 -0.023157163
0002f0 aa cb 42 bd 64 e5 8f bc 29 7f 7f bd c8 b0 45 bd
       -0.04755751 -0.017565437 -0.06237713 -0.048264295
000300 f9 37 5e be c7 47 82 be 83 d8 65 be fc 7b 09 be
       -0.2170104 -0.25445387 -0.22445874 -0.13426203
000310 85 ad cd bd b0 56 87 be dd 99 9e bd 35 f1 93 bd
       -0.10042862 -0.26433325 -0.07744191 -0.07223741
000320 dc 26 37 be 36 54 44 be 47 22 99 be 35 4e 76 be
       -0.17885917 -0.19172749 -0.29908964 -0.24053271
000330 5d ae 16 be b7 0b 6b bd d7 a9 00 be 38 82 6f be
       -0.14714952 -0.05738422 -0.12564789 -0.23389518
000340 1f 6e 26 be 2c bc 72 bd f7 4b 11 be eb ca 94 be
       -0.16252945 -0.059261486 -0.14189135 -0.29061064
000350 fd be 80 be 4a bf 63 be a0 38 55 be a8 d5 96 be
       -0.25145712 -0.2224094 -0.20822382 -0.29459882
000360 33 3f 9a bd 53 5c b1 bd 9e b5 30 be f8 30 e7 bd
       -0.075315855 -0.086601876 -0.17256781 -0.11288637
000370 92 8d 10 be f8 b7 31 be 52 c9 f5 bd cb bb 29 be
       -0.14116505 -0.17355335 -0.120012894 -0.16575544
000380 03 68 50 bd e1 8c 13 be 13 c7 f0 bd e7 d5 9c be
       -0.050880443 -0.1440921 -0.117567204 -0.30631945
000390 38 34 1e be 25 05 d9 bd 2c e5 42 be 5b 3d 4f be
       -0.15449607 -0.10596684 -0.19032735 -0.20238249
0003a0 f7 58 97 be da c1 79 be eb 57 0b be 0b 5b 0e be
       -0.29560062 -0.24390355 -0.13607757 -0.13901918
0003b0 47 5f 98 be 19 d4 a5 be f5 0a 61 be c2 8e 7c be
       -0.2976019 -0.3238838 -0.21976836 -0.24663833
0003c0 9c a6 bd bb a6 76 57 be 5e 49 20 be 84 37 75 bd
       -0.0057876837 -0.21041355 -0.15652987 -0.059867397
0003d0 ef ae 46 be bf f2 9e be 24 cc b6 be 60 97 f3 bd
       -0.1940267 -0.31044576 -0.35702622 -0.11894107
0003e0 5b c7 ae be 3b 51 64 be 63 85 b7 bc c1 a7 2c be
       -0.3413647 -0.22296612 -0.022402471 -0.16860868
0003f0 6f 77 2b be 6c 4c 29 be a0 6d eb bd 04 33 af bd
       -0.16744779 -0.16533059 -0.11495519 -0.08554652
