attn_lstm_model.pth (torch, 170511 bytes, 11 tensors)

lstm.weight_ih_l0 f4 [256, 13]
00000000: 2bad 9abe 5b21 8abe 34b0 63bd 1315 57be
00000010: dcc1 613d 393b 3dbe 4e50 05be 8425 f3bd
00000020: 6231 c2be d427 a5be 7d81 47be 5376 10be
00000030: 587c 75bc da6a 91bc 3a8f 27be 79b8 a53b
00000040: a6a0 753d 3ad6 bfbd 5657 febd bde2 edbc
00000050: ab22 eebe 263a f2bc 9cae 883d 8996 0b3d
00000060: b0ac f4bd 6588 10bd c4ef 82be 74cd c9bd
00000070: 45f2 71be 104f b6bd 8d50 9fbe 8ba3 93be
00000080: 8d05 2ebd 1496 e5bd e8b2 34be e5fc 7fbd
00000090: d40e d3bd 00e0 89be 68e5 63be 3131 b7bc
000000a0: f0fb a7bc 22c6 71be 656a 17bd 2100 e13c
000000b0: c0c2 9e3c 4383 2f3d 7b4a 563d 0137 60be
000000c0: ddeb 48be da37 1fbe bf5a 95bd 6259 68be
000000d0: e0bf 5bbe 3707 8ebd ff29 1dbe 7496 67be
000000e0: 577e 4fbd 512b 62be 653b 68be 6b37 09be
000000f0: c253 1dbd 0625 0dbe 94f9 84be ca34 06be
00000100: 164c 61be 23c4 04be 902c 98be 3f24 06be
00000110: 23c5 f1bd 0fb7 4e3d 4dc8 7fbe 7ffa 9cbd
00000120: cc12 51be d7ad 56be 428a 61be 0dda 35be
00000130: e557 13be 692a 1dbd b91b 22be 414a 7cbe
00000140: 3dd2 3bbe f041 04be 324c c5be 5f64 55be
00000150: ee38 40be 1860 2e3e 7e23 2cbe 977a 71be
00000160: b665 e6bc de4a a3bd 3c64 bbbe 4fbd 70be
00000170: 688b 2abe 05f3 a3bd 9e11 b8bd e285 b4bd
00000180: 5528 1bbd 024d 49be f0e9 02be d90f 75be
00000190: f9e6 89be 5820 49be d27d d1bd f251 80be
000001a0: 6fd8 66be 6a76 85be bc55 c0bd 839e 51be
000001b0: 2a0e 0dbe bcb6 103e dc86 45bc 613d ea3d
000001c0: cdbd 8fbd b9b8 e1bd b5f6 35be f1e1 bebd
000001d0: f988 7d3d 409a 22be efe3 86bd 4670 c1bd
000001e0: 128a d1bd a752 20bc e27d 0abe 3960 30be
000001f0: e26a f03d 544c 26be fd48 4bbd 67c3 19be
00000200: 94fb 4d3c 2752 32bd 552e 7cbb 1a52 adbd
00000210: 566f 0c3d 4aba 1abd de7e aebe b58b 8ebe
00000220: 585c 94be 6c0a c1bc 270a fdba 9d0a 09bc
00000230: dd75 2ebd 6c6c 82bd ddb5 53be a932 7bbe
00000240: 17d9 60be 1633 14be 576f d6bd 3bc1 60be
00000250: 952b 47bd 275e a7bd 5961 a93c 9f42 bbbd
00000260: 5517 06be 311d eabd 4e48 59bd 3f2a a7bd
00000270: f717 67be 6ade 19be f72e e4bd 1b2e 01be
00000280: 77eb 02be 631d 51be 4815 4dbd ca79 78be
00000290: a916 59be e1d1 0abe a0da fdbd c198 30be
000002a0: 1bc2 28bd 6e90 3dbe 38a8 50be ea80 97be
000002b0: 087d 9dbe a495 8b3c 4fd7 14be a17b 92bc
000002c0: d3a3 dcbd a495 70be 0c0b b2be b91c 64be
000002d0: ab39 93be 9bfd 5fbe 227a 04bd 266b 0fbe
000002e0: ef13 89bd dd9c 7ebe f6be f6bd d6df 53bd
000002f0: b647 4cbd 37d5 5d3d f142 86be cef6 f6bd
00000300: e385 80be 736b 48be 1ea5 16be 492a 38be
00000310: ec57 84be d90f 42be 6f72 8fbe b4f5 5ebe
00000320: 74bb 90bd c2df 58be 9e6a 64bd 9aca e7bd
00000330: b303 73be bc4c 85be 4abf d5bd 2c7f eabd
00000340: 404c 4fbe f488 63be 2a00 2bbe 97c2 92be
00000350: 1068 48be 20fc dfbd 88aa 2fbd 4f15 85bd
00000360: 3c9f 86be c60d 5abe 071c 8bbe 007a 76be
00000370: f896 4ebe f864 cdbd 4562 22be 821b 58be
00000380: ecfa f1bd 357b 15be 7314 8fbd f96c 36be
00000390: 6948 41be 8cb4 9fbe e165 acbe 2dff 38be
000003a0: adfe 72be 098a 7cbe bc9d 7ebe 89a8 4fbe
000003b0: 22d8 f6bd 59a0 9dbe f696 d4bd 5dc6 adbd
000003c0: 13e5 07be 738a 0dbe 08e5 1dbe 7cef 85be
000003d0: 3eb2 8fbe 0953 68be ebe1 87be cc50 f9bd
000003e0: ebc6 83bd 81e6 8abd 6f8e 28be 6590 c9bd
000003f0: fba5 2fbe db0c 54be 7120 3ebd c430 49bd
-0.30210242 -0.26978573 -0.055587962 -0.21004133 0.05511652 -0.18479623 -0.13018915 -0.1187239
-0.379283 -0.3225695 -0.1948299 -0.14107637 -0.014983259 -0.017751146 -0.1636323 0.0050573912
0.05996766 -0.09367032 -0.12419002 -0.029038781 -0.46510825 -0.029568743 0.06673929 0.03407911
-0.11947 -0.035286326 -0.25573552 -0.0985364 -0.23627575 -0.08901799 -0.31116143 -0.2883571
-0.042485762 -0.11210266 -0.17646372 -0.06249704 -0.103055626 -0.2692871 -0.2225548 -0.022362323
-0.020505875 -0.23610738 -0.0369667 0.027465882 0.019379973 0.04284979 0.052317124 -0.21895982
-0.19621225 -0.1554865 -0.07292699 -0.22690347 -0.21459913 -0.0693497 -0.15348051 -0.22615987
-0.050657596 -0.22086836 -0.22678907 -0.13400047 -0.038409956 -0.13783655 -0.25971663 -0.13106075
-0.2200168 -0.12965445 -0.29721498 -0.13099764 -0.11805179 0.050467547 -0.24978752 -0.07664966
-0.20417327 -0.20964752 -0.22025397 -0.17758961 -0.14388998 -0.038370524 -0.15830888 -0.246377
-0.18341918 -0.12915778 -0.38534695 -0.2083907 -0.18771717 0.17028844 -0.16810414 -0.2358192
-0.028124671 -0.07973264 -0.3659991 -0.23509715 -0.16654742 -0.08005337 -0.08987735 -0.088145986
-0.03788026 -0.19658282 -0.12784553 -0.23931827 -0.2693403 -0.19641244 -0.102290764 -0.2506252
-0.225435 -0.26066905 -0.093913525 -0.20470624 -0.13774934 0.14132208 -0.012056079 0.11437488
-0.070186235 -0.11021561 -0.17769893 -0.09320439 0.061898205 -0.15879154 -0.06586444 -0.094452426
-0.10231413 -0.009785331 -0.13524583 -0.17224206 0.11739136 -0.16240054 -0.049630154 -0.15015946
0.012572188 -0.043535378 -0.0038479764 -0.08462925 0.034285866 -0.037775315 -0.34081167 -0.27840963
-0.28976703 -0.02356454 -0.0019305394 -0.008364347 -0.042592872 -0.06368336 -0.20674844 -0.24531044
-0.21957813 -0.14472613 -0.10470455 -0.21948712 -0.048625547 -0.08172255 0.020676302 -0.09143566
-0.13094838 -0.11431349 -0.05304747 -0.08162355 -0.22567736 -0.1502625 -0.1114177 -0.12615244
-0.12785135 -0.20421366 -0.050069124 -0.24265209 -0.2120005 -0.13556625 -0.12395215 -0.17245771
-0.04120074 -0.18512127 -0.2037667 -0.2959054 -0.30759454 0.017039128 -0.14535259 -0.017881216
-0.107734345 -0.23494583 -0.34774053 -0.22276582 -0.28754935 -0.21874087 -0.032343037 -0.14005718
-0.06693255 -0.24864526 -0.12048142 -0.05172714 -0.049873076 0.054158416 -0.26222947 -0.12058793
-0.25102147 -0.19572239 -0.14711425 -0.1798488 -0.2584833 -0.18951358 -0.28016993 -0.21773416
-0.07067004 -0.21179107 -0.05576574 -0.1131794 -0.2373188 -0.26035106 -0.10436876 -0.11450037
-0.20243931 -0.22220212 -0.16699281 -0.28664085 -0.19570947 -0.10936761 -0.04288724 -0.06498205
-0.2629336 -0.21294317 -0.2716982 -0.24069977 -0.20174778 -0.10029024 -0.158578 -0.21104243
-0.11815438 -0.14597781 -0.06986322 -0.17815007 -0.18875279 -0.31192434 -0.33671477 -0.18066092
-0.23729964 -0.24662031 -0.24864858 -0.20279135 -0.12052943 -0.30786398 -0.10380356 -0.084851004
-0.13270979 -0.13822345 -0.154194 -0.26159275 -0.28065675 -0.22687925 -0.2653955 -0.12173614
-0.06434425 -0.067822464 -0.16460584 -0.09841994 -0.1715316 -0.20708029 -0.046417657 -0.049118772

lstm.weight_hh_l0 f4 [256, 64]
00000000: 45ec c23d 0441 07bd 21fd 8fbc c2c4 23bd
00000010: 4f0d a8bd 9ee4 77bc cf63 9cbc 8b8d 0f3d
00000020: 9580 f33d f389 81bd 9bb9 2b3e 2157 8e3d
00000030: c86c 26bd 6255 92bc fd62 55bd db2d de3d
00000040: 5554 23bd 1138 103d 6bff 82bc 0de9 243e
00000050: fdc3 7dbc 3f89 0a3d 720d 4d3c 7b16 403e
00000060: 9cb5 80bc 2758 c7bd bb2a adbd 3c42 c5ba
00000070: e0c3 d63c 20e5 bfbc d7bf 2ebc c290 8a3d
00000080: dded 453d f2a0 b4bb 409d 763c cb29 4dbd
00000090: d0c9 573d b422 b9bd 5b3f 0b3d 2c0d 2dbd
000000a0: 96b9 68bc d6e9 4ebc 2a7a 21be c54f ffbd
000000b0: 51cc 32be de5d 563d 75b4 5d3e 2f68 d4bd
000000c0: 4120 b03d e48d cfbd 553b d73d 00cb 293d
000000d0: 1a86 1ebe 6690 38be 4b3a 0ebe 641f c3bb
000000e0: 3b12 c1bd e7a3 f83d 020e ee3d 66f7 9a3d
000000f0: 07d7 d23b 9292 993d e0d0 dc3d 596d e7bc
00000100: 2a7e 2ebe d1da 8e3c e200 a6bd abe5 ae3b
00000110: 8e9b 343d 7348 c0bc b266 adbc f396 513d
00000120: 5c88 41bc 973f b13d 6f6c fdbd 254a 583d
00000130: 352c 16bd 004c a8bc 19dc e1bd 0873 06be
00000140: f415 123d dece cebd 6026 23be 6c56 203e
00000150: 0513 9abd 91dd 49bd c1e1 c73d f4f2 3e3e
00000160: 2e66 b93d 4f92 663d bf4b 7a3a 5f6c 283d
00000170: dbe4 ecbd a23f c5bb 1830 563d b880 093e
00000180: 7e5f d1bc 8d02 17bd 351a e73d 4909 2e3d
00000190: 0c02 a33c dacb a9bd b96f 81bc 9704 843c
000001a0: 937a 10bc cd40 583d ea94 aabb 09e2 05bd
000001b0: b9e0 203e d19b 6c3d b002 623d ad4d ae3d
000001c0: e359 25bd 6bb3 88bd 32af 07bb 0152 fdbc
000001d0: 7fad 163e 4fe9 0d3e 8e95 8d3d 4dc2 d23c
000001e0: e824 8f3d e60a c63d 2038 db3d 99ff 0e3d
000001f0: 054e 28be b6a5 123d 6359 893d aafa 1b3d
00000200: ed3a 883d e1ea dd3d b3ab c5bd d506 3bbd
00000210: f91d 463d 1572 07be 99ad 873c be7b 91bd
00000220: c764 f23c 52cd 893d 6d28 c83c 3adf 03be
00000230: e22d 36bd 956e fd3c 0adf dabb 3ce4 5b3c
00000240: 8b47 013e b9ac e63b 51c1 323c 7813 33bd
00000250: d254 b23d f1be e23c 2ae1 2d3d 7642 0b3e
00000260: 477e ba3b ed10 65bd a692 dd3d 96c6 f8bd
00000270: d827 1bbe a3ec 003d 9b55 cbbd 43ee 3f3d
00000280: dcb1 a83b fd39 dd3d 54ac 05be 085a c33d
00000290: 0e68 173e d2f1 d13c 494e 8fbd 3ebe 883d
000002a0: 1987 d2bc 6296 2a3e 4495 0bbe 60fb c8bd
000002b0: 4a39 3d3d a08e d73c dfc9 de3d f8cd c23d
000002c0: e879 00be 0abf cf3d 96e1 303d 6e7a 093e
000002d0: a592 d33d a57a 57bd 41c5 07bc 7c46 9fbc
000002e0: 95e1 08be 1738 4abc e4b1 eb3d 31ec 013e
000002f0: 430e 6f3d 9fc7 e2bb 9249 a33c d834 45bd
00000300: 642a 60bc 8e11 2e3d 7bc4 12bd 5ef8 45bd
00000310: 3e0f 353e 506b 883d 73a4 0f3e 92e1 08be
00000320: f8e8 5ebd 9161 5c3d 24b0 be3d 0c77 7cbc
00000330: 633b d6bc 8ab9 88bd 94f3 a63d 5482 cdbc
00000340: ee31 34bd ff1b 2b3e 12f4 8c3d 0680 84bc
00000350: 5721 77bd 59fd 06bd e408 1a3c 3b65 ed3d
00000360: 7127 c6bd 99c8 0cbe c2c5 8bbd 1cf9 67bb
00000370: 0aac 89bd 3558 5cbc e064 afbc f6e6 41bd
00000380: dc9d 733c 43b1 3fbd f8eb 703d 2f0c 1fbd
00000390: 1464 ee3d 96dd 3cbe b685 1d3d 4227 97bc
000003a0: 8239 1ebc 1807 25bd bf97 73bb 9b2f 7b3d
000003b0: be29 b93c 4711 a13d 2435 553d aedd e7bd
000003c0: 5f05 47bd 86da 1e3d 6c11 8e3d 385c 613d
000003d0: 1151 42bd 4ac1 9c3c 9503 38bd 3f0d 3cbd
000003e0: ec4a 363c 9385 34bd 1314 99bd 0cbf 823c
000003f0: c2d7 d93d 5db7 efbd 2373 00bd c18b eb3c
0.09517721 -0.033020988 -0.017576756 -0.039982565 -0.082056634 -0.01513019 -0.019090561 0.035047095
0.118897595 -0.0632514 0.16770022 0.06950212 -0.040631086 -0.01786298 -0.052096356 0.1084859
-0.039875347 0.03520972 -0.015990933 0.16104527 -0.015488622 0.033822294 0.012515413 0.18758576
-0.015711598 -0.097336106 -0.08455416 -0.0015049647 0.026216447 -0.023424685 -0.010665855 0.067658916
0.048322547 -0.0055123502 0.01505214 -0.050088685 0.052682698 -0.09039822 0.033995967 -0.04224889
-0.014204403 -0.012628993 -0.15769258 -0.12466387 -0.17460753 0.052335612 0.2165087 -0.10371434
0.08599902 -0.10134485 0.105093636 0.04145336 -0.15480843 -0.18023834 -0.13889425 -0.00595467
-0.09427305 0.12140637 0.116237655 0.07566719 0.0064343247 0.07498659 0.10782027 -0.028250383
-0.17040315 0.017438324 -0.08105637 0.005337437 0.04409366 -0.023472046 -0.021167133 0.051169347
-0.011812296 0.08654707 -0.12374198 0.052805085 -0.036663253 -0.020544052 -0.110283084 -0.13129818
0.035665467 -0.100980505 -0.15932608 0.15657967 -0.07523159 -0.049283568 0.09759856 0.18647367
0.09052692 0.056291874 0.000954803 0.041118976 -0.11567088 -0.0060195485 0.05229196 0.13428009
-0.02555823 -0.036867667 0.112842955 0.042489324 0.019898437 -0.08290835 -0.015800344 0.01611547
-0.0088182865 0.052796174 -0.00520574 -0.032686267 0.15710725 0.057765786 0.055178344 0.08510909
-0.040368926 -0.06674846 -0.002070379 -0.030922892 0.14714621 0.13858531 0.06913291 0.025727415
0.06989461 0.096700475 0.10704064 0.034911726 -0.16436012 0.035802566 0.06706502 0.03808085
0.06651864 0.10835815 -0.0965189 -0.045660812 0.048368428 -0.13227113 0.01656227 -0.0710368
0.02958907 0.06728615 0.024433339 -0.12878123 -0.04447735 0.030936519 -0.0066794204 0.0134211145
0.12624948 0.007039633 0.010910348 -0.04371974 0.087075844 0.027678939 0.04245106 0.13599572
0.005691323 -0.055924345 0.108189866 -0.12147252 -0.15151918 0.031475674 -0.09928437 0.046858083
0.0051481556 0.10802076 -0.13054019 0.095386565 0.14785787 0.025628004 -0.069973536 0.06676911
-0.025699185 0.16658929 -0.13631159 -0.09813571 0.046197213 0.026313126 0.108783476 0.09511942
-0.12546504 0.1014386 0.043183886 0.1342561 0.103307046 -0.052607197 -0.008286775 -0.01944279
-0.13367303 -0.012342474 0.11508539 0.12687756 0.05836321 -0.0069207693 0.019932542 -0.0481461
-0.013681982 0.04249721 -0.03583191 -0.048332565 0.17681596 0.06661093 0.14027576 -0.13367298
-0.054421395 0.053803984 0.0931094 -0.015409242 -0.026151365 -0.06676014 0.081519276 -0.02508656
-0.04399293 0.16709898 0.0688249 -0.016174328 -0.06033453 -0.032956455 0.009401534 0.11591574
-0.096754916 -0.13748397 -0.06824829 -0.0035396283 -0.06722267 -0.013448765 -0.021410406 -0.047339402
0.01486918 -0.04679991 0.058818787 -0.03882998 0.11640182 -0.18443903 0.038457595 -0.018451337
-0.009657266 -0.04028997 -0.0037169305 0.061324697 0.022602912 0.078646235 0.052052632 -0.11321579
-0.048589107 0.03878262 0.06936917 0.055019587 -0.047440592 0.019135136 -0.04492529 -0.04591107
0.011126261 -0.0440727 -0.07474532 0.015960239 0.10636856 -0.11704896 -0.031359803 0.028753163

lstm.bias_ih_l0 f4 [256]
00000000: 465e 5abe c89a cbbd 7471 b8bd 888b 8abe
00000010: 33e5 97bd fa19 e4bd b249 68bd a338 9ebe
00000020: c858 b5bd 77cc 9ebd 9a6f 03be 05e0 81bd
00000030: cfc0 47be c6f7 93be cd87 82be 5f65 31bd
00000040: acaa 79be 78ea aebe a3a4 8dbe 708a 9abd
00000050: a3e6 40be de57 5fbe 08e4 a4be af37 e03b
00000060: ce8b 38be 6eee 09be ad7d b3bd 9beb 1abe
00000070: bbee 25be 4695 78be 7bc3 b0be c5dd 8fbe
00000080: 6c49 62bd 7aef 8dbe 0a9f 9dbe 091f 6ebe
00000090: ecd0 66be a8a4 8dbd cc43 64be cd90 a1be
000000a0: 1037 25be f8e9 e437 5b8d 6dbe 2b2a bcbd
000000b0: e92f e8bd 1d90 6ebe f0d1 4fbe 5323 5abe
000000c0: 0b15 37be 3388 91bd bc61 48be 1241 a3be
000000d0: 4e66 b3be 1aca 4dbe a957 89be 3dc8 57bd
000000e0: f6ab 88be edcb 6cbe c4d1 9dbe 412a 73be
000000f0: a157 2abe a106 a0be 6d5e 10be 0b52 90be
00000100: e5e8 7fbd 32d8 cfbd b019 32be 3173 8cbe
00000110: 6886 38be 14a0 3abd b800 57be bde3 3ebe
00000120: 0e0b 8dbd bf57 96bd a7ed 80be 79c6 cdbd
00000130: 3a43 0abd 8345 3abe 13c4 e5bd 31c8 17be
00000140: d773 1abe c914 50be abb5 45be fbd6 cfbd
00000150: 193a efbb 49c5 8ebe dc71 a5bd a34b 673c
00000160: 1fbd 09be f43b 8dbd de52 a3bd f3b4 a7be
00000170: d26f 19be 2169 60be b553 48be 9a0f 26be
00000180: ead4 41be fbb7 86be 1358 febd 417a a7bd
00000190: ce98 53be e987 4cbe 9ccf 8dbd 82f5 84be
000001a0: 3cf6 90bd 17f6 2ebe 5aec 12be 03da 69bd
000001b0: 0b91 a03d 7eef b4bc eaf5 25bd 541c 78be
000001c0: 1f6b 28be 1744 47be fac1 ffbd 3f90 5cbe
000001d0: 6cbf 38be d929 92bd 339a f9bd 7b8b 35bd
000001e0: 316f 3abe dc2b 5cbe 4f7f 81be 0fb6 26be
000001f0: 1c3e 98be 7969 65be 2044 abbd 35bb b3bd
00000200: 5d83 92bd 03af 0e3d bfd3 f43c 4552 6ebd
00000210: e0fe b4bd 269e 69bd 2a08 debb 5c66 8b3d
00000220: 01cb 5fbc ba21 64bd 4299 cb3c 9dde aabb
00000230: 3dc6 8bbd ab7e 203d 8902 ef3d 7c5d 473c
00000240: 62dd 3abd fcec b93d eec1 a53d e579 babc
00000250: fb28 203d 50a4 8d3d e86e 9f3d 8468 21bd
00000260: 2bd2 923c 3fbe 453d 18a9 1cbd 9496 043a
00000270: bbe3 333c b0ca 313b 9df7 383c b5cc 79bd
00000280: f019 21bd 4d87 a2bd f81b ccbc 1397 e9bd
00000290: c9b4 3abd 4639 8a3d 7a94 7dba 7bfc abbd
000002a0: 0a22 943d dcd6 52bd cbd7 323d ed5f 983d
000002b0: e447 3a3d 29fd 2abb 1f54 d93c 9050 cabd
000002c0: affd 633d c27e 803c 9efb 53bd f9f1 893c
000002d0: 5956 1cbc 8b53 14bb b077 313d 6e84 a23d
000002e0: 861b c3bd 98dc c1bd ad65 6ebd 10dc cd3c
000002f0: ee6a a23d 6cd6 52bd bac0 233d 79da 513d
00000300: 31fd 7dbe ba15 f0bc 7200 91bd 1774 51be
00000310: d08a 7cbe 7a1d c3bd 36f1 35be 605e a6be
00000320: 3e1d 45be c3ca dfbc cc31 32be 5856 38bd
00000330: 3310 70be 402a b6be a172 9dbe def9 42be
00000340: 2eb3 80be 14a8 32be ca28 92be f59a 3fbe
00000350: 5234 8cbe ae58 92be fee7 8fbe f1be f7bc
00000360: 8965 05be ce7e 7dbd 426b 2ebe f7aa 78be
00000370: e6da 10be 1601 11be 7505 04be a0bf 82be
00000380: c45e f3bd 41c7 88be 5c57 a0be dfac 08be
00000390: 1eda bcbd 154c 98be e209 8fbe 7b59 4abe
000003a0: 5900 6abe f336 f8bd 94ea c0bd 265c 86be
000003b0: 19b4 17be 0ef4 96bd fe3c 94bd 179a a1bd
000003c0: 91f9 73be 9b4c 2bbe d2bc 28be 9971 8ebe
000003d0: f98c 9fbe a7a4 99be 7c1f 50be bec1 82be
000003e0: 5f63 8bbe 1029 21bd 8a3d 88be 6622 83be
000003f0: 2ca5 9cbe 3224 8abe 2cbd 4abe 79c9 7abe
-0.21325025 -0.099416316 -0.090060145 -0.2705958 -0.07416763 -0.11137767 -0.056710906 -0.30902585
-0.08854824 -0.07753842 -0.12835541 -0.063415565 -0.19507144 -0.28899974 -0.25494233 -0.043309566
-0.24381512 -0.3416326 -0.2766467 -0.07545936 -0.18837981 -0.21810862 -0.32205224 0.0068425755
-0.18022081 -0.1346986 -0.08764205 -0.15128939 -0.1620435 -0.24275693 -0.3452414 -0.28098884
-0.0552458 -0.2772177 -0.307854 -0.23254026 -0.22540635 -0.06916171 -0.22291487 -0.31555787
-0.16134286 2.7288668e-05 -0.23198454 -0.091877304 -0.11337263 -0.23297162 -0.20294929 -0.21302538
-0.17879121 -0.07106056 -0.19568533 -0.31885582 -0.3503899 -0.20096627 -0.26824692 -0.052681196
-0.26693696 -0.23124667 -0.308241 -0.23746587 -0.1663499 -0.31255057 -0.1409852 -0.28187594
-0.062477965 -0.10148658 -0.17392612 -0.27431634 -0.18020022 -0.04556282 -0.20996368 -0.18641563
-0.06886874 -0.07340955 -0.25181314 -0.10047621 -0.03375552 -0.18190579 -0.11219039 -0.1482246
-0.15083252 -0.20320429 -0.19307582 -0.10148426 -0.007300627 -0.27884892 -0.080783576 0.014117154
-0.1345105 -0.06896201 -0.0797479 -0.3275524 -0.14984062 -0.21915103 -0.19563182 -0.16216889
-0.18928877 -0.2631224 -0.124191426 -0.08177615 -0.20663759 -0.1997372 -0.06924364 -0.25968558
-0.070782155 -0.17086063 -0.14347973 -0.057092678 0.07840165 -0.022086855 -0.040517725 -0.24229556
-0.16447113 -0.19459568 -0.1248817 -0.215394 -0.18041772 -0.07136888 -0.12187614 -0.044322472
-0.18206479 -0.21501106 -0.2529244 -0.16280387 -0.29734886 -0.22403516 -0.08362603 -0.08775941
-0.07153962 0.034834873 0.029886125 -0.058183927 -0.08837676 -0.057035588 -0.0067758756 0.06806633
-0.01365924 -0.055696227 0.024853352 -0.005214526 -0.0682492 0.0391833 0.116704054 0.0121682845
-0.045621283 0.09078404 0.0809363 -0.022763202 0.039101582 0.06916106 0.077848256 -0.039406314
0.017922482 0.048277136 -0.038247198 0.0005057838 0.010979588 0.0027128868 0.011289504 -0.06098624
-0.039331377 -0.07935963 -0.02491568 -0.11405768 -0.045582566 0.06749205 -0.0009673309 -0.08397766
0.07233055 -0.051474437 0.043662827 0.074401714 0.045478716 -0.0026090837 0.02652937 -0.09878647
0.055661853 0.015685443 -0.051753633 0.016839014 -0.009542071 -0.0022632803 0.043327034 0.07935415
-0.09526734 -0.09465903 -0.058202434 0.025129348 0.079305515 -0.05147402 0.03997872 0.051233742
-0.24803616 -0.029307235 -0.07080163 -0.20454441 -0.24662328 -0.095271066 -0.17767796 -0.32493877
-0.19249436 -0.027318364 -0.17401809 -0.04500422 -0.2344368 -0.3557911 -0.30751517 -0.1904063
-0.25136703 -0.17446929 -0.28546745 -0.18711455 -0.27383667 -0.28583282 -0.28106683 -0.030242415
-0.13027014 -0.06188851 -0.17033103 -0.24283968 -0.14146003 -0.1416057 -0.12892707 -0.25536823
-0.118833095 -0.2671452 -0.3131665 -0.13347195 -0.0922129 -0.29745546 -0.27937227 -0.19760697
-0.22851695 -0.12119856 -0.09419742 -0.2624218 -0.14814796 -0.073707685 -0.07238196 -0.078907184
-0.23825671 -0.16728441 -0.16478279 -0.27821043 -0.3116224 -0.30008432 -0.2032451 -0.2553844
-0.27224252 -0.0393458 -0.2660945 -0.2561218 -0.30594766 -0.2698074 -0.19798726 -0.24490918

lstm.bias_hh_l0 f4 [256]
00000000: 0ac6 37be 295c 5fbd 3b9d 6cbd 3641 a4be
00000010: 0f15 58be f849 bbbd 056d 24be 4151 34be
00000020: 7c91 14bd fe08 06be 4b33 74be af77 a5bd
00000030: 2480 b3bd a188 8abe 7dff 19be d0af 0bbe
00000040: 7726 98be a495 37be 2988 bdbe a90d 34be
00000050: 0d56 0ebe 82e6 88be b227 14be bca8 0ebe
00000060: 1c9a 36bd 6c93 78be 59f3 87be 30d5 6dbe
00000070: af5a 44bc f42b 65be 8667 13be 6506 7cbe
00000080: 96b1 afbd 2db1 4cbe c45c abbe 3fb0 63be
00000090: 8bad 0ebe eb6a 9abd 9735 afbe f4b7 22be
000000a0: 00ca b8be 6ab8 4fbd 2e19 73bd 2271 1bbd
000000b0: e08c 34be 7056 0bbe aecc ad3c 6976 d8bd
000000c0: f5b6 0cbe 0882 80be 7946 f9bd c79f 38be
000000d0: 989d 5ebe 1e17 b8be 60dc b7be dc0d 14be
000000e0: 2375 1bbe 771d 41be cd96 66be 7305 1fbe
000000f0: 2f29 88be 4493 bfbe f249 cbbd 8b9b e6bd
00000100: 00ae 23be 12ac 0cba bb50 80bd 9cb4 47be
00000110: 4e2c 18be 0296 3abe 98c0 c0bd 2dd1 68be
00000120: 73ac a3bd f19d 8e3c 5435 94bd 7909 59be
00000130: ca15 5ebe 7caf 9abe 3533 83be bcd7 40be
00000140: e271 09be b978 88bd d846 73be 79c5 0abd
00000150: 6d7c 3dbd da23 56be 9b55 42be bd02 acbd
00000160: 43d5 1abe fb95 00be 06cd 99bd 0bc1 48be
00000170: 9ce9 efbd 6be5 fcbd 33d0 32be 5641 35be
00000180: 5d31 bbbc 610f 55be 8778 a3bd 5dc2 02be
00000190: e23b 13be 5f58 75be 60c4 0cbe 85ea 07be
000001a0: b9e7 3fbe 7137 96bd 1c45 79be 4ec8 d5bd
000001b0: 5b40 e33c 6551 f0bd c18f 0fbe 45ec 2dbe
000001c0: 515b 08be 8d24 46be 9b5a 26be 2d46 1abe
000001d0: 3856 73be 33a9 96be 1aab 7ebe 16c1 0abe
000001e0: b9be 32be 08b5 2abe 43cb aabd 1c3c 65be
000001f0: 8bdb edbd 71e0 39be 10ad 9dbc 0579 88be
00000200: 777c a53d a792 43bd 94cf fe3c 19de 65bd
00000210: 4e20 913c 58ce a03d e702 25bc 2da7 423d
00000220: 0f85 de3d e494 223d ee49 063c 1a2d b0bc
00000230: a939 863d 9a8c 923c 06b1 01bd 9d49 8d3d
00000240: 28a1 87bd 3034 8abd 2ad0 8b3c a63d 54bd
00000250: 7f2d c5bb fa85 f5bc 3a81 5cbd 74df 6cbd
00000260: 5785 a4bc 5552 1c3d c2e8 393b 8ca3 75bd
00000270: a0d8 053d 10c4 77bb 2a76 b33d d951 033b
00000280: 5e27 953c 5808 66bd 4ab9 5f3d 8f7f b03d
00000290: 3bf1 5abd a0b8 873d d27c 5fbd 86bc 423d
000002a0: 9f4a 3dbd dbe7 b83d 4fa4 4dbd 7f2a adbd
000002b0: 12d1 60ba 8c34 543d 9739 d2bc be09 323d
000002c0: 1603 823c e7ff 8abd 04f2 123d 931e 4bbd
000002d0: 44c6 a3bd 06fa 8ebd b4d5 53bd b874 eebc
000002e0: 0f70 a2bc 5ea6 b23d c91c 1b3d 7044 99bd
000002f0: d22c eebd 1c6e d13d dc5a 2dbd 83a0 1cbd
00000300: 2f9d 6bbe a80f babd 6e98 1dbe 6e11 0dbe
00000310: 1a55 45be 24c5 1dbe 9ae8 53be d4e9 0ebe
00000320: 2d97 08be c59d 42be 3da4 15be 95f7 88be
00000330: b0ba 12be 3086 a6be b8b9 58be dcdb 62be
00000340: e349 84be 4bfe 08be ef29 31be 9233 ebbd
00000350: c495 03be 835c 93be 7064 41be b0ff ddbc
00000360: 9294 a2bd 2c1c d9bd bd96 cabd 7f88 acbe
00000370: 1be5 0dbe a938 85be d3d8 b3be 0962 93be
00000380: 260c 1abe 56e8 2cbe 9fb0 bbbd 1f52 46be
00000390: e425 56bd fbea 99be e129 8fbe 9749 15be
000003a0: 3be1 7ebe 6ea3 f93c bc8c 97bd ff3e 44be
000003b0: a96a 4fbe 21cb 81bd 7e6e 79bd 16dc e9bd
000003c0: c78c a9be ea20 87be 9b5e 11be db6a aebd
000003d0: a823 42be 67ec 31be 22ef 5cbe 052f 72be
000003e0: 689f 60be afba 30be 9924 50be 91a7 7ebe
000003f0: d388 23be a831 bdbe 4b7b 84be d3ac 3fbe
-0.1794664 -0.05453125 -0.057767134 -0.32081002 -0.21101783 -0.09144968 -0.16057213 -0.17609121
-0.036271557 -0.13089368 -0.23847692 -0.080794685 -0.08764675 -0.27057365 -0.15038867 -0.13641286
-0.29716846 -0.17928177 -0.37017944 -0.17583336 -0.13900013 -0.26738364 -0.14468268 -0.13931555
-0.044580564 -0.24274987 -0.26552847 -0.23225856 -0.011984511 -0.22380048 -0.1439496 -0.24611814
-0.08578794 -0.19989462 -0.33469212 -0.22235201 -0.13933389 -0.07539924 -0.34220573 -0.15890485
-0.36091614 -0.05071298 -0.059350185 -0.03794969 -0.17631865 -0.13607192 0.021215763 -0.1056946
-0.13741668 -0.25099206 -0.12171645 -0.180297 -0.21739805 -0.35955137 -0.3591032 -0.14458412
-0.15181403 -0.18858896 -0.22518463 -0.15529422 -0.2659392 -0.37417042 -0.09926213 -0.11260136
-0.15984344 -0.00053662166 -0.06265398 -0.19502491 -0.14860651 -0.18221286 -0.09411734 -0.22736044
-0.079918765 0.017409297 -0.07236734 -0.2119502 -0.21688 -0.3021201 -0.25625005 -0.18832296
-0.13422349 -0.06663651 -0.23757493 -0.03387973 -0.04626124 -0.20912114 -0.18977968 -0.0839896
-0.15120415 -0.12557213 -0.07509808 -0.1960489 -0.11714479 -0.123484455 -0.17462234 -0.17700705
-0.022850687 -0.20806648 -0.07981973 -0.12769456 -0.14378312 -0.23959492 -0.13746786 -0.13273056
-0.18740739 -0.07334793 -0.2434277 -0.10438596 0.027740648 -0.11734275 -0.14019682 -0.16984661
-0.13316084 -0.1934988 -0.162455 -0.15065832 -0.23763359 -0.29425964 -0.24869958 -0.13550219
-0.17455567 -0.1667062 -0.0833955 -0.22386211 -0.1161414 -0.18152024 -0.019247562 -0.2665483
0.080803804 -0.04774728 0.03110484 -0.056120012 0.0177156 0.07851857 -0.010071493 0.047522712
0.10865223 0.039692774 0.008196337 -0.021505881 0.065539666 0.01788931 -0.031662963 0.06898806
-0.06622535 -0.06748235 0.017067034 -0.051816605 -0.0060173864 -0.029971112 -0.053834178 -0.05783029
-0.020083113 0.038164455 0.0028367494 -0.059970424 0.032677293 -0.0037806071 0.087627724 0.0020037799
0.018207248 -0.0561603 0.054620065 0.0861808 -0.05345271 0.06627011 -0.054562397 0.04754307
-0.046213742 0.09028598 -0.050205525 -0.08455371 -0.0008576076 0.051807925 -0.025662227 0.043466322
0.015870612 -0.06787091 0.035875335 -0.049589705 -0.079968005 -0.06981282 -0.051717475 -0.02910839
-0.019828824 0.08723138 0.03786925 -0.074837565 -0.116296425 0.1022608 -0.04232298 -0.038239013
-0.2300918 -0.090850174 -0.15390179 -0.1377618 -0.19270745 -0.15407234 -0.20694199 -0.13956386
-0.13338919 -0.19005497 -0.14613433 -0.2675139 -0.14329028 -0.32524252 -0.21164596 -0.22154182
-0.2583762 -0.13378255 -0.17301153 -0.11484446 -0.128501 -0.28781518 -0.1888597 -0.02709946
-0.07938494 -0.106010765 -0.09892032 -0.33697888 -0.13856928 -0.2601979 -0.3512636 -0.28785732
-0.15043697 -0.16885504 -0.09164547 -0.19367264 -0.05228223 -0.30062088 -0.2796164 -0.14578854
-0.24890606 0.030473437 -0.0739989 -0.19164656 -0.20255531 -0.06337572 -0.06089639 -0.11418931
-0.33115217 -0.263923 -0.14196245 -0.08516475 -0.18958914 -0.17375337 -0.21575597 -0.23650749
-0.21935809 -0.17258714 -0.20326461 -0.24868609 -0.15970163 -0.36951947 -0.25875315 -0.18718271

lstm.weight_ih_l0_reverse f4 [256, 13]
00000000: d0a8 81be f7b9 28be c641 b8be 9a94 6ebe
00000010: e47f 77be 4273 27be 3c9f 1abe 3949 8abe
00000020: 0712 50be a2ae f9bd 8207 1fbe bf91 d4be
00000030: 0693 e63b f888 c93c 49e5 afbd f9ca c9bd
00000040: 32e7 89bd 7ed8 81bd ae97 2fbe 5be8 d3bd
00000050: 921b 523d 4905 9abc 6171 74be 0a06 f73c
00000060: 1124 2fbe 3aef 04bd a4cd ffbd b906 14be
00000070: 18fa dfbd b84a c8bd fa5b 4abd 9d05 9ebc
00000080: 3e5a 90bd 0a2f 93bd 98d8 4cbe 7d13 7bbe
00000090: 890a 86bc df69 36be c0ff 20be b9c7 093e
000000a0: 8a48 553b f01d 85bb 909f d23d f778 9e3e
000000b0: 7178 883e 9646 983e 1685 b2be bbc9 5bbe
000000c0: c91c 4cbe c8d7 c5bd dee7 693d ff9c b23d
000000d0: a3b3 19be 52c7 48be e803 8bbe ceb9 e4bd
000000e0: 2365 b4bd 51ad 9fbd af8a 81bd 425d f73c
000000f0: b9e2 7dbe f810 0bbe b40c d4bd 70d8 13be
00000100: efd1 11be be8d 0cbe 31e4 61be 2141 6bbe
00000110: 4128 35be 12fb 6abd b74a 27be d3ba 01be
00000120: 3433 9dbd 463b 71be eb74 77be 2778 2bbe
00000130: d493 6ebe 40df 8ebe a8f6 00be 5636 0abe
00000140: 1ae3 c8bd bc54 0fbd 3fe8 3abe 0693 ebbd
00000150: 67d5 b0bd 336e 3fbe 7255 44be 7f49 42be
00000160: 6563 d2bd 1baa 2ebe 42d0 38be 6c4b 87be
00000170: 54cf aebe 64d0 eabd 6b86 72be 82a5 263d
00000180: c555 dbbc 5ca1 62be 3e4b 51be 1974 adbd
00000190: 7ca0 8fbe 5823 31be 53a4 0abe 1b41 c2be
000001a0: 537b 76be 0a39 c6bd edef e7bd 9c11 ecbd
000001b0: 671a 9dbe 0265 d7bc 4dcb 0dbe b164 59be
000001c0: 537d c4bd a1a0 9ebe f057 a4be 12ac 5fbe
000001d0: 3e52 9dbe 7030 a2bd ff76 46bd d88e 1bbe
000001e0: 1c43 e7bc 9346 20be 2b34 b0bd 7f30 823a
000001f0: dcc4 50be 9667 0abe 443d 71be 0d63 2abe
00000200: feac 2ebe d277 86be 3a70 ddbd 7f1d c5bd
00000210: 2c45 ea3d 4808 9a3d a7c2 07be 29b0 ec3d
00000220: 8e50 d13d 389b 9fbe b513 8d3d 6cd4 0fbd
00000230: 1c15 84bd 48af aabc f828 2ebe be2a c8bd
00000240: e0c4 5fbd 1048 24be a9b7 8cbd 9f8a d4be
00000250: 23d0 343c 1d5e 10be 9c13 61bd 865f c53e
00000260: 5998 69bd 9397 3a3e d114 8abd 5fc0 d2be
00000270: 20ef 53be ebc6 ccbd b55f 62bd 7305 66bd
00000280: 2671 3d3d 6802 cdbd 2dd2 983b 86aa d53d
00000290: 4926 debe c676 a5be d913 4cbe b59c 98bd
000002a0: 2f65 10be 84e0 8abe 393a 4bbe 46e2 6abe
000002b0: 26b3 c8bd 9e6b f2bd a53d 85be 5163 abbd
000002c0: a5a3 7dbd 3b4c 2ebe 9a28 a0be 560f 8cbe
000002d0: 2309 b9bd 2a48 7dbe 791d 09be fd37 f8bd
000002e0: e486 fd3c 13aa b6bd bc3a eb3c fe32 8cbd
000002f0: 6e3b 31be 4148 243c 3714 68be f78f 4cbe
00000300: 0d13 bdbd eddc a1bd 20d4 2ebd ff8b 7ebe
00000310: e2f8 94be bbcd 23be d332 60be 5b61 c7be
00000320: 3eb1 0cbe 5473 97be 55e9 68be e112 43be
00000330: d505 4ebe 2f9c 26be 4efe a3bd 2bd5 0fbe
00000340: 07e3 6abe 9ab5 cfbd 955c 35be 7877 9dbd
00000350: 766e 2cbe d78d c33c 7c9e 42be 8971 293c
00000360: dfd5 8cbd 55a3 76be 3780 79be 8026 13be
00000370: c4d0 c1bd 0af3 48be 1183 88be a897 53be
00000380: f422 96be 67c3 34be 6246 6dbe 99f3 3fbe
00000390: 6623 66be c8e8 febd 9967 a9be b64b 5fbe
000003a0: 5afe 58be 2085 e9bd 7865 4abe 4c60 44be
000003b0: 93da 00be 78a1 7fbe 12eb e73e d701 e03d
000003c0: 8e5d 74ba e43f 12bf db8a e5be befd b6be
000003d0: 5968 aebe 7afe dcbd 28a7 ba3d 3166 edbd
000003e0: 19a8 16be dc4b 85be 6a65 e9bd 9012 51bd
000003f0: 32c3 d3bd 3f9b 28be 73c6 3abe 086f 7dbe
-0.25324106 -0.1647719 -0.3598768 -0.23298874 -0.2416988 -0.16352561 -0.15099806 -0.2700899
-0.20319377 -0.12191512 -0.15530208 -0.41517445 0.0070365695 0.024601445 -0.085886545 -0.09853167
-0.0673355 -0.06340121 -0.17147705 -0.10347053 0.051295824 -0.018801348 -0.23871376 0.030154247
-0.17103602 -0.032454707 -0.12490395 -0.1445569 -0.109363735 -0.097798765 -0.049404122 -0.019289786
-0.07048462 -0.07186706 -0.20004499 -0.24519153 -0.016362445 -0.17813824 -0.15722561 0.13455094
0.0032544457 -0.0040624067 0.102843404 0.30951664 0.2665439 0.29741353 -0.34867162 -0.21463673
-0.19932856 -0.09660298 0.05710589 0.08721351 -0.15009932 -0.19607285 -0.27151418 -0.11168252
-0.08808353 -0.07796729 -0.0632528 0.030195836 -0.24793519 -0.13580692 -0.103539854 -0.14438033
-0.1424024 -0.13725945 -0.22059704 -0.22974063 -0.17691137 -0.057368346 -0.16337095 -0.12668924
-0.07675782 -0.23557767 -0.24165694 -0.16745053 -0.2329858 -0.279047 -0.12594092 -0.1349729
-0.09808941 -0.03499292 -0.18252657 -0.11502652 -0.08634453 -0.18694381 -0.1917322 -0.18973349
-0.10272864 -0.17057078 -0.18048194 -0.2642473 -0.34142554 -0.114655286 -0.23684089 0.040685184
-0.026774297 -0.22131866 -0.20438859 -0.084694095 -0.28052127 -0.17298639 -0.13539247 -0.37940297
-0.24070482 -0.09678848 -0.11325059 -0.11526796 -0.30684206 -0.026293281 -0.13847084 -0.21229817
-0.09594216 -0.30981925 -0.3209834 -0.21842983 -0.30726808 -0.07919395 -0.048453327 -0.1519121
-0.028230242 -0.15651922 -0.086037 0.0009932666 -0.20387596 -0.13516077 -0.23558527 -0.16639347
-0.17058179 -0.2626329 -0.10812421 -0.096247666 0.11438975 0.07521111 -0.13257848 0.115570374
0.10220443 -0.3117311 0.068885244 -0.03511469 -0.06449339 -0.020835534 -0.17007816 -0.097737774
-0.054631114 -0.16043115 -0.06870968 -0.4151201 0.011035952 -0.14098401 -0.05495034 0.3854944
-0.057030056 0.18221883 -0.06742252 -0.41162392 -0.20696688 -0.09998878 -0.055267055 -0.05615754
0.046250485 -0.100102246 0.004663727 0.104329154 -0.43388584 -0.3231718 -0.19929446 -0.074517645
-0.14101098 -0.27124417 -0.19846429 -0.22937879 -0.09799795 -0.118369326 -0.26023594 -0.083685525
-0.06192364 -0.17021267 -0.31280977 -0.2735545 -0.09034946 -0.2473456 -0.13390149 -0.12120054
0.03094811 -0.08919158 0.02871453 -0.068456635 -0.17307827 0.010026992 -0.22663961 -0.19976793
-0.09232149 -0.079034664 -0.042682767 -0.24858092 -0.29096133 -0.15996449 -0.21894388 -0.38941464
-0.13739488 -0.29580176 -0.22745259 -0.1905017 -0.20119412 -0.16270517 -0.08007489 -0.14046161
-0.22938167 -0.101420596 -0.17711098 -0.076888025 -0.16839013 0.023871345 -0.1900577 0.01034201
-0.0687673 -0.24085744 -0.24365316 -0.14370155 -0.09463647 -0.19623962 -0.26662496 -0.20663321
-0.29323542 -0.17652665 -0.2317138 -0.18745269 -0.22474441 -0.12446743 -0.3308685 -0.21806225
-0.21190777 -0.11402345 -0.1976527 -0.1917736 -0.1258338 -0.24963939 0.45296532 0.10937851
-0.0009321802 -0.5712874 -0.448325 -0.35740465 -0.34063986 -0.10790725 0.09113914 -0.11591757
-0.14712562 -0.2603444 -0.11396296 -0.051043093 -0.10339965 -0.16465472 -0.18239765 -0.24749386

lstm.weight_hh_l0_reverse f4 [256, 64]
00000000: ae67 3f3e 377a 0e3d b73e 893d e341 093e
00000010: 2fdb 743b b2fd 1a3e ef73 923d 2cce a63d
00000020: 1bb3 b7bd 6cbc 313d b04d 893a aeab 163d
00000030: 1e29 07be 96d0 7cbd 8c26 cfbd d2de 8fbd
00000040: 4328 f83d 8553 63bd 17a5 c73c 5087 da3d
00000050: 4151 ccbc 8f14 afbd 730e 883d c54f 0c3e
00000060: 4139 233c 87fc 21be 4652 12be 5f2d 243e
00000070: d8bd 1a3d a95e 103e cfee 17bb 2a52 5dbd
00000080: 1aaa 913d 58d2 0cbe 25e4 11be 0aee 95bd
00000090: 7448 21be 9f74 343e 48d6 2ebc 39ce 94bd
000000a0: 6522 883e b75f 1e3c 0b56 d1bd 8105 6f3d
000000b0: 4afb 80bd 59b1 b7bd 1155 02be 3f01 df3d
000000c0: 6d09 773d ae05 7bbd 2376 81bd 863c 3dbd
000000d0: 06be 9ebb e50f 76be 98a9 8c3c 63ab a33b
000000e0: 0e59 e5bd 146a 883d 9508 c4bd 3281 25be
000000f0: 66d3 cbbc cd03 c23d 1805 1f3e 3023 fa3d
00000100: 87a5 653d 973d 603d 9d91 923d 0114 d83d
00000110: b8b2 b03d 9afa 0abd 223c 543d 2a65 15bd
00000120: 3781 b33d 5f74 82bd 1481 8a3d 1bf0 8abc
00000130: b66d bbbd 09c8 89bc 1ffc c3bd 46a3 a2bd
00000140: 5ec9 9f3d e1df b93d 1a21 0fbd 1c34 883d
00000150: 6b0d d33d 9252 3e3e ba9a 16be c8fe 043d
00000160: c9f6 273d 877a c7bc 8409 b33b a97d aabe
00000170: 75b5 b83d 7abe b5bd f09e cbbd 8b7b 71bd
00000180: ee00 a03c 72d5 e2bc d391 9fbd 81aa af3d
00000190: 6649 703d 6623 b23d 78fa 07bd 0972 5f3b
000001a0: 3fb9 993d cd71 6dbd 5170 abbd 19a0 acbd
000001b0: d7ce b43d 8ee0 89bd 5b4f cbbd d56e 4a3d
000001c0: 5472 293e 6d66 a83d 867e a33d 698f a8bd
000001d0: 0692 c7bd 76d3 2c3e c247 9fbd b60a c8bd
000001e0: 71d3 d0bd 8895 b0bc c10e b03d 22c1 1ebc
000001f0: 7594 63bd b18c a73c a25b be3d 4f55 083e
00000200: b32e e83c 214e b43d 501c 953c 38cd 553d
00000210: 51b4 163d b446 5abd ca8e e93b 15fc f5bd
00000220: 5cfe 423d 3315 db3d 27d7 84bc 659a 4c3d
00000230: 42aa 8abd f44f f93c b9e0 263c 1590 e2bd
00000240: 741b 0b3e 284e adbc 3775 5e3d 7041 003e
00000250: 970d 3d3c ffe6 1fbd 969c b5bb 1018 f93d
00000260: 1871 893d ae82 a2bc 678a 82bb 7554 3ebd
00000270: 5231 ba3b 037a 053d d777 d2bd 1d20 ffbd
00000280: 5359 de3d 9c2b 1cbe 18c2 a9bd 4bef 123e
00000290: 5334 e4bd 1baf b9bd 9a84 eb3b 0af1 acbc
000002a0: b34a 45bd c6f2 0ebd f203 85bd 07e3 14be
000002b0: 5dff 28bd db4d 04be 65d9 04bd 8da6 25bc
000002c0: ae55 883d dc5a 0dbe b907 fa3c 3b11 113d
000002d0: a43b f5bd dc5c 593c 8540 a6bd 4d38 a7bd
000002e0: 2598 79bc 6870 acbc d20e adbd bb34 95bc
000002f0: 4369 d3bb a5c7 79bc 0d23 79bd 81b5 8e3e
00000300: 44a6 50be 2ccc cabd 1200 0bbe 99fb de3d
00000310: d7c7 123e 40e3 7ebc baf3 eebc 2e76 043e
00000320: 5789 523c 2015 6e3e 0822 253e 3179 4e3e
00000330: d436 b53e 9c54 f9bd 7454 0ebe 8d62 27be
00000340: bfbd 853e d83f 643e 0b3e b03e eda2 8a3d
00000350: e3bc bb3e 6b30 d33e f1a1 afbe 515f 31be
00000360: d055 ccbc 9e64 aabd ac8d af3e 34ae c4bd
00000370: ef77 bf3d f20a 8abd 3624 ef3d af3c d1bb
00000380: 0037 173d f7d4 a9be c90a 5abd 27d4 573e
00000390: 367d a5bc 32cb f53d e615 6fbd 6260 af3e
000003a0: 685b dc3d 9b14 5cbd e7bf 373d 4658 48be
000003b0: da5d 163d cc70 3c3d 02aa 223d b8ab 69be
000003c0: e5a1 be3d 9beb fc3d 23a7 60bd 4d4d a8be
000003d0: b3f0 a6bc fd5d da3e e4a4 583e 70c8 a4be
000003e0: d217 693d 021e 47bc 8fbb 933c 55a5 703d
000003f0: 0c44 a03e 4433 e9bc b3ea 47be 56d4 d03d
0.18691894 0.034784522 0.06701415 0.1340404 0.003736209 0.1513584 0.07151019 0.08144793
-0.089697085 0.043392584 0.0010475423 0.03678482 -0.13199279 -0.06172236 -0.10114774 -0.070249215
0.12117054 -0.055499572 0.024370713 0.1067034 -0.024941089 -0.08548843 0.06643381 0.13702305
0.009962381 -0.15818988 -0.14289197 0.16032933 0.037778705 0.1409861 -0.0023183112 -0.054033436
0.071125224 -0.13752115 -0.14247186 -0.07320793 -0.15750295 0.17622612 -0.010671206 -0.07265896
0.2658874 0.009666375 -0.102214895 0.05835486 -0.062979296 -0.08969373 -0.12727763 0.108889095
0.060311724 -0.061284713 -0.06321361 -0.046200298 -0.00484443 -0.24029501 0.017170712 0.004994796
-0.111986265 0.06660858 -0.095719494 -0.16162565 -0.024881076 0.09473381 0.15529287 0.12213743
0.056066062 0.054746237 0.0715668 0.105506904 0.08627838 -0.0339304 0.05181516 -0.03647343
0.0876488 -0.06369852 0.06762901 -0.016960194 -0.09151785 -0.016819017 -0.09569573 -0.07941298
0.078020796 0.09075905 -0.034943677 0.06650564 0.10305294 0.18586186 -0.14707461 0.03246954
0.041006837 -0.024350418 0.005463781 -0.33298996 0.09018985 -0.08874221 -0.09942424 -0.05895571
0.019531693 -0.02768967 -0.07791486 0.08577443 0.05866375 0.08698158 -0.03319785 0.003409507
0.07506036 -0.057969857 -0.08371032 -0.08428974 0.08828514 -0.067322835 -0.09927245 0.049422104
0.16547519 0.08222661 0.07983117 -0.08230478 -0.09744649 0.16877541 -0.077773586 -0.09767668
-0.10196579 -0.021555677 0.08596564 -0.009689601 -0.0555615 0.02045283 0.09294821 0.13313793
0.02834258 0.088039644 0.018201977 0.052197665 0.036793057 -0.053290084 0.0071276175 -0.120109715
0.047605857 0.10697403 -0.016215874 0.04995193 -0.06770755 0.030433632 0.010185414 -0.11062638
0.13584691 -0.021155432 0.054311004 0.12524962 0.011538885 -0.039038654 -0.005542348 0.12162793
0.06711024 -0.019837704 -0.003983784 -0.046467263 0.005682149 0.032587063 -0.10276764 -0.12457297
0.10856881 -0.1525101 -0.082889736 0.14349096 -0.111427926 -0.09066602 0.007187438 -0.02111103
-0.04816694 -0.034899496 -0.06494893 -0.14539729 -0.04125916 -0.12920325 -0.032433886 -0.01011051
0.06656967 -0.13804191 0.03052126 0.035416823 -0.11974266 0.013266768 -0.08117775 -0.081650354
-0.015234028 -0.021049693 -0.084500924 -0.01821362 -0.006451757 -0.015245353 -0.060824443 0.27872851
-0.20375925 -0.09902224 -0.13574246 0.10887832 0.14334045 -0.01555711 -0.029168952 0.12935707
0.012850127 0.23250246 0.16126263 0.20163418 0.35393393 -0.12174341 -0.13899404 -0.16346188
0.26121327 0.2228998 0.34422335 0.06769357 0.36667547 0.41247877 -0.3430324 -0.17321517
-0.024943262 -0.083199725 0.34287775 -0.09603539 0.093490474 -0.06740369 0.116768286 -0.006385408
0.036917686 -0.33170292 -0.05323294 0.21077023 -0.020201307 0.12001647 -0.058370493 0.34253222
0.10759622 -0.05373059 0.044860747 -0.19564924 0.036710598 0.04600601 0.039712913 -0.22819412
0.09308223 0.12349626 -0.054846894 -0.32871476 -0.020378446 0.42649832 0.21156651 -0.32184172
0.056907482 -0.0121531505 0.01803377 0.058751423 0.31301916 -0.028466828 -0.19523124 0.1019675

lstm.bias_ih_l0_reverse f4 [256]
00000000: 2773 87be f073 8dbb 29e1 cabd cd0e acbc
00000010: 0fcf 17be 6754 9ebe 3668 27be cf82 bbbe
00000020: 3f73 70be 139a 38be b9f4 5abe 6419 81be
00000030: 73ec 6abe c48a d3be 3210 0ebe b47c 6cbd
00000040: 4eca 5bbe ddd5 88be 9eb2 fdbc f078 84be
00000050: 7a5e b4be 66ed 34be 289e 6dbe fc41 79be
00000060: 0a7a 30be d6df 98be f4e1 41be 98ea 62be
00000070: 008c 30be 6857 e6bd 4c4b 72bd 66fa 6dbe
00000080: fa4f 05be 690f 5abe c49a 24bd 9f19 45be
00000090: c3f1 aabe 8d04 6dbe 4c02 4fbe 0ddf c5be
000000a0: a2df eebd 7c53 5ebe 1384 eabd ff60 8bbe
000000b0: a9cd 6cbe 5858 07be 2eff 46be 6b6e 77be
000000c0: c365 20bd 2d78 82be 9fb0 95be ef27 18be
000000d0: b891 c9bd 6212 82be 2662 acbd 6f74 59be
000000e0: 279f d1bd 98fc 32be af58 aebd f3e3 88bd
000000f0: ed78 91be 3d2b 21be 08e4 8cbe 3a15 3bbe
00000100: 32c5 46bd 8e27 9dbd e174 64be 4fed 39be
00000110: ace6 89be d190 4dbe 66ad 73be fb40 9cbd
00000120: a45f a4be 8888 d7bd 3e50 e9bc 7e2b 38bd
00000130: 8610 21be 88d5 8ebe 80bc e8bd 90e4 b4bd
00000140: ac8c 92be 46b8 75be 55f3 8d3d 4089 1bbe
00000150: 41ea 32be 4034 83be 1a5c 29be 279a 2dbe
00000160: 5232 e2bd acc4 48be 9aea 2cbe bfb8 28be
00000170: e0b9 bfbd c1f9 0dbe 353c 5b3e f632 62bd
00000180: 8da3 56be 4057 c1bd c99f 4abd 3cd9 98bb
00000190: 997f 7ebe 6454 2fbd 1990 e5bd bcb2 dcbd
000001a0: 3d42 25be a0aa 16be 43c9 37be 5348 5bbd
000001b0: ee36 88be bbb5 b6bb 200b 3c3c 2831 b6bd
000001c0: a4f2 5cbe dc37 2abc 58a1 41be 5ec9 86bc
000001d0: cbf2 54be 61fd 29be 1dc5 e0bd 1254 8dbe
000001e0: a578 1dbe e4e2 0abe 0eb2 d53c a212 ebbd
000001f0: 97d8 dfbd b649 d5bd 1721 4abd deb5 47bd
00000200: 1f1b 13bd dcd7 0f3d 5136 aa3d 7fce 7abd
00000210: 6bfe fdbb 228a 1f3d 721e 2c3c b87e 4dbc
00000220: 1042 c73a 7d26 e2bd 9d19 31bd 3e1c 973c
00000230: e9f7 b93c 50c3 083d f8f3 13bd 3d39 6b3d
00000240: f6cf a3bd a679 453c 4b1f 163b dec5 833d
00000250: b63d c0bc c9e1 fb3d 2727 183d 3da0 a53d
00000260: 0f59 91bd d36b e7bd 0b63 bd3d 6d57 b83d
00000270: 7f9d 463d b2ae b33d e1dc e63c 73d4 803c
00000280: 3d41 03bc 1757 97bc 7677 333d 8473 d83d
00000290: 9784 69bd 7ede 283d 42ba 16bc 07c3 04bd
000002a0: 3677 b93d 6a64 81bd f9c4 b73d 7f46 9d3c
000002b0: a38d a23c bfeb 2b3d 7e0b a63c 9f09 89ba
000002c0: 4a8b 393d e208 14bc 472b 773d 0c4d 36bd
000002d0: 906f 62bb 8834 9a3d c25a f6bb 2ffd 4fbd
000002e0: 024f 75b9 8533 abbc 41bb 933c 9746 b73b
000002f0: 2e63 37bd ec26 fa3d 1623 86bc 1ab6 a4bc
00000300: e578 14be 4700 47bd a065 9bbd 26cb 63bd
00000310: 1b68 30be e7b4 71be f57f f8bd 3182 c1be
00000320: 0fef 83be bccd 49be bba2 03be aa9d 03be
00000330: 70ce b2be 0978 81be f0e1 4dbe badc 84be
00000340: 7fa5 77be 9b81 29be f877 4fbd 5a1b 80be
00000350: 96e1 b1be bfcc 4dbe d93c 06be 23ae 65be
00000360: 59e0 babd 1719 3ebe 6c22 14be 5fb6 6ebe
00000370: 3b34 cdbb 633e acbd 0156 15be 4dc7 dfbd
00000380: 4281 52be 2d3f 1abe e153 debc dd94 56be
00000390: 0962 55be 3207 32be 6abf 94be f8e3 d2be
000003a0: 773d d0bc 010e 1cbe f5ba 62be 0fcf 1abe
000003b0: aab7 12be ee9e 07be d6dd 05be 4c14 44be
000003c0: 04ab 38bd 7d3e 97bd 7872 80be d9c1 22be
000003d0: 6808 3cbe 3b51 07bd 5d6c a7bd bc78 6abe
000003e0: 0b27 55be 2d7f 32be 8c46 48be 36f6 0bbe
000003f0: 340c 57be cc3a bebd 6710 9fbe 9ad0 42be
-0.26455042 -0.0043167993 -0.09906227 -0.021003151 -0.1482508 -0.3092377 -0.16348347 -0.36623237
-0.23481463 -0.18027525 -0.21382417 -0.25214684 -0.2294176 -0.41316807 -0.13873366 -0.057736114
-0.21463892 -0.26725665 -0.03096896 -0.25873518 -0.3522833 -0.17668685 -0.23204863 -0.24341577
-0.17234054 -0.29858273 -0.1893385 -0.22159803 -0.17240906 -0.1124714 -0.05915384 -0.2324005
-0.1301879 -0.21294941 -0.04018666 -0.19248055 -0.33387575 -0.23146267 -0.2021572 -0.38646737
-0.11663748 -0.21711534 -0.114509724 -0.2722244 -0.23125328 -0.13217294 -0.19433281 -0.24163215
-0.039159548 -0.25482312 -0.29236314 -0.14858983 -0.09842247 -0.2540465 -0.08417158 -0.21235822
-0.10235434 -0.1747917 -0.08513009 -0.06684103 -0.28412572 -0.1573915 -0.27517724 -0.18269816
-0.048527904 -0.0767356 -0.22310211 -0.18156932 -0.269338 -0.20074774 -0.23796615 -0.076295815
-0.32104218 -0.10524088 -0.028480645 -0.044963352 -0.1572896 -0.27897286 -0.113640785 -0.08832657
-0.2862295 -0.23996076 0.069311775 -0.15189075 -0.17472173 -0.256258 -0.1653904 -0.16953336
-0.11044754 -0.19606274 -0.16886368 -0.16476725 -0.09361625 -0.13864805 0.21409686 -0.05522438
-0.20960827 -0.0944047 -0.04946879 -0.004664568 -0.24853362 -0.04280509 -0.11209125 -0.107762784
-0.16138549 -0.14713526 -0.17947869 -0.05353577 -0.26604408 -0.005575863 0.011477262 -0.088960946
-0.21576935 -0.0103892945 -0.18909204 -0.016453441 -0.20795743 -0.16600563 -0.109750964 -0.27603203
-0.15378053 -0.13563114 0.02608588 -0.11478163 -0.10929983 -0.1041445 -0.049347963 -0.048757426
-0.035914537 0.03511797 0.08311141 -0.061232086 -0.0077512763 0.038950093 0.010505306 -0.012542419
0.0015202183 -0.11042497 -0.043237317 0.018446084 0.02270122 0.03338939 -0.03612134 0.057427634
-0.0799865 0.012052929 0.0022906836 0.064342245 -0.023466926 0.122989245 0.037146714 0.08087204
-0.07097065 -0.11299863 0.092474066 0.0900105 0.048490044 0.08773555 0.028181495 0.015726304
-0.0080111595 -0.018474145 0.0438151 0.10568908 -0.057011213 0.04122781 -0.009199681 -0.032412555
0.09055941 -0.063179806 0.089731164 0.019198654 0.019842928 0.041972872 0.020269152 -0.0010455138
0.045298852 -0.009035321 0.060344007 -0.04450707 -0.003455136 0.07529551 -0.0075181434 -0.050778564
-0.00023394453 -0.02089859 0.018033626 0.0055931318 -0.04477232 0.12214455 -0.016374152 -0.020106364
-0.14499243 -0.04858425 -0.07587743 -0.05561366 -0.17227213 -0.23604165 -0.12133781 -0.3779464
-0.25768325 -0.19707388 -0.12855045 -0.12853113 -0.34923124 -0.25286892 -0.2010572 -0.2594965
-0.24184225 -0.16553347 -0.05065152 -0.25020868 -0.3474242 -0.20097636 -0.13109149 -0.22429709
-0.09124822 -0.18564259 -0.14466256 -0.23311757 -0.00626233 -0.08410337 -0.14583589 -0.109266855
-0.2055712 -0.15063162 -0.027139606 -0.20955224 -0.20838179 -0.17385557 -0.29052287 -0.4118955
-0.025419934 -0.15239717 -0.22141631 -0.15118049 -0.14327875 -0.1324422 -0.13072905 -0.19148368
-0.04508497 -0.073849656 -0.25087333 -0.1589426 -0.18362582 -0.03303645 -0.081749655 -0.22897619
-0.20815675 -0.17431326 -0.19558161 -0.13668141 -0.21000749 -0.09288558 -0.31067201 -0.19024888
