CNN_params.pth (torch, 18107 bytes, 4 tensors)

conv1.weight f4 [32, 20, 5]
00000000: 123d dfbd 5309 f93c de56 a4bd ef56 13bd
00000010: 2b14 bc3a ca42 9f3c b83d a4bd 6543 febd
00000020: 7f9b babd aec5 e1bd f023 dbbd 8bd1 6a3c
00000030: 53fb 1c3c 5dbe ca3c bac7 4dbd 3877 483d
00000040: 8069 883d 54ea 973c 1631 b4bd 2b63 96bd
00000050: 0b4b c3bd db89 043d 4f46 adbc dd53 813d
00000060: 3f2a 38bd 5f42 6e3d 9dd0 863c 7b6e 0dbd
00000070: f41b acbd 24bf d13b f959 d5bc 06da aabd
00000080: c17e cf3c 1a3f 45bd 2f9e 05be 8375 b2bd
00000090: 17ea 6a3d 6e66 013c 879a cebd 3784 313d
000000a0: 253c e4bc 8061 00be 3056 4ebb b0dc 83bd
000000b0: aa7d 90bd 3b01 d8bc 4c5d fcbd 0f31 f8bc
000000c0: ab77 403d 8a8f 7cbc 8ec9 2fbd 97d4 403c
000000d0: 5d26 2ebd c72c 87bd fa9a 2bbc 25a0 acbc
000000e0: a102 863b cf11 76bd 677e 413d 0c9d 033d
000000f0: 64c0 91bd fb1b 8839 906c 9fbc 8a6d 4e3d
00000100: 7b43 463d 343e a83c f4c5 b43c 808c 21bc
00000110: 9fe6 86bd 16bf babd 514c 6c3d e4e8 1c3c
00000120: 5f68 e0bd 651f a5ba 94d4 84bd 6283 fabd
00000130: 3377 813d f456 b2bc 5da8 973b 1c3a 11bd
00000140: 4f32 eebd ae82 703d 152b 8bbd 2d8c 06be
00000150: 23dc 633d b5f3 96bd aeff b0bd e071 4c3d
00000160: 5188 a73c b654 cfbd dd9d 31bd 2885 b4bd
00000170: e8fb 3a3d ed10 fcbd 4367 cabd ac92 91bd
00000180: a2d0 c3bd 8cd1 4d3d a0ed b9bd 52fb 62bd
00000190: bed7 1ebc 4dbb 39bd be36 d1bc 9f92 3ebd
000001a0: be39 fcbd 2495 593d 112f 8cbd 8ff6 97bb
000001b0: 8170 113d e03d fb3a 77f7 e5bd 7f08 04bd
000001c0: c235 49bc 5e6b 893c c7c0 233d 59d9 553d
000001d0: 787d 07bd 575e 703d c7bc 54bd b1ca a3bd
000001e0: 62f7 86bd e32c 853d 0507 b13c 09a2 743b
000001f0: 5758 9cbd eb9a aabd d0ac ecbc 4634 85bc
00000200: 7d56 f0bd ed63 4d3d 785f 9abd 9d45 7ebd
00000210: 8950 bdbd 5982 9ebc d219 9cbd 0138 7a3d
00000220: b786 853d 4c02 3abc 5f57 8abd 5a20 703d
00000230: f33f 253d b6bd 873d 4bef dbbd 1bc5 0cbd
00000240: 64e1 26bd b16a 59bd ff3e 22bd 11d6 98bc
00000250: 1b59 8d3d a530 ccbd 9a02 e9bd 3394 02bd
00000260: e70d b3bd ca7f 1bbd d459 d1bd 9ff4 febd
00000270: 3677 89bc a0a0 75bd 9f6c 8c3a 3d25 bf3c
00000280: d659 adbd dfa4 ac3c 781d 63ba eaa9 67bd
00000290: 07be c1bd d3d2 90bd fc36 8c3d a923 b4bd
000002a0: 4960 d5bd 0fd4 c3bd f514 573d 814c cf3b
000002b0: 1149 babd 78ec 8e3d b9b2 dbbd 0a61 02be
000002c0: 69e6 cebd 2ff6 d73c 46ee 89bd 4feb 8fbd
000002d0: 8f23 7bbd a13d b7bd c9c8 863d 23b5 febc
000002e0: eb2f 6cbd 0a79 823d a795 fbbd 8dba 8dbd
000002f0: c7d6 893d 8765 d5bd c678 fc3b 0b41 c7bd
00000300: 2c76 e5bd 32b9 89bd afeb d7bd 9390 74bd
00000310: 396a abbd 66ab 95bd ee45 74bd 0f66 96bd
00000320: 5500 ac3c 12c7 4f3d 412b 0c3d 73f3 0bbd
00000330: e999 2dbe 18f6 263e 985d d6bc 994b d13d
00000340: 8c3d 11bc f0e7 e4bd c900 91bc 82d2 883d
00000350: 19fc 89bd 5150 093d 3371 573c 2b87 c0bc
00000360: 058d 0b3e 226f 023d 796f c8bb fc6c 1bbc
00000370: e4c2 2b3d 1121 95bd 607b 5bbd 6add bfbc
00000380: 1407 53bd ad90 9b3c e222 dfbd 69b0 d9bd
00000390: 5285 87be 3979 dfbc d017 2a3d 12a1 ffbc
000003a0: 8429 863d 4c75 32bd e77e 7d3b 0ed0 01be
000003b0: 2306 b2bd 4c0d 70be db96 93be 3989 8dbc
000003c0: 0c4f f0bb a857 b73d 12bc d73d df45 31bd
000003d0: 746f e0bd f2b2 2d3d 4e64 843d 18c4 7e3d
000003e0: 44af 993d d11f 80bd e1a1 103e e7b1 66bd
000003f0: e1de a2bd 77a8 823d 0dfd 6a3d 059c d83d
-0.1090032 0.030399954 -0.08024381 -0.03597158 0.0014349272 0.019441027 -0.080195844 -0.12415198
-0.0911169 -0.110240325 -0.10700214 0.0143321855 0.009581405 0.024748975 -0.050239302 0.04894182
0.066607475 0.018544354 -0.08798425 -0.073431335 -0.09535798 0.03235803 -0.02115169 0.06314824
-0.044962164 0.058168765 0.016456896 -0.03452919 -0.08403769 0.0064009596 -0.026043879 -0.08342366
0.025328996 -0.04815588 -0.13048624 -0.0871382 0.05735215 0.007897956 -0.100880675 0.04333898
-0.02786071 -0.12537193 -0.0031484477 -0.06438577 -0.070552185 -0.026367774 -0.123224825 -0.03029683
0.046989124 -0.015415082 -0.042916827 0.011769435 -0.042517055 -0.066003375 -0.010473961 -0.021072457
0.004089669 -0.060075577 0.047239687 0.032132193 -0.07116774 0.00025960788 -0.019460946 0.050397433
0.0484042 0.020537473 0.022067048 -0.009860158 -0.06586956 -0.09118478 0.05768997 0.00957701
-0.10957407 -0.0012597857 -0.064858586 -0.122320905 0.063215636 -0.021769978 0.0046282248 -0.035455808
-0.11630689 0.058718376 -0.067953266 -0.1313941 0.05562986 -0.07370702 -0.08642517 0.049913287
0.020450743 -0.10123579 -0.04336344 -0.0881446 0.045650393 -0.12307916 -0.09882977 -0.071080536
-0.09561278 0.050248668 -0.090785265 -0.05541546 -0.009694992 -0.04534464 -0.025538798 -0.046526548
-0.12315701 0.053120747 -0.06844915 -0.0046375464 0.035507683 0.001916822 -0.11228841 -0.032234665
-0.012280883 0.01677483 0.03997877 0.052209232 -0.03307864 0.05868372 -0.051937845 -0.07997645
-0.06590153 0.06502702 0.021609792 0.0037328026 -0.07634037 -0.083303295 -0.028890997 -0.016260277
-0.11735246 0.050144125 -0.075377405 -0.062078107 -0.092438765 -0.019349264 -0.07622112 0.061088566
0.065198354 -0.011353087 -0.06754946 0.058624603 0.04034419 0.06627981 -0.10739001 -0.034367662
-0.040742293 -0.053080264 -0.03961086 -0.018656762 0.06901761 -0.09970216 -0.11377449 -0.031879615
-0.08742886 -0.037963666 -0.102222115 -0.124490015 -0.016780477 -0.059967637 0.0010713524 0.023333186
-0.084644005 0.02107471 -0.0008663754 -0.056558527 -0.09460073 -0.070714615 0.06846425 -0.08795864
-0.104187556 -0.09561931 0.05251022 0.0063262586 -0.090959676 0.069786966 -0.10727448 -0.1273233
-0.10102541 0.026362507 -0.067349 -0.070273034 -0.06131321 -0.08947302 0.065812655 -0.031092232
-0.057662886 0.063707426 -0.12284403 -0.06920347 0.06730419 -0.104197554 0.007704827 -0.09729203
-0.1120418 -0.06724776 -0.10543 -0.05970819 -0.0836987 -0.07308082 -0.059637003 -0.07343685
0.020996252 0.050726958 0.034220938 -0.03416772 -0.16953243 0.16304815 -0.026167676 0.10219497
-0.008864772 -0.11177051 -0.01770057 0.06680776 -0.06737537 0.03352386 0.013149547 -0.023501953
0.13628013 0.031844266 -0.006116804 -0.009486433 0.04193391 -0.072816975 -0.053584456 -0.023421008
-0.051520422 0.018989885 -0.10895325 -0.10629351 -0.26468903 -0.027279483 0.041526616 -0.031204734
0.06550887 -0.043568894 0.0038680376 -0.12677023 -0.08692577 -0.23442572 -0.2882603 -0.017277347
-0.007333642 0.08952266 0.105339184 -0.043279525 -0.10958758 0.042406984 0.06464444 0.06219873
0.075041324 -0.062560685 0.14124252 -0.056322005 -0.07952667 0.06379788 0.057370234 0.10576633

conv1.bias f4 [32]
00000000: aaaa fdbd 3e5a c6bd fb88 a93c c0e2 573b
00000010: 5607 05be e62e b53d 14e4 863d ed4f b0bd
00000020: c3d8 04be a1cc fe3b 10f0 9bbd 1d73 8ebd
00000030: 2d3d 7c3c 5d23 863d 6302 b0bd 4abe 303d
00000040: 6487 97bd ec27 21bd 0097 94bd b201 5bba
00000050: 57b8 623d 305f e7bd 7d06 ad3c 5967 94bc
00000060: 5e0e 2d3d 3fc6 fabd a43a 763c cb4c dcbc
00000070: ca22 dd3c 5fe5 5dbd 81fc 0a3e 5957 abbd
-0.12386067 -0.09685181 0.0206952 0.003294155 -0.1299108 0.08846836 0.06586471 -0.08608995
-0.12973313 0.0077758585 -0.07614148 -0.0695555 0.015395445 0.06549714 -0.08594205 0.043150224
-0.073988706 -0.039344713 -0.072553635 -0.00083544396 0.05535158 -0.112974524 0.021121258 -0.018115686
0.04225003 -0.12244844 0.015028629 -0.026892086 0.026994128 -0.054173823 0.13572885 -0.083662696

fc.weight f4 [5, 64]
00000000: ccad ce3d 2e57 4d3d cc96 2b3d 36ff b8bd
00000010: 8851 d8b9 a579 83bd 04a8 e4bd 484f 973c
00000020: ff95 a1bc 1b26 ba3c c0f1 a93d c373 0d3e
00000030: ad79 c13c 136c be3d f26e 803d 02ac 123e
00000040: 6de4 703d 7370 063e 0281 4a3d 462b 2d3d
00000050: a7f9 c43d 84d0 b83d 2276 c23d 0b86 21bb
00000060: df69 c73d 2342 193e c8ec a53c 959f 673d
00000070: 39a0 0c3c ee1d d63d b015 1cbd c486 2e3d
00000080: 948f 6bbd 444c c2bc f9c3 493c 784b f63d
00000090: dd33 f3bb 1afa 8fbd dc4e c83d 0bef 883d
000000a0: ba27 1f3e fb8a d13d 7767 adbd 7c63 66bd
000000b0: d877 1c3d 850b 013d e2bc 0e3d 1caa 873d
000000c0: b687 883c 2468 dd3d 6dbc acbc 8f55 e63b
000000d0: 5df5 9139 fa13 5fbd 0eff b3bd a192 b13d
000000e0: 49c8 1a3e 5faa de3d b9cc b03d d35d 9abd
000000f0: f9cd a73b 144b cb3c 7dc5 8d3d c365 123d
00000100: 2553 763d d45a 23bd f568 00bc 2465 043c
00000110: 2b75 463d 216f ddbd 4c38 07bd 4e8a d3bd
00000120: 3810 d43d 2f17 c53d b384 b93c efec cfbc
00000130: 7c94 0b3b a294 12bd f95a a23d 8726 f6bc
00000140: 1cf3 b9bc 2f92 0c3d e3dd 7cbd 295c 913d
00000150: 2569 3e3d 8d3e 3abd b5f9 10bd d91b b7bd
00000160: 38f3 8a3d be40 cb3c 642b adbd f528 843d
00000170: 5f21 913c 71da 233d 341d c9bd 8095 a03b
00000180: 80dc 603c 3702 033d d669 8d3d 0dba d03d
00000190: bd40 4c3d 9544 acbd ba66 d53d 31af 2bbd
000001a0: 8765 4ebd a362 90bd d502 c83d 78eb f53d
000001b0: 26a7 4e3d a4d3 ec3d fcd7 06be ad52 db3d
000001c0: a86e 5abd ce8a 92bd 5290 9a3d dade 8abd
000001d0: 1346 c2bc 7cff 89bd 047a 313c 9f2e fe3c
000001e0: 4682 70bd e479 8cbc 8d9f 7cbc 387a 883d
000001f0: 5a03 b03c f500 f7bb cb14 acbd 1c37 843d
00000200: 6197 e6bc 518d 2f3b aa5b c4bd 25f0 62bd
00000210: e456 433e 1fa9 09be e80c 1cbd 7087 fb3c
00000220: 2f4b 82bd 8f1e 203c 2935 553d f6c0 bf3d
00000230: 49c8 6ebd 97d2 9d3d cbb5 0ebd 61a0 0cbc
00000240: 85ee de3d 3b38 823c 227e 143d 0a81 033e
00000250: beb1 90bd dee4 9abd 84df a1bc bd10 eb3d
00000260: 19be e9bc af62 bbbc bdb6 8c3b 6d53 973d
00000270: c886 af3d 0e5b 903d 5097 f33c 3289 bbbd
00000280: 101f 553d bcca 793b bd8b dc3c 6487 ccbc
00000290: 5434 81bc 15d8 dfbc a448 dabc 913e 03bd
000002a0: d014 c73d 7f61 133e d463 0fbc bb62 963c
000002b0: 6969 3abd 485b a83d 7996 ab3d dedd 793d
000002c0: c758 a63c 2b08 a8bd aed3 bd3d 0e25 d53d
000002d0: 713b 17bd f36c a6bc 5515 303d 1536 32bd
000002e0: ba7f d13c 647e 3c3b 352b 083b 9f37 07bd
000002f0: d188 a8b9 b934 94bd 9760 453d d5a2 093d
00000300: 0f59 013e 7c41 94bd ced4 cabd 6708 0d3d
00000310: c528 883e fdf3 29be 8af8 b33d b865 cd3d
00000320: 8c20 0a3d 4670 8a3d e6d2 2ebd 5e63 c23d
00000330: 8b65 14bd ad81 cc3c 9bc1 643c 7894 a6bd
00000340: 9f7c 7b3d fdf1 403d 9848 cd3d 2c76 c93d
00000350: b7fa c23d ef13 fbbd 2b40 d73d f9de 75bb
00000360: 5d39 07bd d05f 613d 1928 30bd 5cc5 9a3d
00000370: 0950 303d 5baf cf3d e0d9 0a3c 76eb c43d
00000380: 46f0 8b3d ba91 963d 5684 d8bc 3ee2 8dbd
00000390: 4a3d d33d a0cf 04be 06ff afbd 6857 f53d
000003a0: abfc c53d 8584 fb3d ca1e 2b3d 055f a83d
000003b0: 5375 46bd 1929 d53d 615c d0bd 5655 0a3e
000003c0: 61ef 3a3d 320d 43bd 123a 313d 8a52 bbbc
000003d0: bb9b 0b3e a29a 183c 066d 183d fef2 043d
000003e0: f22a 48bd 0a69 59bc 2a4b f23c 2030 ee3b
000003f0: 177f ab3b 96bf d3bd 6c93 a5bb 593c 93bd
0.10091743 0.05013197 0.041891858 -0.090330526 -0.00041259476 -0.06419686 -0.11164859 0.018470421
-0.019724844 0.022723248 0.08298063 0.13813691 0.02361759 0.09297957 0.06271161 0.14323428
0.058811594 0.13128833 0.049439438 0.042277597 0.0961793 0.09024146 0.09495188 -0.0024646546
0.0973699 0.14966635 0.020254508 0.056548674 0.008583122 0.104549274 -0.03810662 0.04260899
-0.057509974 -0.023718007 0.01231479 0.12026113 -0.007421954 -0.07030125 0.09780666 0.06686219
0.15542498 0.102315865 -0.08467 -0.05624722 0.03820023 0.031505127 0.0348481 0.06624243
0.016666275 0.10810879 -0.021085942 0.0070292423 0.00027839365 -0.05446241 -0.08788882 0.08670545
0.15115465 0.108723395 0.08632798 -0.07537427 0.0051209894 0.024816073 0.069224335 0.03574158
0.060137887 -0.039881542 -0.007837524 0.008080754 0.048451584 -0.10812212 -0.033012673 -0.10329114
0.10354656 0.096235625 0.022646284 -0.025381533 0.002129822 -0.03578628 0.07927508 -0.030047668
-0.022698931 0.0343191 -0.061735045 0.07097656 0.046486992 -0.04546981 -0.03539439 -0.089408584
0.067846715 0.024811145 -0.08455542 0.064531244 0.017716108 0.040003244 -0.09820023 0.0049006343
0.013724446 0.031984534 0.06904952 0.10191736 0.049866427 -0.084115185 0.10419984 -0.041915122
-0.050389793 -0.070500635 0.09766165 0.12007803 0.050452374 0.11563805 -0.13168329 0.107091285
-0.053328186 -0.07155381 0.07547058 -0.06780787 -0.023715055 -0.06738183 0.010832313 0.03102809
-0.05871799 -0.017147966 -0.015418899 0.066639364 0.021485973 -0.007537956 -0.084024034 0.06455824
-0.028148355 0.0026787112 -0.09587796 -0.0554048 0.19076115 -0.13443421 -0.038098246 0.03070423
-0.063619964 0.009772911 0.05205265 0.09362976 -0.058296476 0.077061825 -0.03484134 -0.008583159
0.10885338 0.015895953 0.036253102 0.12842193 -0.07065152 -0.07563184 -0.0197599 0.11477802
-0.028533028 -0.022874204 0.004294245 0.07388959 0.08570629 0.07048617 0.029735237 -0.09157027
0.052031577 0.0038115224 0.026922101 -0.024966903 -0.015772022 -0.027324716 -0.026645966 -0.03204209
0.097207665 0.1439266 -0.008751828 0.018357625 -0.045510683 0.082205355 0.0837831 0.061002605
0.020306004 -0.08204683 0.0926889 0.10407458 -0.036921922 -0.020315623 0.042989094 -0.043508608
0.0255736 0.0028761858 0.0020777707 -0.03301203 -0.00032145393 -0.072366185 0.04818782 0.033602554
0.1263163 -0.07239053 -0.099038705 0.03443184 0.26593605 -0.1659698 0.087876394 0.10029167
0.033722445 0.06759696 -0.042681597 0.09491609 -0.03622965 0.024964178 0.013962175 -0.08133787
0.061398145 0.047105778 0.10023612 0.098369926 0.09520476 -0.122596614 0.10510286 -0.0037516935
-0.03301369 0.055023015 -0.04300699 0.075571746 0.043045077 0.10140868 0.008474797 0.09615223
0.06832938 0.07352014 -0.02643029 -0.06927918 0.10314424 -0.12969828 -0.08593564 0.11979562
0.09667333 0.122811355 0.04177741 0.082212485 -0.048451733 0.104082294 -0.1017387 0.13509116
0.045638446 -0.047620006 0.04326827 -0.022866506 0.13633625 0.009314211 0.037213348 0.032458298
-0.04886908 -0.013269672 0.029576857 0.0072689205 0.005233656 -0.103392765 -0.0050529744 -0.07189245

fc.bias f4 [5]
00000000: b107 acbd 0239 ef3c 8aa9 6cbc 3278 6c3d
00000010: fa12 793c
-0.083999045 0.029201988 -0.014444718 0.057731815 0.015202278
