cnn_lstm_model.pth (torch, 149231 bytes, 8 tensors)

conv.weight f4 [64, 13, 3]
00000000: 4560 92bd 8ac2 14bd 295a 9cbd a4ee b93d
00000010: 1071 03be 1adc a23d 04e0 473d 0b7a 0bbe
00000020: fc96 b83d 3041 4b3d c2f1 933d 448f 01bd
00000030: d0cd 65bc afb7 16be c131 21be 80a2 eebb
00000040: 30bf e9bd 20d9 b33c a7b1 b7bd e0f5 8dbc
00000050: d89f 523d fda1 1cbe dc4b cdbd e86f 7d3d
00000060: b8f4 c53c c8da 673d 8084 d7ba 6036 75bd
00000070: 2e28 d5bd 1c84 d93d 74d2 ad3d 30ae eabd
00000080: 947d 853d e64f ebbd b0c4 e43d 0e44 e4bd
00000090: 4245 1cbd 23b7 0ebe 1426 b93d e6ef 8f3d
000000a0: 2b8c c9bc 363b cebd 7875 edbd 7703 88bd
000000b0: d1df fdbd 8114 afbd fea1 e33c bf57 b93d
000000c0: 80b0 f33c cf06 abbc 846f 94bc 8b19 953d
000000d0: 8e77 e3bd 1c14 4e3c 514d a63d 8597 ad3d
000000e0: 829e b9bd 39dc 14bd 2518 763c 649d 03be
000000f0: a750 8cbd 4599 a43d 2322 943c 35a0 5f3d
00000100: dc56 2bbe c703 15be a57a fc3d c74c 3dbd
00000110: a3a9 973d 36c5 0abe 5f8d d8bd f7e0 0f3e
00000120: e1a8 d33d 53db 2bbe 0ad9 5c3d 7573 143c
00000130: aedf 0fbe f527 c73d f9f0 1ebe 2f63 1abd
00000140: 5b76 02be 1530 9d3b 155b 003d 78b0 bdbd
00000150: 5356 c2bd dc50 2abe b5ce 3cbd d068 e2bd
00000160: 26a0 ba3d 8ec9 0cbd 86ff 23be 2c34 ca3d
00000170: 3472 1fbe 4fb8 ed3d 88c4 1b3e b965 22bd
00000180: 7d35 cc3c abcc fabc 7937 30be be27 193f
00000190: 28de f43c ca45 aabc ae7f 10be ab9a 0e3d
000001a0: a598 3abe db97 353d 183d 9e3d 43f0 0d3d
000001b0: f76f cd3c 5b18 2bbe 026c 87bd f40f d9bd
000001c0: a6c1 a03b 6d40 13be 3d93 2ebe 5cf0 953b
000001d0: 9559 18be cf8a 7cbe cd5c 14bd 6491 77bc
000001e0: 3cd7 c03b e720 74be e795 81be 576f 84be
000001f0: 19d7 4abe 55f3 56be e057 02be 8292 003c
00000200: be8b 56be efee 773e 6b58 8e3e 5cba 46bd
00000210: 9736 10be fab9 26be d733 693d d6c9 f73c
00000220: be4d fd3d 0363 153e ae05 1b3e d178 a23e
00000230: c2cf 803e 0095 233d 4367 423e 4a5e 4a3e
00000240: 0e71 bb3d cd3a 093e d88e 7f3d 5fc0 143e
00000250: 4cd1 213e e464 1b3d 8480 bcbd aedb 6cbe
00000260: 2042 6cbe 9900 0dbe 3ab5 ecbc 3dc3 12bc
00000270: 9c0e 163e 4401 f2bd b61c b9bd 672a 8abd
00000280: 15fd f6bd d517 01be 03e1 713d 81be af3c
00000290: 317e 97bd 38a3 fa3d 40ad 57bb 6f6d 6a3d
000002a0: f40a a8bd ac87 11be 11b3 06be d50a 933d
000002b0: b4b5 a03d c276 363e 6283 86bd b838 02bd
000002c0: d050 86bd bb5a 82be 63e8 5cbe e4b7 4abe
000002d0: eddc c1bd 5d2b d2bd 4d31 33be 0fff 473e
000002e0: 253f c03d b7d1 153e 9286 073e ae82 663d
000002f0: db97 323e 6dc8 adbd c07a 36be f7af 0dbe
00000300: a6b8 123e f7dc 243e a76b a4bc 4c77 04be
00000310: c92e 13be 029a d5bd ac32 59bd 67c7 2abe
00000320: 9873 87bd 254f 833d 8e1e febd 280b 043e
00000330: 4683 063e c07c af3c 5e1a 173d f8f4 c3bd
00000340: 5214 b3bd 1a10 023e edb8 05be 1f26 053e
00000350: 9e1a ccbd 8e6b 32be 6161 0cbe 3fe6 d5bc
00000360: d046 ff3d b497 7ebd 236e 6abc f8bd 26be
00000370: c6fe e63d ef6a 043e 9b2f ff3b 84a8 c9bd
00000380: aa28 853d 4805 29be b06d 0d3e 7860 083e
00000390: c8e2 a93d 680d ffbc 66d8 01bd 98aa f83b
000003a0: d824 ed3c 9a5b 36be 86f3 7fbc cde7 033e
000003b0: 7a6a 003d 00ea 143d 115f 573d 7077 4ebd
000003c0: ff17 153c 41c1 c53d df0f a7bd d74e 0f3e
000003d0: f512 92bd fdef 20be 8664 723e 5e4f 3e3e
000003e0: 87a6 5c3e ede9 8d3d 019f 023d 9650 b23c
000003f0: 242b 2bbd 9a7e 8e3d d543 1b3e a2f8 1c3f
-0.07147268 -0.03631834 -0.07634384 0.0907872 -0.12836099 0.07952137 0.048797622 -0.13620774
0.09013173 0.049622715 0.07223846 -0.03163077 -0.01402612 -0.14718507 -0.15741636 -0.007282555
-0.11413419 0.02195412 -0.08969431 -0.017329156 0.05142197 -0.15296169 -0.10024235 0.0618743
0.024164543 0.05660513 -0.0016442686 -0.05986631 -0.10408054 0.10620901 0.084874064 -0.11459005
0.06518093 -0.11489849 0.11170328 -0.11145793 -0.038151987 -0.13937049 0.09040466 0.07028179
-0.02460297 -0.10069887 -0.11594671 -0.06641286 -0.12396205 -0.08548833 0.027787205 0.09049939
0.029747248 -0.02087727 -0.018119581 0.072802626 -0.111067876 0.012578037 0.08120216 0.08476166
-0.09063436 -0.036342833 0.015020405 -0.12853009 -0.06851321 0.08037046 0.018082684 0.054596145
-0.16732353 -0.14552222 0.1232808 -0.0462158 0.074054025 -0.13551793 -0.105738394 0.14050661
0.103349455 -0.16782884 0.053917922 0.00906073 -0.14050171 0.09724418 -0.15521611 -0.037692245
-0.12740462 0.0047969916 0.031336863 -0.09262174 -0.09489121 -0.16632408 -0.04609557 -0.11055148
0.09112577 -0.034371905 -0.16015443 0.09873232 -0.15570909 0.1160742 0.1521169 -0.03964779
0.024927849 -0.030615171 -0.17208661 0.59826267 0.029891089 -0.020785231 -0.14111206 0.03481547
-0.18222292 0.044334274 0.077264965 0.03465296 0.025077803 -0.1670851 -0.06612398 -0.10598746
0.004905897 -0.14380045 -0.17048354 0.004575772 -0.14877923 -0.24662326 -0.036221314 -0.015110347
0.005885033 -0.23840676 -0.2530968 -0.25866196 -0.19808616 -0.20991261 -0.12728834 0.00784743
-0.20951745 0.2421224 0.27801833 -0.04851757 -0.14083324 -0.16281882 0.056934204 0.03024761
0.12368344 0.14588551 0.15138885 0.317328 0.25158507 0.03993702 0.18984704 0.19762531
0.09152423 0.13401337 0.062392086 0.14526509 0.15802497 0.037938014 -0.092042 -0.23130676
-0.230721 -0.13769759 -0.02889501 -0.008957681 0.1465401 -0.11816648 -0.09038679 -0.06746369
-0.1205999 -0.12606747 0.05905248 0.021453144 -0.07397116 0.12238163 -0.0032909662 0.05723327
-0.08205214 -0.14211911 -0.13154246 0.071798004 0.07847157 0.1781874 -0.06568028 -0.031792372
-0.065583825 -0.25459847 -0.21573023 -0.19796711 -0.094659664 -0.10262177 -0.17499276 0.19530891
0.09387044 0.14630781 0.13234928 0.05627697 0.17440741 -0.08485494 -0.17820263 -0.13836657
0.1432825 0.16099916 -0.020070864 -0.12936133 -0.14373316 -0.10429765 -0.05302684 -0.16677628
-0.06613845 0.0641158 -0.124081716 0.12894881 0.13136014 0.02142179 0.03689038 -0.095682085
-0.0874411 0.12701455 -0.13058825 0.13002823 -0.09966014 -0.17423841 -0.13709022 -0.026110766
0.12464678 -0.062156394 -0.014308485 -0.16283405 0.11279063 0.12931417 0.0077876574 -0.09846595
0.06501897 -0.16505921 0.13811374 0.1331805 0.08295208 -0.031134322 -0.031700514 0.0075886957
0.028948233 -0.1780838 -0.015622025 0.12881394 0.031351544 0.036355972 0.052580897 -0.050406873
0.009099959 0.09656001 -0.08157324 0.13994919 -0.07132522 -0.15716548 0.23671159 0.18584964
0.215479 0.069293834 0.03188992 0.021766942 -0.04178919 0.06957741 0.15162595 0.61316884

conv.bias f4 [64]
00000000: f5a8 05be 3c35 263d 76d3 33bd e7e8 92bd
00000010: c61d 06bc ae7e 1dbe dcb8 f7bd 8bef f7bd
00000020: 2cb3 64bc 3638 4f3e c6f1 6ebd f26f 293e
00000030: 52ea 983d 3029 febd 0b4b eabd 4ac2 3fbe
00000040: aecd d6bc 4ad1 8dbd 2205 06be e7b5 ac3c
00000050: 08d7 08be 1e96 d13c a1d9 073e a6c8 8b3d
00000060: ce1b 013e 1e79 fdbd 182a f23c 9047 cc3c
00000070: a281 73bd 32b2 b43d a215 08be f059 b33d
00000080: fe86 1fbd cb9d 733c 2d44 94bd 9c86 9d3d
00000090: f08b 20be 9e69 84bd 3c14 86bd 4c87 20bd
000000a0: 4b73 e4bd 90cd d4bd c98e 4c3d 4928 f5bd
000000b0: 0eda 22be d660 a63a 9977 0fbe 064e 72bd
000000c0: 9f93 d43d a8df 99bd 5551 943d 24da 083e
000000d0: bd5a 25be f04c 063e af1c 61be 1e3b 9dbd
000000e0: 1f94 783d 665d 18bd 85e1 8c3c 0ff0 30be
000000f0: 4fd0 c0bd c448 1fbe 31e2 95bd ee87 6b3d
-0.13052733 0.040578112 -0.043902837 -0.07173329 -0.0081858095 -0.15380356 -0.12095806 -0.12106236
-0.0139587335 0.20236287 -0.058336042 0.1654661 0.07466568 -0.124102 -0.114400946 -0.18726459
-0.026221123 -0.06924684 -0.13087896 0.021082832 -0.13363278 0.025584277 0.13266613 0.0682538
0.12608263 -0.12376617 0.029561087 0.024936467 -0.0594498 0.088230506 -0.13289502 0.087573886
-0.038947098 0.014869164 -0.07239566 0.0769169 -0.15678382 -0.064654574 -0.06546828 -0.03919153
-0.11154803 -0.103907704 0.049940858 -0.119705744 -0.15903494 0.0012693654 -0.14010467 -0.05915644
0.10379719 -0.07513362 0.07242075 0.13364464 -0.16147895 0.13115287 -0.21983598 -0.07677291
0.060688134 -0.037198447 0.01719738 -0.17279075 -0.09414732 -0.15555102 -0.07318533 0.05750268

lstm.weight_ih_l0 f4 [256, 64]
00000000: 4c50 0bbd 09d3 db3d 0407 533d a3d6 d23c
00000010: a813 16be f91d eebb ca8c a6bd 096d e0bb
00000020: 2428 62bd c638 e53c 5000 d7bd 99c6 66be
00000030: e012 61bc 34cd 8f3d ab02 cdbd d475 6bbd
00000040: ca7e cabb a4b8 863d cf25 ed3b b3e3 8d3d
00000050: a5c6 1ebe f3f6 10be 2db0 80be e6a5 34be
00000060: da54 6b3d 60d8 b2bd 2c3f 08bd 640d 74bd
00000070: 73e1 0fbe ad9d 24be 71c0 13bd 9aec d23d
00000080: 6e7c 9f3d ee27 f5bd f96f d23d c2ce 5a3d
00000090: dace d2bd 4182 9fbd 0378 363a ab4e 46bd
000000a0: a976 86bd 62cb 86bd 25e6 c2be 94e5 a83d
000000b0: cc9d 8dbd 3dc5 833c 106a 08be 1481 d1bd
000000c0: 2d5a 223d c339 e0bc c28c 3bbd c010 e63c
000000d0: 89b3 ff3d db21 923d e9da 35bd 6a27 e9bc
000000e0: e30d 0abe 40f1 0abe d3f7 543c 6420 10be
000000f0: 0816 963d f384 5bbd 3daf c6be 03d7 8dbb
00000100: bef1 d9bd a0ce 883c 7854 a53d 4d2b e53c
00000110: 3133 0bbe 15f0 353d 6700 6fbd 9fd8 7abe
00000120: 5ce6 4cbe 7554 d33c 8c44 09be 08f1 43bf
00000130: c608 193d dc83 f33d 7b2a 9abe f98d 97bd
00000140: 49f6 833d 0ace f2bd 444f 15be 77fa 1abd
00000150: e3ee 173c 199c 1a3a 5365 c1be 40d0 babe
00000160: 060a 65be 5226 cc3d 80ee 453c 181b 713d
00000170: 9d43 c0bc 9d47 2ebe da66 e43d 1923 f83d
00000180: a531 c9bd 5970 4cbe 7b8e 04be d9ca a43d
00000190: 5158 983d f1b0 11be dfd9 8f3d 6a6e ac3c
000001a0: 7ab4 8d3e aa6b 2dbe 2e8d cebe 2f12 8ebd
000001b0: 9013 333c 567d dcbd 1106 363d 7372 bc3d
000001c0: 2d80 843a 3c09 eebd 28f0 4cbc 7df1 ae3d
000001d0: 5a03 b7bd 7719 56be 2fa3 96be 6ac2 3abd
000001e0: 0713 74bc fac2 8bbe bc6c b83c faee f7bd
000001f0: 0d70 0b3d 4331 02be 6378 3cbf 5aa8 3bbe
00000200: 1c35 243d f5f7 9b3c eb2e 4e3d a5aa 7abe
00000210: 34ad 5e3d ac99 cabd e2fa 0e3d b2b0 e7bd
00000220: 455f 17be 057a 22bc 87ef 84bc 3ebd 23be
00000230: 8f8e 73bc fa5d cfbd 403e 2a3d ad61 b7bc
00000240: 42a7 783d fb97 36bd 92fd f4bd 32dc b73c
00000250: 6186 b93d 79a7 93ba 5359 cbbd 998a 38be
00000260: 90fd eabd 6a02 fdbd 70f9 2dbd 3c8c 193d
00000270: 7237 8aba f804 67be 2b55 4ebd 407f f13c
00000280: 278c e3bd 45ef 5bbe 89d7 bc3d f2ff 743d
00000290: 837b 85bd eb25 d53d 8cb8 8eb8 05b2 04be
000002a0: 7e5c 373e 0d23 0dbe f3f8 60be 96e5 753d
000002b0: d4ee 633d 603c 50bd c4a3 403d c8ac 733d
000002c0: 3fff 12bd df3f 00be 65ab a3bd d8f1 da3d
000002d0: e837 eb3d ec15 bf3c 78ea 0c3e a0bf 8fbe
000002e0: 514a 4fbc c1a8 74be 353d 753d c047 10be
000002f0: 3d25 353e 25f7 cabd 5b90 e2bd 7c04 3dbe
00000300: 1c2e e73d c8f8 79bc 6684 6e3d 7016 e93d
00000310: 5e74 39be b697 c73d 27b0 b4bd c87d dfbd
00000320: 0425 6dbe ad2e 0e3e 6644 60bc d607 8ebe
00000330: 3ddd e23c 9871 a6bc 26df 0ebe aec2 d9bb
00000340: 3856 973d 092b bfbd 41db cdbc 7f47 20bc
00000350: 8de9 943d 7239 00bd faba cebe 2780 aabe
00000360: 9f81 afbe 8c35 663d 2c11 46bd 808b 413b
00000370: 89e8 43be aa44 933d 2681 f5bd 8b1c adbd
00000380: 0d64 003d fb56 95be 138e e7bd a7a6 05be
00000390: f89b e53c 95d3 49be e45a 8b3c 0a59 683b
000003a0: 370f 44bc b146 3cbe 3416 d7be 4347 5cbd
000003b0: fe26 e1bd aa48 333d fa01 ccbc 7278 41bc
000003c0: b595 26be 1669 003d 2d4d 1cbe 57cc b23c
000003d0: 7617 7e3c 593a 25be f6b0 bfbe 22b0 0dbe
000003e0: 9fff 96bd 775f d4bd 6aa0 003c d753 a4be
000003f0: 5bda e43d 24fd 923d 7f97 3cbf c8e9 4cbe
-0.034012124 0.10733611 0.051520362 0.025737112 -0.14655936 -0.0072667566 -0.08132322 -0.0068489355
-0.055214062 0.027981173 -0.104981065 -0.22536696 -0.01373741 0.07021561 -0.100102745 -0.057485417
-0.006179665 0.06578186 0.007237173 0.06928196 -0.15505464 -0.14156704 -0.2513441 -0.1764141
0.057453968 -0.087326765 -0.03326337 -0.059583083 -0.14050846 -0.16075774 -0.0360722 0.102990344
0.07787405 -0.119705066 0.10275263 0.053419836 -0.1029336 -0.07788516 0.0006960632 -0.048414867
-0.065656014 -0.06581761 -0.3806621 0.082469136 -0.06914863 0.016085261 -0.1332171 -0.10229698
0.03963678 -0.027371293 -0.045788534 0.028084159 0.124854155 0.07135364 -0.044398222 -0.028461177
-0.1348186 -0.13568592 0.012998539 -0.14074856 0.07328421 -0.053593587 -0.3880557 -0.00432861
-0.10641812 0.016700089 0.08072752 0.027974749 -0.13593747 0.044418413 -0.058349993 -0.24496697
-0.2000975 0.025797108 -0.13405055 -0.7653966 0.037361883 0.118903846 -0.30110535 -0.07400126
0.064434595 -0.11855705 -0.14581019 -0.03783652 0.009273264 0.0005897894 -0.37772617 -0.36487007
-0.22367105 0.099682465 0.012080789 0.05886373 -0.02346974 -0.17019506 0.1115243 0.12116069
-0.09823922 -0.19964732 -0.12944977 0.080465026 0.0743872 -0.14227654 0.070239775 0.021048743
0.27676755 -0.16935602 -0.40342087 -0.06937062 0.010929957 -0.107660934 0.04443938 0.09201517
0.0010109 -0.11622855 -0.01250843 0.08542154 -0.08936186 -0.20908152 -0.29421374 -0.045595564
-0.014897115 -0.27297193 0.022512786 -0.12106128 0.034042407 -0.12714104 -0.73621196 -0.1832594
0.04008971 0.019039134 0.050337713 -0.24479158 0.054364398 -0.09892592 0.03490723 -0.11312999
-0.14782436 -0.009916787 -0.016227497 -0.15990159 -0.014865532 -0.101253465 0.041563272 -0.022385443
0.060706384 -0.044578534 -0.11962427 0.022443864 0.09058834 -0.0011265121 -0.099291466 -0.18021621
-0.114741445 -0.12353976 -0.04247421 0.037487254 -0.0010545088 -0.22560489 -0.05037419 0.029479623
-0.11110716 -0.21477993 0.092207976 0.0598144 -0.065176986 0.10407623 -6.805462e-05 -0.12958534
0.17906377 -0.13782902 -0.21969967 0.060033403 0.055647686 -0.050838828 0.04703118 0.05949095
-0.035887953 -0.12524365 -0.07991675 0.10690659 0.11485273 0.023325883 0.13761318 -0.28075886
-0.012651996 -0.238925 0.059872825 -0.1408987 0.17689987 -0.0991042 -0.1106269 -0.18458742
0.112880915 -0.015257068 0.058231734 0.11381233 -0.18110797 0.097457334 -0.08822661 -0.10912663
-0.23158652 0.13884993 -0.013688182 -0.27740353 0.027693385 -0.020317838 -0.13952312 -0.006645522
0.07389492 -0.0933438 -0.025128962 -0.009782671 0.07271109 -0.031304784 -0.40377027 -0.33300897
-0.3427858 0.05620341 -0.04835622 0.0029532611 -0.19131674 0.07190831 -0.11987524 -0.0845271
0.031345416 -0.29167923 -0.113063954 -0.13051854 0.028028473 -0.19709618 0.017011113 0.0035453462
-0.011966518 -0.18386342 -0.42009127 -0.053778898 -0.10993765 0.04377047 -0.024903286 -0.011808502
-0.16268046 0.031350218 -0.15263815 0.021825952 0.015508523 -0.16135539 -0.37439698 -0.1383672
-0.073729746 -0.10369771 0.007850746 -0.32095215 0.111744605 0.07177189 -0.73668665 -0.20011055

lstm.weight_hh_l0 f4 [256, 64]
00000000: 68a0 883d 7aa9 89bd 1656 2ebd 7a09 c83d
00000010: c77f b6bd 97fe 613e 68b8 67bd 8a2a 7b3c
00000020: bf18 1c3c fc85 1a3e 413a 2ebe c981 183e
00000030: a664 0dbd dbc4 10be 9206 33bd 402e e4bd
00000040: da77 30bd 565f fbbd ea76 1dbe 6bca 463c
00000050: 5f11 7cbd cc77 dd3d 72de 1c3d 65e6 b5bd
00000060: 6ab6 4bbd d138 a33b d35c 00bd a70a d4bc
00000070: 8de2 0dbe ca12 313d 38d4 76bd 5374 4cbd
00000080: abea 6ebd dfcd 163e ebe3 b7bd 71a3 f5bc
00000090: 9e01 5b3d edef b63c c52e ef3d 0f8a bc3c
000000a0: 0a96 a93c fc8b 08bd 89c4 03be 32df 0fbd
000000b0: b8c3 403d 4c41 243e 3005 84bd 9f82 aeba
000000c0: 3e5f ccbd e227 fbbd 0d28 1cbd a7e7 293e
000000d0: 50aa a83d ed99 15be a27b 183d 71cf e3ba
000000e0: bdb8 163d 7ffc d9bd 9b81 813e f2b9 8abd
000000f0: d3b7 dbbd 7f56 79bd 58eb 883d f9f5 c8bd
00000100: eace ea3d 1b8b 4cbd 47be 0f3d bd20 e73d
00000110: 8523 de3d 91d1 3b3e f272 1e3d 27ee a3bd
00000120: 6285 febc 1e9d 193e 7259 1ebe f20b 603d
00000130: 149f 1ebd 2383 4d3d 36c1 3f3d e986 abbd
00000140: 794e 843d 994e 58be cabb 1bbe 7256 21be
00000150: 00df f1ba 2125 833d b520 bc3d ef68 f73c
00000160: 3a31 a43b f489 843d 08c0 ca3c bc7f a73d
00000170: fabb 0f3d 83a3 bfbb b134 dbbd aadd cd3d
00000180: 3383 d0bd cc78 7dbd 2773 b63d e26e 043e
00000190: dbdb c03d 89b1 943e c560 3ebc 793d 8ebd
000001a0: 01f4 46bd 87d3 183d 7626 3dbe eab5 82bd
000001b0: 1bd4 a03c 9e3c c83d 0620 bc3d fac5 e3bd
000001c0: 1372 3a3d a6bc a3bd 160f 5ebe 287a 4a3d
000001d0: c5ea dcbb 683a 7bbc abfb 58be d28d 1bbd
000001e0: d14a f43d 5061 dbbd 8bb9 163e 6a20 81bd
000001f0: 8e9d 073e 542c f4bb 4262 1c3b 234b 7abe
00000200: ba96 24bd 41a3 b2bd d6d4 dd3c 5c36 cbbd
00000210: 202f 7ebc 8713 833d f4cf 883d d4b3 0cbe
00000220: ec51 8ebd 80b3 b53d 3e49 96bd c807 74bd
00000230: 40c7 00be 6771 2fbd c159 d03d 328e 083e
00000240: 40b1 953c 310f 7cbe aeec 61bd 7324 88bb
00000250: dde8 aabc 08b4 1ebd 01df 1fbd 883e 873d
00000260: 3216 803d ed9d d7bd e1ac a5bd 1f2b 53be
00000270: 2bed b0bc a3fc b03d be83 93bc ba71 2abe
00000280: 97bd 3cbd 4951 adbd 56e1 653d fa40 c9bc
00000290: 5564 80bd 7370 7ebd bb02 db3d d53b 563c
000002a0: ba7b 1abe ec9d 1cbc a46f a53d d3ab a03d
000002b0: d772 31be ea77 e33d dbd3 483c c3a3 7ebc
000002c0: 9445 98bd 555a 0dbe 2fb9 dabc 175d 2bbd
000002d0: cdc5 1c3d a4cd c13d ba8f a83d a248 a3bc
000002e0: bee1 1b3e fd20 363c 781e 0b3e 7204 6b3d
000002f0: d2cf 98be 857c 173e 32be 45be d517 e63c
00000300: d91f 683c 1dbb 7bbd 0370 3d3c 6d9b f93c
00000310: ef4d 573d 03d1 983d c6c4 b43d 5d16 8f3c
00000320: 11fc 3dbd ea76 0a3e f6df 48be eab2 db3d
00000330: 1e09 33be 820d 9c3d f197 94bd 8517 803c
00000340: 5900 553d 12e5 90be 4cb9 0ebe 4f2c e43c
00000350: e7e2 8d3d ae98 a6bd b554 c1bb 478a 7ebd
00000360: 323a 933e ae33 9bbd 8fee bfbd cd02 ed3a
00000370: baf9 88bd be21 463e eb3c 3abe 168f 813d
00000380: 8a94 45be 1a9f 1dbe eb30 a9ba 4e9c b93d
00000390: adee af3d 780b 393e 6456 113e 79f9 a23e
000003a0: a61f 4cbe 2461 a63d 4fe9 5dbd 559c f8bd
000003b0: f87c dbbd 107a 80bd 518f de3d 883b 02be
000003c0: ef04 233e 108c 0fbe 8d90 1cbe 7077 133e
000003d0: 3b17 bd3d 0f0d d9bd f204 d0bd 7033 4c3d
000003e0: e1ae 0b3e af11 77be b665 e83c f290 1b3e
000003f0: fc87 63bd 9ca5 a33d f180 febd efca 51be
0.0667122 -0.06721778 -0.042562567 0.097674325 -0.0891109 0.22069775 -0.056572348 0.015329966
0.009527384 0.15090173 -0.1701441 0.14893259 -0.034519814 -0.14137594 -0.043707438 -0.11141634
-0.04308305 -0.12274043 -0.15377393 0.012133221 -0.061540004 0.10813865 0.038298078 -0.08881835
-0.04973451 0.0049811383 -0.031338524 -0.025883986 -0.13855954 0.04323081 -0.06026098 -0.049915623
-0.058329266 0.14726971 -0.08979019 -0.029985161 0.05346834 0.022331202 0.116788425 0.02301505
0.020701427 -0.033336625 -0.12867941 -0.035124965 0.047061652 0.16040534 -0.06446302 -0.0013314075
-0.099791035 -0.122634664 -0.038124133 0.16592275 0.082356095 -0.146095 0.03722728 -0.0017380548
0.036797274 -0.10643863 0.25294194 -0.067737475 -0.10728421 -0.060873505 0.06685513 -0.098125406
0.11465247 -0.04993735 0.035093572 0.11285541 0.108466186 0.18341662 0.03868384 -0.08004408
-0.031069461 0.15001342 -0.15463808 0.054698892 -0.038725927 0.05017389 0.04681512 -0.083753414
0.0646028 -0.21123733 -0.15208355 -0.15755633 -0.00184533 0.06403566 0.09185926 0.030201403
0.005010751 0.06471625 0.02474977 0.0817866 0.035091378 -0.0058483495 -0.107034095 0.10052045
-0.10181274 -0.06188278 0.08908682 0.12932923 0.09416934 0.290417 -0.011619751 -0.06945319
-0.048572544 0.037311103 -0.18471703 -0.063823536 0.01963239 0.09777187 0.091857955 -0.111217454
0.045518946 -0.07994966 -0.21685442 0.049432904 -0.006741854 -0.015333749 -0.21189754 -0.037977047
0.119283326 -0.1071192 0.14719217 -0.063050106 0.13243696 -0.0074515734 0.0023862277 -0.24442725
-0.040182807 -0.087225445 0.027079027 -0.099224776 -0.015514165 0.06400209 0.06680289 -0.13740474
-0.06949219 0.088721275 -0.073381886 -0.059577733 -0.12576008 -0.04283276 0.10173369 0.13335493
0.018272996 -0.2461517 -0.055157356 -0.0041547357 -0.020862991 -0.03874591 -0.039031032 0.06603724
0.062542334 -0.10528169 -0.08089615 -0.20621918 -0.021597466 0.08641937 -0.018007156 -0.16644946
-0.046079244 -0.084627695 0.0561231 -0.024567116 -0.06269137 -0.06211896 0.1069388 0.0130757885
-0.1508626 -0.009559136 0.080779344 0.07845273 -0.17328964 0.11106856 0.0122575415 -0.0155419735
-0.07435146 -0.1380399 -0.02669963 -0.041836824 0.038274575 0.09463051 0.08230539 -0.019932095
0.15222833 0.011116263 0.13585842 0.057377286 -0.29846054 0.14793594 -0.19310835 0.028087536
0.014167749 -0.061457742 0.01156235 0.03046962 0.052564558 0.07461741 0.08826594 0.017466718
-0.046382967 0.13521925 -0.19616684 0.107274845 -0.17483947 0.07619764 -0.07255543 0.015636215
0.052002285 -0.28299767 -0.13937873 0.02785316 0.06928044 -0.0813459 -0.0058999904 -0.06214359
0.28755337 -0.075782165 -0.09371673 0.00180825 -0.066882566 0.19348809 -0.18187301 0.063261196
-0.19294944 -0.15392724 -0.0012908255 0.09063016 0.08590446 0.18070781 0.14193112 0.31830958
-0.19933948 0.08123997 -0.05417758 -0.12139193 -0.10717195 -0.062732816 0.10867179 -0.12718022
0.15919851 -0.14018273 -0.15289517 0.1440103 0.092329465 -0.10598194 -0.10157193 0.049853742
0.1364093 -0.2412784 0.028368812 0.15192011 -0.055549607 0.07990572 -0.12426937 -0.2048757

lstm.bias_ih_l0 f4 [256]
00000000: 830a 2ebe 847a eabd 0a35 1dbe e85d 90bd
00000010: 2dbb bcbd aace d1bd df6a 3ebe d5bf b03d
00000020: 27b9 7e3d fba1 3c3c c05e b7bc 3dd0 bbbd
00000030: 8782 9b3c cd0d 3e3d 73fb 70be ef84 6cbc
00000040: 34f1 98bd cfe6 ad3c c78d 543d 3e35 09be
00000050: 8fe8 bbbd 1e8d d4bd 7580 2c3c c90b 2ebc
00000060: 4faf 343e eab1 55bc 29af b1bc dae6 40bd
00000070: f7ca 06be 3669 2dbd fbf4 bb3b ec2b 08be
00000080: dd3d bebd 704c f4bd a8ce 33be f9dd 74be
00000090: 3f2d 293d 5d32 723d 9dc5 5ebd c19a c6bb
000000a0: d7f4 d6bd 54f6 43bd 9ffc a83c bccb e53c
000000b0: 7256 ab3d dfe4 a3bd 1ef5 273d 4d89 923d
000000c0: ead9 66be d7c0 9e3d 7bbf 63bd 7fc4 febd
000000d0: 15dc d7bc 1dda fe3b 7b36 923e ec51 b63d
000000e0: 3273 56bd b5a9 883d 86cc 8c3c 7ee4 53be
000000f0: 6463 703e 28a6 a1bd cf9d 9a3e 6390 b63d
00000100: 7d27 3dbd 52c8 6e3c 7f28 3ebe 2199 80bd
00000110: 39ad 273d 2fbb af3c 4a64 07be 25bd b83d
00000120: 261b 3ebe 79c8 a6bd fd5b c9bd 48a9 41bd
00000130: d602 a4bc d12e 76bd b832 6fbd 0eea 743d
00000140: 14c4 b0bc 6529 5ebe ed86 0f3e 263b 2cbe
00000150: 386c bbbd 1e70 65be ac6b 7fbe 0330 52bd
00000160: 2fd0 3f3c 7ce4 a5bd 3541 a1bd 97a5 eebd
00000170: 0aa5 82bd 0a02 a4bb 71f5 d1bc 7c86 c5bc
00000180: 1973 c03c d55b 87bd 75c4 18bd a04d e3bd
00000190: 08c9 3fbc bd97 3abe b583 25be 711c 25be
000001a0: ffe9 ff3d 945d babc 97a0 483d c385 5f3d
000001b0: 7a6d 593d d745 bcbd 7075 e73d d9d1 70bd
000001c0: 6d11 d13d 1ea1 76bd f9fb 84bd 1e35 5ebc
000001d0: fe27 56be 7f28 b63d dafd e93d 5231 2abe
000001e0: fdcd 85bd 8e5d f13d f595 1fbd 5aab e5bd
000001f0: 6404 05bd fe83 12bd bd56 083e 939c 27bd
00000200: 1183 18bc e814 9bbc e001 2bbd 4c47 b73d
00000210: 4338 d03d 8667 20bc cdd7 723d d233 673c
00000220: fe86 22bd b723 67bd 7198 503d 3615 a9bd
00000230: 4d2d 98bc 6736 55bd 0ac2 3bbd fe20 413c
00000240: cb73 7a3c 489b e93c aaf6 913d 276f c63d
00000250: 56ec 4d3c 886f 15bc 4171 893d 6aac ca3d
00000260: 8a3d c93d 9589 86bd e37f 4b3d 63be 163e
00000270: 42f8 8c3c dada d83a 99f3 d43d e66f 163d
00000280: 7052 c43c 11e3 89bd 1385 143d 214c 42bd
00000290: 39f2 b9bd 9a0f b83d 4dc0 4c3c 67b8 443d
000002a0: 6dc7 cdbb 458d f83c 1ad9 853d 4adc f6bb
000002b0: e3dd ae3d ccc5 adbd 8e3d 12bd 5750 353b
000002c0: 6314 ad3c 98e1 6c3d 9f18 0bbb 0cf6 81bd
000002d0: a4c3 1a3d 8fa6 313c c430 8c3d 0152 03bc
000002e0: 556c 713d 5c55 6cbc 1b8a 81bd e8fe 993d
000002f0: 45b8 0b3d 4337 07be ba27 b2bd cf2a 9abb
00000300: 2980 38be 8a5e 16be 4f8b 38be 0904 4fbe
00000310: 898b 31bd 50d7 bebd 1617 28be 0d2c 42bd
00000320: 0a4c e2bd 25b3 7a3c d470 1cbe 61d7 9a3d
00000330: 11db 64be 3b88 09bc 44f1 17bd 470f c9bd
00000340: 5614 86bd 2641 643d d554 94bd 90b7 e63b
00000350: 6cad 6cbd 1810 e9bd cfa9 4abe 4423 1dbe
00000360: 22e7 573d 8651 203d 1cac e8bd 55db 08be
00000370: 26cb 4abe bd92 603d e68e 12be 1752 27bd
00000380: 5e6d b3bc 2df4 babd 3371 39be 94d2 d2bd
00000390: d229 16be a1db aebd cc9d f5bd c9bd 2c3e
000003a0: 78fa 34bd 7e0f ae3b 4ef0 f9bc affe 52bd
000003b0: 5665 9a3b 5e62 52bd d332 dc3b b43d db3d
000003c0: 2ca0 f2bd 6cac 243c afc2 febd 1035 9bbd
000003d0: 5e8c 6dbe 0ef6 3bbe 0795 1b3e 15d4 32bc
000003e0: 82d0 4b3a 1285 d63d ea9d b53d f2c7 52be
000003f0: b795 403e b77b a2bc 093e d13e 8ff0 953e
-0.16996197 -0.11449149 -0.15352264 -0.07049161 -0.092153884 -0.10244496 -0.18595456 0.08630339
0.062188294 0.0115132285 -0.022384048 -0.09170578 0.018983139 0.04639988 -0.2353342 -0.014435991
-0.07467881 0.021228222 0.051893022 -0.13399217 -0.091752164 -0.103784785 0.010528673 -0.010622927
0.17645 -0.013042906 -0.021689968 -0.047095157 -0.13163362 -0.042336665 0.005735991 -0.13298005
-0.09289143 -0.11928642 -0.17559302 -0.23912801 0.041302916 0.05913006 -0.054387677 -0.0060609286
-0.10495918 -0.04784234 0.020628272 0.02805125 0.083660975 -0.08002638 0.041005246 0.07155094
-0.22544065 0.07751625 -0.055602532 -0.124398224 -0.02635006 0.007777466 0.2855719 0.08902344
-0.052355953 0.06672994 0.017187368 -0.20692632 0.23475415 -0.0789302 0.30198523 0.08914258
-0.046180237 0.014574127 -0.18570136 -0.06279207 0.040936682 0.02145156 -0.13221851 0.090204515
-0.18565044 -0.08143706 -0.098319985 -0.04728058 -0.020020884 -0.06010324 -0.05839798 0.059793524
-0.021577872 -0.21695478 0.14016314 -0.16819438 -0.091515005 -0.2240605 -0.24943417 -0.05131532
0.01170735 -0.081002206 -0.078737654 -0.116526775 -0.06379135 -0.005005126 -0.02562973 -0.024111979
0.023492383 -0.066093124 -0.03729673 -0.1109879 -0.011705644 -0.18221946 -0.16163523 -0.16124131
0.12495803 -0.0227497 0.048981275 0.054570924 0.05308292 -0.091930084 0.11301696 -0.058793876
0.10208402 -0.060212247 -0.064933725 -0.013562469 -0.20913693 0.08894443 0.114253715 -0.16620377
-0.0653343 0.11785422 -0.03896137 -0.11214323 -0.03247489 -0.03577041 0.13314338 -0.040920805
-0.009308592 -0.018930867 -0.041749835 0.08949146 0.10166981 -0.009790307 0.059287835 0.014111476
-0.03967952 -0.056430545 0.05092663 -0.08255999 -0.018576289 -0.052053835 -0.045839347 0.011787651
0.015286396 0.028516427 0.071271256 0.096891694 0.012568554 -0.009120829 0.067110546 0.098961666
0.09826191 -0.065692104 0.04968251 0.14721064 0.017208222 0.0016544715 0.10398025 0.03672781
0.02396509 -0.067327626 0.036259722 -0.047435883 -0.090794034 0.08987351 0.01249702 0.048027422
-0.006279877 0.0303408 0.065355495 -0.0075335847 0.08538415 -0.084849924 -0.035703234 0.0027666294
0.021127885 0.05783233 -0.0021224392 -0.06345758 0.037784234 0.010842933 0.06845239 -0.008015157
0.058941204 -0.014424648 -0.0632517 0.07519323 0.03411128 -0.13204674 -0.086989835 -0.00470481
-0.18017639 -0.14684501 -0.18021892 -0.20216383 -0.04334596 -0.09318411 -0.16415057 -0.04740529
-0.110496596 0.0153015 -0.15277416 0.075606115 -0.22349192 -0.008394296 -0.037095323 -0.09817367
-0.065468475 0.055726193 -0.07242743 0.0070409253 -0.057782575 -0.11380023 -0.1979134 -0.15345484
0.05271066 0.039140247 -0.11360952 -0.13364919 -0.19804057 0.05482744 -0.14312324 -0.04084977
-0.021902736 -0.09128604 -0.18109588 -0.10294071 -0.1466439 -0.08537985 -0.11992988 0.16869272
-0.044184178 0.0053119054 -0.030510094 -0.051512416 0.004711787 -0.05136334 0.006719926 0.10705128
-0.118469566 0.010050874 -0.12439477 -0.0757848 -0.23198077 -0.18355581 0.15193568 -0.010914822
0.00077749055 0.104746 0.0886801 -0.20584086 0.18807112 -0.019834382 0.40867642 0.29285094

lstm.bias_hh_l0 f4 [256]
00000000: 476d a5bd 474f 85be af04 aabd 613d 11be
00000010: c860 0dbe cc82 f7bd 8d83 27be d1c7 1d3d
00000020: 57d1 21bd 2145 76bd f4c0 eebd 965e 333d
00000030: 1612 90bd f7c6 efbd d412 d9bd 9993 6bbd
00000040: 8ddf 82bd b0ce c53d e90d 25be 6731 2ebe
00000050: 1969 dfbc 229c a0bd 0ea4 e7bd 541f 86bd
00000060: efeb d83d d3a6 d43b 7163 2bbe 795c 2dbe
00000070: a303 a1bd 04fd 513d b384 453d 7114 95bc
00000080: 37d3 8ebd d6db 823d e8aa 30be 1150 c9bd
00000090: 3b6f fd3a 6c92 a43b 5d20 11be 9374 0f3d
000000a0: f650 2ebe e2e1 07be 2d20 423d ddbe 1dbe
000000b0: 70c5 b93c 4eff 793c 97e7 a03d 4df3 a53d
000000c0: e9e3 f0bd 45f9 363c 4ae4 f9bd b704 41be
000000d0: b5a6 03be 5738 e0bc 7500 783e a8c2 fabd
000000e0: f6d8 e7bc d16d 293d f5e9 25bd a3ac 07be
000000f0: b5a2 293c b356 4cbd 5dec cc3e dcae 8c3e
00000100: ad72 b9bc 87db 20bd e57e 97bd 4cb4 71bd
00000110: a98e 313d f06f 5d3c 6ef6 983c 6d00 cf3d
00000120: ab4b 35bd 9c5e eabc fae2 2fbe c623 79bd
00000130: 88c2 873d 1618 873c defa a1bd 066a f1bd
00000140: 2161 053b bb9a 33bc 6308 e13c f004 90be
00000150: 4f5e 00bd 4f8f c33c ebb7 93bd d812 dabd
00000160: a3fd 2d3b d6ab b1bd 4cea 2d3d 1402 32be
00000170: dd67 e1bc daa9 8a3c eeed febd 0a7f 923d
00000180: 5e34 d23b 7416 8fbc c59b 37bd 4274 f0bd
00000190: f1c2 cebd 5d8b 3abe ff1e 1cbe 3de7 08be
000001a0: 2c2f 8e3d 6c9e 88bd c5be 05be 83cd 43bd
000001b0: 1585 c7bd 1ad9 893d 642e ec3d 0d48 18bc
000001c0: e9b1 403d 5457 23be 971a f8bd 8c9c 34bd
000001d0: f706 783c 572b 473d 5add b9bd 66f6 70be
000001e0: 1060 26be 5c22 bd3d 4dae 263d deee 2bbe
000001f0: 2aa3 273e 66a4 b93c f6bf 593d 2ee0 b33d
00000200: e7de b13c b74e 703d ecdb b63c 414a 87bd
00000210: 1db5 b0bd 8714 f9bc 6056 81bd e057 923d
00000220: a25d ec3d 9c02 dc3d 033a 5a3d 19f5 36bd
00000230: 9698 f5bc eec7 c23d 339f 01bc 2400 0abc
00000240: c4ba a13d a53e d0bd 0c83 34bd 9746 50bd
00000250: 6ee6 cfbc 7437 b93b b56d 693d be45 1fbd
00000260: 5272 9ebc bdc4 133c d6b8 b63b 5fd5 8fbd
00000270: 93fd 903d 2072 a23d 9dad ab3d 02d9 21bd
00000280: ac9d db3d d0de 87bd edcc fe3c e88b a9bd
00000290: ef66 463c 4252 e1bd 25bc bbbd 50dc a53d
000002a0: a69c 07bd b453 913d e3eb 513d 2df4 c5bd
000002b0: 020b 0ebd 6a19 98bd 4ad6 dabc 8d38 a63d
000002c0: 6139 593d 7f14 94bd 3394 793d 5332 473c
000002d0: e172 d9bd fe47 8b3d 1a07 ed3d 3e7a 8bbc
000002e0: 98e8 9ebd 7694 24bb eb1b 2fbd 12f6 ebbc
000002f0: cc22 d3bc 68bd be3d bc69 96bd bb8f ae3d
00000300: f353 5fbd db82 03be df49 23be b71c 55be
00000310: a5c3 62bc a83f d6bd c2ec 1abe d5b0 4ebd
00000320: 1927 243c cf0c 82bd f90c f8bd 355f 3bbd
00000330: ef6d 25be 64e5 93bc b231 05bc e4cc 22bc
00000340: ab02 a2bd 4f2f e63d 06d0 acba d62d 2abc
00000350: 531a a9bd 6da8 25be 7d33 f9bd 4408 1cbe
00000360: c9aa 413e c7cf 9bbd 1864 9fbd 8702 2bbe
00000370: 6ee2 51be eb25 e8bc 31f6 06be ad2f 8b3c
00000380: 0e4b b93c 29d1 bcbd ecba d8bd ad24 1bbe
00000390: a930 cdbc e82e 303d 0e99 1abe d6f0 9a3d
000003a0: eae8 64bd 781e 4dbd fe47 b1bd 91cf 9bbd
000003b0: 772f 2bbc e563 b3bd 090e 623d 4741 4d3b
000003c0: 8c62 febd 4670 a13d f0c9 38bc aeb7 d8bd
000003d0: d45b d9bd 7bde fabc 99f4 bf3d 656f dabd
000003e0: f4ff 613c 84f9 d4bd f4f6 b1bc 1ceb 2fbe
000003f0: 44f8 123d ee58 39be 0712 d73e fe19 593e
-0.080774836 -0.26037046 -0.083016746 -0.1418357 -0.1380645 -0.120854944 -0.16358776 0.038520638
-0.039506283 -0.06012452 -0.11657897 0.043791376 -0.070346996 -0.117078714 -0.10599294 -0.057513807
-0.06390295 0.09658563 -0.16118588 -0.17011033 -0.027271794 -0.0784228 -0.11310588 -0.06548944
0.10591876 0.0064896136 -0.16737153 -0.16929807 -0.07862022 0.051266685 0.048222255 -0.018198224
-0.0697388 0.06389587 -0.17252696 -0.098297246 0.0019335517 0.0050223377 -0.14172502 0.035023283
-0.17023072 -0.13269761 0.047393966 -0.1540484 0.022677153 0.015258623 0.07856672 0.081030466
-0.117622204 0.011167829 -0.12201746 -0.18849455 -0.12856562 -0.027370615 0.24218924 -0.12244159
-0.028301697 0.041364495 -0.040506322 -0.1324945 0.010353734 -0.04988737 0.4002408 0.27477157
-0.02263769 -0.039271858 -0.0739725 -0.059009835 0.043348942 0.0135154575 0.018672194 0.10107503
-0.044261616 -0.028609566 -0.17176428 -0.06082513 0.06628901 0.016490977 -0.07909177 -0.117878005
0.0020352083 -0.010962184 0.02746982 -0.28128767 -0.03133994 0.023872046 -0.07212814 -0.106481254
0.0026548884 -0.08675353 0.04245977 -0.17383605 -0.027515346 0.016926695 -0.12447725 0.07153137
0.006414934 -0.017466761 -0.044826288 -0.117409244 -0.10095776 -0.18217225 -0.15246199 -0.1336946
0.06942591 -0.066708416 -0.13061054 -0.047803413 -0.0974218 0.06730862 0.11532286 -0.009294522
0.04704467 -0.15951282 -0.121144466 -0.044094607 0.015138379 0.048625316 -0.090754226 -0.23531494
-0.16247582 0.09235069 0.04069357 -0.1679034 0.16370836 0.0226614 0.053161584 0.08782993
0.021712733 0.05866882 0.022321664 -0.0660596 -0.086282946 -0.030405296 -0.06315303 0.07145667
0.115412965 0.10742685 0.05327798 -0.044667337 -0.029979985 0.0951079 -0.007911491 -0.008422885
0.07896951 -0.101681985 -0.04407029 -0.05084857 -0.025378432 0.0056523625 0.05698939 -0.03888487
-0.019341622 0.009019074 0.0055762334 -0.07023119 0.070796154 0.07931924 0.083827235 -0.039513595
0.10723433 -0.06634295 0.031103576 -0.08278638 0.012109502 -0.110020176 -0.09166745 0.08098662
-0.033108376 0.07096043 0.05125035 -0.096657135 -0.034678467 -0.07426722 -0.02671351 0.08116255
0.053033236 -0.07230472 0.06093235 0.012157994 -0.106176145 0.06800841 0.1157362 -0.017026063
-0.077592075 -0.0025112904 -0.042751234 -0.028803859 -0.025773428 0.0931347 -0.07344386 0.08523508
-0.05452342 -0.12842886 -0.15946148 -0.20811735 -0.013840591 -0.1046136 -0.15129378 -0.05046161
0.010019087 -0.06350099 -0.12111849 -0.045745093 -0.16155218 -0.018053718 -0.008129524 -0.009936545
-0.07910665 0.11239492 -0.0013184554 -0.010386905 -0.08256974 -0.1617753 -0.12168024 -0.15237528
0.18912806 -0.0760799 -0.07782763 -0.16700183 -0.20496532 -0.028338393 -0.13179852 0.016990507
0.022618797 -0.09219582 -0.105825275 -0.1515071 -0.025047617 0.043013483 -0.15097448 0.07565467
-0.055886187 -0.050077885 -0.086563095 -0.076079495 -0.010448328 -0.08759288 0.055189166 0.0031319426
-0.1242114 0.078827426 -0.011278614 -0.10581909 -0.10613218 -0.030623665 0.09372825 -0.10665778
0.013793934 -0.10399154 -0.021724202 -0.17179531 0.035881296 -0.1810033 0.4200594 0.21201321

fc.weight f4 [5, 64]
00000000: 24fd 3bbd e8e9 2b3c 7df6 a5bd 4303 36bd
00000010: c1c2 953c 8abd c1bd 0421 943c 1d54 913b
00000020: dec8 ad3d 25ee b8bb 986d 193d 767d 9fbd
00000030: f90c c93d c40f 513c dcdf c33c 75bc 24bd
00000040: c352 c63d 6c1d efbc 77cf d0bd 1cab bdbb
00000050: 8670 313c 05ab 4dbd 2464 9a3d 2bc3 b53d
00000060: 83a7 14bd 3452 163d ac43 aebb 5cd3 ad3d
00000070: 7cce 88bc 40cf 1c3d b91e 1c3e 444d 763c
00000080: 1246 e83d fa15 68bc 6383 a5bd e266 d1bc
00000090: 77b9 a5bd 71ac 7ebd 9861 88bd c656 2d3d
000000a0: b1ef 53bb 688e 23bc 46f5 c13c c779 2a3d
000000b0: 7866 1bbd 5008 07be f495 d43c e0b2 693c
000000c0: 2c1c 9cbc 259f 2d3d 4a27 6ebd f891 b0bd
000000d0: e0b2 bfbd 9c17 073d 00f0 7c3d 4960 c2bd
000000e0: 64ad 85bd b72e a4bb b34d b8bd 3429 fe3c
000000f0: c379 733d 109b 66bd 8eaf 85bd 1aab 1e3d
00000100: f8e0 143d 8852 1abc 5270 c7bc 2b66 d83b
00000110: 03a9 c93d 6bdc c33d e5bc 46bd 04df 83bc
00000120: a705 03bc ef31 743d 0053 b6bd cbda bd3d
00000130: f464 3fbd 653e 8c3c a0ee 43bc 67b3 323d
00000140: 21aa 7b3c 6eac 55bd 3db8 73bd ae32 c33c
00000150: b8a8 093c faf2 cd3c e38a 06bd 8485 573d
00000160: ccd8 a13c 8d8f 803d e354 433d 7b09 97bd
00000170: 6f51 51bd 0ac5 203d fffb debd f84b 04bd
00000180: 923e 8fbd 7bac 023d e4ab a8bc 99bb 433d
00000190: feb1 dbbb 1efd 10bd c612 9e3d 8773 7c3d
000001a0: f658 073d 5e3f 8c3b 3507 c1bd 814c 19bc
000001b0: 538a 733d c3c3 3dbd 9a0d 4f3c f464 443c
000001c0: 679c 2cbc 433d d3bd 141a d23c c77b 303d
000001d0: 305a f23b 92ac 33bd 5fb3 743d 675a e7bc
000001e0: 808f 6a3d cc17 103c 38e9 553d 1d73 06bd
000001f0: 559d 84bd dc2e 6e3b 44c1 a2bd d1bb c53d
00000200: 5369 073d 0d10 773c 3a6d ce3c 591d 8e3c
00000210: 4ccd 74bb fe77 75bd 1b3e 113d 146f 2d3d
00000220: cd9e 5d3d 344c afbd 3589 bc3d c014 943d
00000230: bbec d23d 5f56 2c3d 3b7f b63d c2c4 4ebd
00000240: 8c8b 9cbd 4408 ddbd e08f 123c 8fa7 b13d
00000250: 99d0 6cbd 606b 94bd 9426 26bc 34a0 5c3d
00000260: b23a 183d 20c1 e03b 2d27 d63c 7f72 d43c
00000270: 6c1a 763d de34 223d 52a5 993d 4cd9 9bbc
00000280: e6b4 a8bd 5026 20bc c45c aa3c fe82 873d
00000290: 3ae3 08bd 7a8e a53c e959 583d 3910 943d
000002a0: 636e 4dba e493 98bc 3d5d 2dbd 5085 55bd
000002b0: b269 bc3c 7eae 6fbd 02f5 13bd e484 5d3c
000002c0: 1b8f b83d fb12 92bd 1a8c 5739 6880 70bc
000002d0: 9209 4fbc be39 aa3b f18e b23d 7e6e 11bd
000002e0: 3b8a 523d 3364 05be 21d4 363c d6e4 a0bd
000002f0: b8ad 6abd cd55 7ebd 68a7 00be 1676 d13d
00000300: 36a8 3fbd 684a 90bd 4311 cb39 52c8 59bd
00000310: 3874 243d 2313 b83c 7901 ec3b d154 48bd
00000320: 497a d73b b2f0 af3d ee19 c2bd f8ec ea3d
00000330: 009b f8bb e5b8 173d 83d6 903b a2f0 dabb
00000340: 8a46 f0bc 4087 6abd 08d9 b3bb 7861 223d
00000350: d462 bc3a 2e34 f8bb 5115 3e3d 0a04 cf3d
00000360: 03ce 133e 6408 01bd c0a3 4c3d 7663 823c
00000370: 3431 573d 0243 cb3c 9639 373d 3bad ec3b
00000380: 8e56 82bd 1c41 3fbd ebb2 bf3c 04ce e03c
00000390: d5a2 2e3d eb8d c43d e884 d63d 6c78 b23d
000003a0: 0195 523c 9591 86bb 370c acbd d75d b2bd
000003b0: 8d9b b93d 400a 79bc 7484 7e3d 22d8 4fbc
000003c0: e77e a3bd 0292 09be 363b f4bd 6e54 16bd
000003d0: 98e4 83bd 6b45 dc3c 7512 d83d 484c 7c3b
000003e0: 3576 963d 9384 bdbd 17b2 0f3e 1a93 243b
000003f0: f679 e7bd 65b4 433d 0497 00be 27ac 323e
-0.04589571 0.010492779 -0.081036545 -0.044436704 0.018281342 -0.0945998 0.01808215 0.004435076
0.08485578 -0.0056436234 0.037458032 -0.07787602 0.098169275 0.0127601065 0.023910455 -0.04021879
0.09683754 -0.029188834 -0.10195821 -0.00578822 0.01083005 -0.050211925 0.075386316 0.08875116
-0.036292564 0.03669949 -0.0053181257 0.08487579 -0.016700022 0.038283587 0.15246095 0.01503307
0.1134149 -0.014165396 -0.08081701 -0.025561754 -0.08092015 -0.06217617 -0.066592395 0.04231908
-0.0032338912 -0.009982683 0.023676526 0.041620042 -0.03793952 -0.13186765 0.02595041 0.0142638385
-0.019056402 0.0423881 -0.058142938 -0.08621591 -0.093602896 0.0329815 0.06175232 -0.09491021
-0.06527212 -0.0050104517 -0.08999195 0.031025507 0.059442293 -0.056300223 -0.06527625 0.038737394
0.03634736 -0.009419091 -0.02434555 0.0066039762 0.098466896 0.09563526 -0.048519988 -0.016097553
-0.007996953 0.059617933 -0.0890255 0.09270247 -0.046727136 0.017119596 -0.011958748 0.043628123
0.015360386 -0.052166395 -0.059501875 0.023827877 0.008402042 0.025140274 -0.032847296 0.052617565
0.019756697 0.0627738 0.047688376 -0.07374855 -0.05110305 0.03925041 -0.10887908 -0.032299012
-0.06994356 0.03190277 -0.020589776 0.04778633 -0.006704568 -0.03539764 0.077184245 0.061633613
0.033043824 0.004280015 -0.09425203 -0.009356619 0.059458088 -0.04632927 0.01263752 0.01198696
-0.010535336 -0.10314419 0.0256472 0.043086793 0.007396005 -0.043865748 0.059741374 -0.02824135
0.05726576 0.008794736 0.052224368 -0.032824624 -0.06475321 0.0036343848 -0.07947019 0.09654964
0.03305943 0.01507951 0.025198568 0.017347978 -0.0037353812 -0.059928887 0.03545962 0.04234226
0.054106522 -0.085594565 0.09205858 0.0723052 0.10299059 0.042074557 0.08910986 -0.05048061
-0.07643804 -0.10792592 0.008945435 0.086745374 -0.05781612 -0.07247043 -0.010141034 0.05386372
0.03716535 0.00685896 0.026141727 0.025933502 0.06008379 0.0396012 0.075022355 -0.019024514
-0.08237629 -0.009774759 0.020796187 0.06616782 -0.033419825 0.02020954 0.05282012 0.07229657
-0.00078365783 -0.018625207 -0.042325247 -0.05212909 0.022999618 -0.058516018 -0.03612233 0.013520453
0.0901167 -0.071325265 0.0002055619 -0.014679052 -0.012636559 0.0051948717 0.0871867 -0.035505764
0.051401358 -0.13026504 0.011158974 -0.07856147 -0.057294577 -0.062093545 -0.1256386 0.10227601
-0.046791278 -0.07045442 0.00038732038 -0.053169556 0.040149897 0.022470063 0.007202324 -0.048909012
0.006575857 0.08590831 -0.09477602 0.114709795 -0.007586837 0.037041564 0.004420103 -0.0066815177
-0.02933051 -0.05725789 -0.0054885186 0.039643735 0.0014372715 -0.0075745797 0.046407048 0.10108192
0.14434056 -0.031502143 0.04996085 0.015916567 0.052537158 0.024812225 0.044732653 0.007222799
-0.06364165 -0.046692953 0.023400744 0.027441986 0.042635757 0.09597381 0.104745686 0.08714375
0.012852908 -0.00410671 -0.08400767 -0.08709305 0.09062872 -0.015200198 0.062138036 -0.012685807
-0.07983189 -0.13434604 -0.11925356 -0.036701612 -0.06440085 0.02688857 0.105503954 0.0038497616
0.07346765 -0.09253802 0.1403278 0.0025112093 -0.11302559 0.04777946 -0.12557608 0.17448483

fc.bias f4 [5]
00000000: 3fbf 1abd 4ad2 313d e96c df3c 6d2c 7c3d
00000010: 8bb9 8c3d
-0.037780043 0.043413438 0.027273612 0.061565805 0.06871327
