cnn_lstm_model.pth (torch, 149231 bytes, 8 tensors)

conv.weight f4 [64, 13, 3]
000000 f2 46 05 be 74 77 8e 3d 48 57 b0 3c 97 cf ff bd
       -0.13015345 0.069563776 0.021525994 -0.124907665
000010 56 bc 82 3d 94 a9 18 be 78 3b 35 be 0e 5a 6b 3d
       0.063835785 -0.14908439 -0.17698467 0.05745893
000020 11 34 42 be a3 5b 14 bd 69 fd 00 be d1 c9 8a bd
       -0.18965174 -0.036220204 -0.12596668 -0.06776775
000030 09 fe bb bd d5 9c 22 bd e4 62 8b be 4a 99 09 3e
       -0.09179313 -0.039700348 -0.27223885 0.13437381
000040 00 8f 1b bd 76 92 67 3d 49 1a 96 3d a8 0d 70 3d
       -0.037978172 0.05653616 0.07329232 0.058606774
000050 5c a4 08 3e 0c 16 42 be 22 54 0f 3e 8a 92 db 3d
       0.13343948 -0.18953723 0.13996938 0.107213095
000060 37 85 72 3d 95 5d 6b 3d b9 6e 27 3d e5 cd 1e 3d
       0.059209075 0.057462294 0.040877078 0.038770575
000070 8d ae 13 be 33 93 6b bd 86 53 c5 3d 98 42 15 be
       -0.14422055 -0.057513427 0.096350715 -0.14576185
000080 99 f0 36 3e b8 30 0c 3e ea c3 a8 bb df 1e b7 bb
       0.17865218 0.1369046 -0.005150308 -0.005588397
000090 93 e4 59 bd a6 5d 7d bd f5 8e 3c bd ab 51 2d be
       -0.0531965 -0.06185689 -0.046034772 -0.16925685
0000a0 78 7f 38 3d 1e d1 7f be 28 b7 48 be cb 49 0e 3c
       0.04504344 -0.24982116 -0.19601119 0.008684586
0000b0 88 f8 4e be da d7 06 be 26 16 54 be 59 e2 b7 3c
       -0.20211995 -0.13168278 -0.20711574 0.022446798
0000c0 b1 3f f0 ba 9b 06 6e bd a4 59 52 be b0 ec ea 3c
       -0.0018329528 -0.05811177 -0.20542008 0.028677315
0000d0 21 13 f5 3d 57 85 cb 3e 48 cc 0d 3e d6 2b 35 be
       0.11966539 0.39750168 0.13847458 -0.17692503
0000e0 78 bd 35 3b 31 0f cb bd f6 ed 1b bc 2d 30 01 be
       0.002773134 -0.09915007 -0.0095171835 -0.12616034
0000f0 53 90 32 3e 07 1e b4 3d ef 9b d0 3d b2 03 80 bd
       0.17437868 0.0879479 0.10185992 -0.06250705
000100 e5 8f c9 bd 59 d7 9f 3e 81 fb de 3c 48 22 4b 3e
       -0.09841899 0.31218985 0.027219536 0.19837296
000110 bd 22 25 3e cf 9f 13 3d 00 0a d1 3a f3 1f 78 3e
       0.16126533 0.036041077 0.0015948415 0.24230938
000120 31 8d 66 3e f0 b3 3b bd ff 50 22 be 77 89 88 be
       0.22514798 -0.0458259 -0.1585121 -0.26667377
000130 d5 e8 10 be 49 1a 80 be 91 4f 29 bd 91 4e c3 bc
       -0.14151318 -0.25020054 -0.041335646 -0.023841174
000140 64 37 4c 3d 4a 95 80 3d 8b 6d 81 bd d6 30 ab bc
       0.049857512 0.06278475 -0.06319722 -0.02089731
000150 48 f6 be 3d 9d e2 e1 bd 76 34 4b be 25 3b 00 be
       0.09324318 -0.11029551 -0.19844231 -0.12522562
000160 1a 3b 93 bd eb 96 8f 3b 48 1a 65 bd dd 6e 32 3e
       -0.07189007 0.0043820045 -0.055933267 0.17425103
000170 5f 60 a8 bb 3b 5d d2 3d 01 51 82 3b bb f4 27 be
       -0.0051384415 0.102716886 0.0039769416 -0.16401951
000180 37 3c 12 be c7 1a 2e be b4 b5 50 3d 6b 2d 4b be
       -0.14280783 -0.17002402 0.050954536 -0.19841544
000190 1b 5a ac bd 20 71 60 bd 82 50 86 bd 92 ae 19 3d
       -0.08415624 -0.054795384 -0.065583244 0.03752
0001a0 52 8c 0b 3e 71 ee 0f be 02 b2 a5 bd 00 96 ef 3d
       0.13627747 -0.14055802 -0.08090593 0.11698532
0001b0 38 ea 34 bd 68 e6 8f 3c 4f 6b a7 bd 07 56 43 be
       -0.04416868 0.017565921 -0.08174764 -0.19075786
0001c0 9f 41 a6 3d 34 d2 54 3b 8f 3d 3d be 28 04 57 3d
       0.08117985 0.0032473924 -0.18480514 0.052494198
0001d0 35 d4 fc 3d 28 dd 69 3d 3b 1b 63 3d 30 62 67 3d
       0.12345163 0.057095677 0.05544589 0.056490123
0001e0 60 52 c0 bd 7b d6 1b be 30 54 41 bc 62 ae 1c be
       -0.09390712 -0.15218537 -0.011799857 -0.15300897
0001f0 c4 9a 27 3d 17 ba 05 3e b7 c7 ef bd e5 de 28 be
       0.04091908 0.13059269 -0.117080145 -0.16491278
000200 67 64 14 be e1 ae 7f be f0 b7 0c be d6 2a 38 3e
       -0.14491425 -0.24969055 -0.13742042 0.1798509
000210 06 dd c1 3d 5f 79 1d 3e bd 4e 70 be 7e 41 37 3e
       0.09465985 0.1537833 -0.23467536 0.17896077
000220 17 dd 1a 3e 18 90 c5 bd 72 21 b0 3d 93 42 9a 3e
       0.15123402 -0.09646624 0.08600129 0.30128917
000230 bb de 0a 3f 0e 8e d2 3d 23 66 3b 3e a4 cd bb 3e
       0.5424611 0.10281001 0.18300681 0.3668033
000240 fb fb 80 be fd f7 3d bc a8 31 fe 3c a0 2a 4a 3e
       -0.25192246 -0.01159477 0.031029537 0.19742823
000250 4a e4 c1 bd c9 8c f2 bd fc ef d6 bd c4 6d 17 be
       -0.09467371 -0.11843259 -0.10494992 -0.14787966
000260 4a 5d d9 bd 1f 47 6d 3e a7 e9 4a 3e 14 47 26 3d
       -0.106134966 0.23171662 0.19815694 0.04059513
000270 f5 ff a7 3d 0b 03 c3 bd 71 de 0e bd bc 11 99 3b
       0.08203117 -0.09522065 -0.034880105 0.0046713036
000280 5a be 0d 3e 2d 9c 09 bd f5 24 d0 3d 92 55 a5 bd
       0.13842145 -0.033596206 0.10163299 -0.08072962
000290 ef f3 ac bd c4 c8 2c 3b 45 d3 6d bd a0 d1 3a 3d
       -0.08444964 0.0026364783 -0.05806281 0.04561007
0002a0 a1 31 8b be 75 9d ed 3e 97 ad f1 3b e3 e0 19 3e
       -0.271863 0.46409193 0.00737543 0.15027194
0002b0 81 54 98 bd 3f 08 53 3e 80 2e 9b 3d a2 65 f1 3d
       -0.07437993 0.20608614 0.075772285 0.11786963
0002c0 06 e9 00 3e a7 be df 3d d3 1d 73 3d e3 0b 2e be
       0.12588891 0.10925036 0.059354614 -0.16996722
0002d0 a2 82 8f bd 4b b3 77 bd 38 76 07 3e 0e f8 b4 bd
       -0.07007338 -0.06047372 0.1322869 -0.08836375
0002e0 61 af 38 be 2b b3 3a bd c4 a9 17 3d 75 59 34 3e
       -0.18035652 -0.045581024 0.037027135 0.1761225
0002f0 6b a4 d2 3b ce 17 24 3e 88 19 ba bd 8d 13 55 bd
       0.0064282916 0.16024706 -0.09086901 -0.0520206
000300 58 ea e6 3d bf 36 c9 3c e6 7d 77 3d 51 53 f3 bd
       0.11275166 0.024562238 0.0604228 -0.11881126
000310 ed 41 5e 3d 20 b3 6a be 80 58 0d 3e 6f b8 34 be
       0.05426209 -0.22919893 0.13803291 -0.17648481
000320 07 b0 3c be 10 d1 f1 3c 6e 42 a4 bc 6c 90 eb bd
       -0.18426524 0.029518634 -0.020051207 -0.11502156
000330 c9 68 26 bd b6 37 78 3d ee 2c 94 bc 0b 97 63 3e
       -0.040627275 0.060600005 -0.01808783 0.22225587
000340 c3 af aa 3d ee 09 2a 3b d6 b5 78 bd 43 a6 e4 be
       0.08334305 0.002594586 -0.060720287 -0.44658098
000350 17 ca 77 bd ac f4 13 be a9 dc a3 be a1 56 05 3d
       -0.060495462 -0.14448804 -0.32004288 0.03255332
000360 f2 03 6d bd eb 4b 3e 3e 52 92 27 be 56 2f 96 3e
       -0.05786509 0.18583648 -0.1636441 0.2933299
000370 db 4c 14 3e c8 3f c6 bd f8 06 c9 bd 98 08 25 3e
       0.14482443 -0.09680134 -0.09815782 0.1611656
000380 bf 20 ec 3d 5c 74 bc bb d1 f3 55 3d c2 f8 9f bd
       0.11529683 -0.005751176 0.052234475 -0.07811119
000390 97 9b ff bd 02 6f 8e be 2c e0 5a be bf 3c 66 bd
       -0.12480848 -0.27819067 -0.21374577 -0.056210276
0003a0 37 b1 eb bd 09 b4 11 be 7a 8b a4 bd 22 6a 05 be
       -0.115084104 -0.14228834 -0.080344155 -0.13028768
0003b0 53 ae e9 bd d6 6a f9 3d df c7 05 be f4 bd f8 bb
       -0.11410203 0.121785805 -0.13064526 -0.0075910036
0003c0 16 8c dc b9 06 02 c3 bd af 81 b3 bd 20 3b bc 3a
       -0.00042066042 -0.0952187 -0.087649696 0.0014360882
0003d0 58 c9 1d be c5 91 60 be cf 32 a2 bc 61 3e 3e 3e
       -0.15408838 -0.21930607 -0.019799618 0.18578483
0003e0 f0 e4 21 3e f4 33 56 be 47 bd 19 be f9 6c 9f 3d
       0.15809989 -0.20918256 -0.1501361 0.07784457
0003f0 0b d3 14 bd e9 fa 61 be fb ed 49 be e2 98 9b 3d
       -0.03633408 -0.22068371 -0.19719689 0.075975195

conv.bias f4 [64]
000000 24 1e b6 3d 4f 83 b0 3c 92 3c d3 3d 39 6b 17 be
       0.088924676 0.021546988 0.10314287 -0.14786996
000010 29 95 f5 bd 2e 5b 30 3e 24 7a 25 3e 79 b6 9e bd
       -0.11991341 0.17222282 0.16159874 -0.07749648
000020 30 f8 d9 bd e7 0f 8e 3c 5a 3c 56 bd 1c 2d c2 bd
       -0.10643041 0.017341567 -0.05230365 -0.0948126
000030 01 d4 5a 3e 69 d0 a9 bd a8 e4 5f 3c 43 41 56 3d
       0.21369936 -0.08291704 0.013665356 0.052308332
000040 15 27 8d bd 67 4d 0a 3d 41 b2 78 bd 7a 22 1a be
       -0.0689222 0.033765223 -0.06071687 -0.15052214
000050 36 f8 2a be 11 df 2f be a1 6c 5c 3c bb 76 43 bd
       -0.16696247 -0.17174937 0.0134536335 -0.047720652
000060 ae a3 7d bd 05 0c e8 3d 19 6c 46 3e 20 72 96 3c
       -0.061923675 0.113304175 0.19377173 0.018364966
000070 ed 0f 0d 3e 83 9e 5d 3b f4 6d c4 bd 26 8c 68 3e
       0.13775606 0.0033816404 -0.095912844 0.22709712
000080 4b 1e 29 be 1a a9 ed bd 02 ac 4d 3d ae 71 ff bd
       -0.16515462 -0.11604519 0.050212868 -0.124728546
000090 95 3f 16 be 8a 75 39 3d 96 45 08 3e 90 10 37 bd
       -0.14672692 0.04527811 0.13307795 -0.04469353
0000a0 70 de 04 3e 23 f1 ad bd 66 13 8a be 53 a7 5b 3d
       0.12975478 -0.08493259 -0.26967925 0.05362637
0000b0 49 d6 50 bd d8 e6 7e be 31 e5 d6 bc 39 22 07 be
       -0.05098561 -0.24892747 -0.026232334 -0.13196649
0000c0 c5 bf 8c 3e f2 10 9f bd 15 04 e5 3d be 9b 0a be
       0.2749006 -0.07766904 0.11182419 -0.13535973
0000d0 5a 34 2e bd fc a3 ee bd 01 e4 c2 bd d8 49 fa bd
       -0.042530395 -0.11652371 -0.095161445 -0.12221116
0000e0 ef 0c 8a 3d cc 11 1c be 95 01 16 be dc 1b 0c 3e
       0.06740748 -0.15241164 -0.14649041 0.13682503
0000f0 23 13 07 3e 2d bc b2 3d 05 c2 6a bd e0 b4 34 3c
       0.13190894 0.08727298 -0.057313938 0.011029452

lstm.weight_ih_l0 f4 [256, 64]
000000 7e 33 ff 3b a3 ea c3 be 00 bf ce bd ca ec a2 3d
       0.007788121 -0.3826495 -0.10095024 0.0795532
000010 fa 73 c2 bd e7 23 8d be 38 58 00 3d 18 d2 b8 3c
       -0.09494777 -0.27566454 0.031334132 0.022561118
000020 e8 04 2f 3d bc 34 71 bd 2e 20 16 3d e3 42 39 bd
       0.04272929 -0.058888182 0.036651783 -0.045229804
000030 46 65 ee ba 3b 35 19 3e a2 b6 61 3c 3d 00 a5 bd
       -0.0018188141 0.14961712 0.013776453 -0.08056686
000040 84 da 16 bc cd db 8e ba 15 cd 62 3c c8 fc fd 3c
       -0.009207372 -0.0010899246 0.013842841 0.031004325
000050 d3 d8 42 3d d3 e4 90 bd 95 ea c1 3c e1 64 f2 be
       0.04757006 -0.07074895 0.023671428 -0.4734259
000060 8c b4 99 3d 60 57 df 3d d9 33 37 3e 79 f1 4c 3d
       0.0750514 0.10905337 0.17890872 0.050034974
000070 1c 00 36 be c8 14 0f 3e fa 65 fc bc 14 2c f8 bd
       -0.17773479 0.13972771 -0.030810345 -0.12117782
000080 59 db 6a bd 50 85 e2 bd dd 0f 4c be ad c7 ac bd
       -0.057338092 -0.110605836 -0.19927926 -0.08436523
000090 ad b3 d0 bc 19 fd c4 3c d0 fe 1d be b1 0e 19 bd
       -0.025476301 0.024046468 -0.15429235 -0.037367526
0000a0 79 58 12 bd 7c 56 ee 3d 02 47 c0 be 3e 1b 20 3b
       -0.035728905 0.11637589 -0.37554175 0.00244303
0000b0 bb 6d 97 bd 84 11 e7 3a b0 3f a6 bb 76 9d 43 be
       -0.07393976 0.0017629121 -0.00507351 -0.19103035
0000c0 4f a8 88 be c3 28 df bd 31 52 9c bd 14 60 de bd
       -0.2669091 -0.108964466 -0.07632864 -0.10858169
0000d0 c4 3b a3 bd d4 5a 51 3e cf dd 93 be ba ee 1a 3c
       -0.07970384 0.20444804 -0.28880164 0.009456331
0000e0 af 49 56 bc 95 5f 1a 3d 1c d5 8b bd b8 1f 3a bc
       -0.013079091 0.03768881 -0.06827757 -0.011360101
0000f0 95 03 33 3d a7 86 88 be aa c5 99 bc 63 37 27 be
       0.043704588 -0.26665232 -0.018771011 -0.16329722
000100 8e 75 db 3d df 9b f4 3d 73 32 80 3d 81 fa ed bc
       0.10715781 0.119437926 0.062596224 -0.029050114
000110 dd 00 47 3e ca 05 6f 3d cd 27 21 3d b8 6a c3 bd
       0.19433923 0.05835513 0.039344598 -0.09541839
000120 1a 13 b8 3d 99 a0 9b 3d 33 2a b3 3d 6c ed c3 bd
       0.08988018 0.07598991 0.08748283 -0.09566769
000130 00 81 07 bc 60 db 5c 3e 1a bf 70 bd c6 77 88 3d
       -0.008270502 0.2156806 -0.058776 0.0666347
000140 49 d3 37 be f5 0b 76 3d 5e b1 13 3c f8 00 a4 bc
       -0.17951693 0.060069997 0.009014456 -0.020019993
000150 4f 7a d6 3c ff 83 ca 3c 75 bb cc 3c 60 05 4e be
       0.026181368 0.024721144 0.02499173 -0.20119238
000160 b8 3a e0 bc bc e6 54 3b c7 b1 26 bd 35 5e 03 3e
       -0.02737175 0.0032486161 -0.040696885 0.12828906
000170 a3 36 05 3c f0 b9 ff bd f5 50 07 3d 79 7f 2f 3d
       0.008130702 -0.12486637 0.03303619 0.042846177
000180 d7 19 cb 3d d4 30 16 bd 2d 45 c7 3c 53 62 a1 bd
       0.09917038 -0.03666766 0.024324978 -0.07880082
000190 78 df 1b 3d 2e 97 9e 3d 8f cd 95 be 33 17 ea bd
       0.038054913 0.07743679 -0.2925839 -0.11430206
0001a0 69 22 b3 bd f6 66 24 bc e2 9a 92 be f4 ba 00 be
       -0.087467976 -0.010034313 -0.2863379 -0.12571317
0001b0 cb 71 e6 3d 7d 2b 4d 3e 09 95 44 3e d3 f5 18 be
       0.11252173 0.2003612 0.19197477 -0.14937524
0001c0 13 21 4a be bd 3f 19 bb db 65 62 3d 0c 1c 45 bd
       -0.1973918 -0.0023383938 0.05527292 -0.04812245
0001d0 2c 70 c2 bd 33 20 9c bc 02 ad 41 3e ed f8 7b bd
       -0.09494051 -0.019058323 0.18913653 -0.06151669
0001e0 9c 51 f5 bc 35 f7 d0 bd bd 8f ad 3d 52 5a 7d 3d
       -0.029946141 -0.10203401 0.084746815 0.061853714
0001f0 fc 4d 70 be 7f a5 0a 3d 56 24 f3 bc e5 ad 31 be
       -0.23467249 0.033849236 -0.029680412 -0.17351492
000200 6e 40 4e be 3a 17 7e 3e 15 23 13 bb 3f 7f b6 3e
       -0.20141765 0.24813548 -0.002245133 0.35643956
000210 3f 26 fc 3d d8 ad 08 be 58 50 08 bd 4e 8f 11 3d
       0.12311982 -0.13347566 -0.033279747 0.035537057
000220 7d 12 82 3d 35 0d 86 3d 66 2c 83 bd 49 fb 8f bd
       0.063511826 0.06545488 -0.06404953 -0.07030351
000230 89 c4 62 be 7f a5 82 bd 11 2b 82 3c 64 67 88 3d
       -0.22145285 -0.06379222 0.015889676 0.06660345
000240 1f d0 7d 3d 00 f7 95 3d 70 80 95 bd d4 ca 49 3d
       0.061966058 0.07322502 -0.07299888 0.049265698
000250 c3 d6 1b 3d 21 89 57 bd 10 45 cc 3d c5 02 93 be
       0.03804661 -0.05262101 0.0997411 -0.2871305
000260 a2 9c 9b bd 6e 11 cc 3c a9 0e 03 3e 8d 34 fb bd
       -0.07598235 0.024910655 0.12798561 -0.12265883
000270 21 f4 40 3e c1 d2 89 3e 9f c8 82 3e a6 2e f5 be
       0.18843128 0.26918605 0.25543687 -0.47887152
000280 3d 18 4f 3e cd a2 b2 bd 8b 24 e8 3d 9f 61 48 3e
       0.2022409 -0.08722458 0.11335095 0.1956849
000290 3f ce 76 3d 1c d6 18 3f 22 32 8d be e7 04 fc 3e
       0.060255285 0.59701705 -0.2757731 0.4922249
0002a0 9a 51 ce 3d d2 c2 67 3c df d9 42 3d 23 27 61 bd
       0.10074158 0.01414557 0.04757106 -0.054968964
0002b0 2d bc 3e 3d 27 d3 f3 3d a3 87 b5 3d af 6e 86 3e
       0.046566177 0.119055085 0.08863761 0.2625632
0002c0 82 ae 24 bf 0f 7b 09 3f 4b 22 44 3d ce ea ca 3d
       -0.6432878 0.537034 0.047884267 0.09908067
0002d0 0d 3e d5 bd 4e ec 04 3f 10 70 11 3f 1e 84 d2 3d
       -0.10412226 0.5192307 0.5681162 0.102791056
0002e0 0b a1 aa 3c a0 24 b0 3d 3d f3 bc 3d ed 1e 59 3d
       0.020828744 0.08600736 0.092260815 0.05300801
0002f0 5d ff ae 3c 06 b8 57 3e 3c 77 89 bc 03 a4 15 3e
       0.021362001 0.21066293 -0.016780488 0.14613347
000300 bd 7f c8 bc 3f f4 57 be 30 ff 84 3d dc 70 9b 3d
       -0.024474973 -0.21089266 0.06493986 0.075898856
000310 bb e7 b4 3d a4 17 ac 3d aa 03 75 3d 60 38 89 bd
       0.088332616 0.084029466 0.059817947 -0.06700206
000320 86 64 5e ba 1a 30 71 bd b1 bf 80 3d 1e 36 d4 3d
       -0.0008483607 -0.058883764 0.06286562 0.103618845
000330 6c da fe bd 95 48 77 3e 34 d9 f3 3d 56 1a 93 bd
       -0.124440044 0.24148782 0.119066626 -0.071827576
000340 8f 85 1d be 17 64 06 be 2c 6b 1b bd 40 58 35 bd
       -0.1538298 -0.13124119 -0.037944004 -0.044273615
000350 55 15 87 3e 22 d7 3b 3e d7 3a 07 bd c9 ae a4 bd
       0.26383463 0.18343785 -0.0330151 -0.0804115
000360 52 f2 de bd c0 a8 fe bb 06 2c 32 bd cc e4 12 3d
       -0.10886063 -0.0077715814 -0.043499015 0.03586273
000370 b2 d9 5d be 44 b3 95 bd bb 61 04 3e 90 18 00 be
       -0.21665075 -0.07309583 0.12927906 -0.1250937
000380 23 4a 96 bd 7b f0 a4 bb 57 d4 3c bd b2 dd c6 bd
       -0.07338359 -0.0050335503 -0.04610094 -0.09710254
000390 86 31 44 3d 61 19 87 be c6 7e 8c be 19 d1 0f bd
       0.04789879 -0.2638655 -0.2744047 -0.03511152
0003a0 43 0c 01 be 31 3d 44 3d d7 12 30 3e bd e0 db bd
       -0.12602334 0.04790992 0.17194687 -0.10736225
0003b0 80 0f 04 3e 12 ef 15 bd 12 f0 ef 3d bb 84 56 bd
       0.12896538 -0.03660495 0.11715712 -0.052372675
0003c0 3f ec de bd 5f d9 cf 3d d4 af 42 3c 64 ba bd bd
       -0.10884904 0.10148882 0.011882741 -0.09264067
0003d0 29 58 c7 3d e9 0c ce be c7 95 fa bc 94 59 92 3d
       0.09733612 -0.40244225 -0.030588998 0.07145992
0003e0 56 d2 49 3d 5b dc f1 bd 4e 79 ea bd cc a4 28 be
       0.049272858 -0.118096076 -0.11448918 -0.16469115
0003f0 6b 25 95 be 28 1d 45 be 33 b0 e4 3c 8b 37 98 be
       -0.2913011 -0.19249403 0.02791605 -0.29729876

lstm.weight_hh_l0 f4 [256, 64]
000000 62 77 0c 3e 46 4e 81 3d 05 12 de bd a0 50 bd bd
       0.13717416 0.063137576 -0.10843281 -0.092438936
000010 af 14 8b bc 28 2d fe bd 60 46 b1 3c 4f d0 b6 3d
       -0.016977636 -0.124109566 0.021640003 0.089264505
000020 bb 13 5b 3e c1 ff 16 3e 45 a2 ab bc 70 fe 9f bc
       0.21394245 0.14746 -0.0209514 -0.019530505
000030 af 55 09 3d 94 23 4d 3b 29 03 e5 bd 50 e5 57 3d
       0.03352898 0.0031301724 -0.111822434 0.052708924
000040 8f 92 8e 3e de a9 30 bd 2d db 82 3d 02 0f b6 3a
       0.2784619 -0.043130748 0.06389461 0.0013889971
000050 69 01 e3 3a b7 ed a7 bd df 5d 5e bc a1 10 bc bd
       0.0017319146 -0.081996374 -0.013572185 -0.09182859
000060 bd f9 ee bd 89 c4 1d bd f3 fb 67 3d c0 4d 97 bd
       -0.116687275 -0.03851751 0.056636762 -0.073878765
000070 36 b1 09 be 6d 04 4d be dc 44 b0 bc 66 b1 6f be
       -0.13446507 -0.2002122 -0.02151721 -0.23407516
000080 cc 0f e1 3c 8f 2a 7f be 7b 15 3a bd 38 2d 9e 3d
       0.027473353 -0.24918579 -0.04543064 0.077234685
000090 e8 46 4e 3e ec c3 2c be 98 3c 85 3c b6 18 12 3e
       0.20144236 -0.16871613 0.016264245 0.14267239
0000a0 f3 8b 4d 3d dd 79 3c be be 2a 26 bc a9 e6 7d be
       0.050182294 -0.18405862 -0.0101420265 -0.24795021
0000b0 99 a7 ff 3c 22 36 f0 bd 04 0a 28 bc f8 ab 27 be
       0.031207846 -0.11729075 -0.010256294 -0.16374195
0000c0 b5 bb 91 bc 33 37 d6 bd 61 0c 98 3b fe 67 0e be
       -0.017789701 -0.10459747 0.0046401476 -0.13906857
0000d0 18 62 11 bc ef 6b 32 3e 1a f6 49 bd b5 ee 50 bd
       -0.008873485 0.17423986 -0.049306966 -0.0510089
0000e0 fa a8 6a bd eb 12 b8 bd 0e 02 2b 3d 53 2c 39 3d
       -0.057290055 -0.08987983 0.041750006 0.045208286
0000f0 e4 ac 24 3e b6 f0 83 3b 18 98 3a 3d 3d 85 22 3d
       0.16081578 0.0040264977 0.045555204 0.039677847
000100 6f 51 07 3d 5f 76 cb bc 47 f0 b7 3e 7c ec 63 3b
       0.033036646 -0.024836717 0.35925505 0.0034778407
000110 6a a9 91 be c3 d1 f8 bc 3b b1 86 3d ec a8 60 bd
       -0.28449565 -0.03037346 0.06576773 -0.054848596
000120 43 67 1c 3d 65 30 a0 3d 7c d8 06 bd 88 5d dc 3d
       0.038184416 0.078217305 -0.0329213 0.10760027
000130 8e ba c3 bd f2 e5 28 bc 2a 9f 85 bc bd d2 e1 3d
       -0.09557067 -0.0103087295 -0.016311247 0.11026523
000140 ec 43 6c 3d 70 0e 09 be 2f d9 39 be 3a 8a 4c 3e
       0.057681963 -0.13384414 -0.18149255 0.19974604
000150 d4 bb 23 3e 88 c8 09 3e fb bd 0f 3d 06 ea 2a bc
       0.1598962 0.13455403 0.03509329 -0.010431772
000160 eb a7 e3 3c fa 5b 1c 3d 2e 55 3c bc 7d 02 90 be
       0.02779003 0.038173653 -0.011494918 -0.28126898
000170 a4 37 13 3d 4d 71 df bb 63 66 05 be 9d d5 c5 3d
       0.035941735 -0.0068189264 -0.13027339 0.09659884
000180 0a fa fb 3c b5 ed 4f bd 46 65 84 be d1 f9 7f bd
       0.030758876 -0.050763804 -0.25858516 -0.062494103
000190 ee b6 e3 3e e4 82 a1 3d fb ba 49 3b 88 2f 77 3e
       0.44475502 0.078862935 0.0030781615 0.24139225
0001a0 61 f7 10 3e 8e a1 ff bc 01 9f bf bd 78 16 4c be
       0.14156868 -0.031204965 -0.093564995 -0.19930446
0001b0 6f c1 d4 3d 1c a4 49 be 43 65 24 3d fe e8 be bb
       0.10388457 -0.19691509 0.040135633 -0.0058261147
0001c0 34 22 74 be cc ae 95 bc 0a fd 68 3d b3 e2 80 be
       -0.23841172 -0.018271826 0.05688194 -0.25172958
0001d0 2b 04 10 be 70 e3 25 3e 20 ce ae 3d f6 8c 50 bd
       -0.1406409 0.16200042 0.08535409 -0.05091568
0001e0 34 03 a7 3c 1b 24 7a bd 78 62 25 bc 8e a7 20 3d
       0.02038727 -0.06106959 -0.010094278 0.039222293
0001f0 48 f5 22 be 08 09 1e 3e d1 0b f2 bb 0a f1 05 be
       -0.1591388 0.15433133 -0.0073866625 -0.1308023
000200 e0 0c 67 be ff c8 1f be 09 a4 15 3c ce c8 7d be
       -0.22563505 -0.15604018 0.009133347 -0.24783632
000210 12 06 14 3e 3d e7 9f be d3 b9 0c 3d 1c d1 a2 3c
       0.1445544 -0.31231108 0.034356903 0.019875102
000220 6a 60 88 3e f9 fb 1d 3f 14 86 17 be 09 a5 b5 3e
       0.26636058 0.61712605 -0.1479724 0.35477474
000230 09 c4 4a 3e 95 d3 85 3e 12 8c a5 bd 36 d3 58 be
       0.19801344 0.26137987 -0.08083357 -0.2117432
000240 c3 83 d4 3e 2f 06 6f 3e a8 73 3e 3e 0d d5 b9 3d
       0.41506776 0.23342203 0.18598807 0.09073839
000250 41 3d 64 3e a7 83 7c bc f1 5d 64 3e 12 76 53 bd
       0.22288992 -0.015412248 0.22301461 -0.051626272
000260 7e 16 4f bd 17 da 45 bc b1 62 85 3e ca 2b 8e be
       -0.05055856 -0.012075922 0.26051858 -0.27767783
000270 04 37 87 be 75 83 ad 3e ff 93 4a be fe 5a f5 3e
       -0.2640916 0.33889356 -0.19783019 0.47920984
000280 8f f3 2c bd 9e cb 48 be e8 ae 4d 3e 60 ec 5c 3e
       -0.042224463 -0.19608924 0.20086253 0.21574545
000290 c4 5a 34 3e 36 b6 0c be ef 84 d8 bd 96 9d b6 3e
       0.1761275 -0.13741383 -0.1057223 0.35667104
0002a0 37 d7 7e be 3c 05 67 3e 0c c0 00 3e 14 b1 c6 3d
       -0.24886785 0.2256059 0.1257326 0.09701744
0002b0 0c 2d 79 3e 3f db de 3b fa aa 5d 3d 0d a0 3c 3e
       0.2433359 0.0068010385 0.054118134 0.1842043
0002c0 07 61 2b 3e 31 1a 5d 3d 47 10 9b 3e 7a 70 62 bd
       0.16736232 0.053980056 0.30285856 -0.055283047
0002d0 9a 22 83 3e 1c ed 99 3c 61 7e 54 bd 32 52 cf 3d
       0.25612336 0.01878982 -0.051878337 0.101230994
0002e0 74 d7 b2 bd b5 b6 03 bd 1b b4 0a be 16 d3 0a 3d
       -0.08732501 -0.032156665 -0.13545267 0.033892713
0002f0 8e 2c 92 3d cb 43 40 bd da dc bc 3d 66 27 a2 3e
       0.071374044 -0.046939652 0.092218116 0.31670684
000300 d9 17 c3 bc 4c b1 31 3d 66 9f bf 3e b1 6e 89 3d
       -0.023815082 0.043381974 0.374263 0.06710566
000310 4e 19 17 be 8e b5 5e 3b 34 f7 45 3d 70 cf 11 3e
       -0.14755747 0.0033982727 0.048331454 0.14239287
000320 5a 6a c3 3d 88 03 a7 3d 90 e4 36 bd ab 9c 22 be
       0.09541769 0.081549704 -0.044651568 -0.15880077
000330 19 72 5a be 8e c0 9c 3c c7 8d a9 3d 6d cd 7b 3e
       -0.21332587 0.019134786 0.08278995 0.24590082
000340 d4 cd 7a 3d 6c b0 23 be 3c 24 46 bd da 29 61 bd
       0.06123145 -0.15985268 -0.0483744 -0.054971553
000350 aa 97 b4 3d e2 19 fd 3d 96 c8 98 be 90 b9 cb bd
       0.0881799 0.123584524 -0.29840535 -0.099475026
000360 d9 ca 6c bd fc 08 59 3e 69 e6 0a be b7 11 59 be
       -0.057810638 0.21194834 -0.13564457 -0.21198164
000370 a4 99 82 bd de 5b 5e be 7c 36 aa bd 73 5f 94 be
       -0.06376961 -0.21714732 -0.08311173 -0.28979072
000380 9f 8a c3 3b 54 98 f1 3d ad 5e ca bc de 43 ac bc
       0.0059674527 0.117966324 -0.024703348 -0.021028455
000390 d8 a3 c5 3e a4 1e 8a bd 48 3a 65 3e 59 ee 39 3e
       0.38601565 -0.067441255 0.22385514 0.18157329
0003a0 00 87 c9 3d 4e 17 d2 3d 8e 05 50 bd 22 09 03 be
       0.09840202 0.10258351 -0.050786547 -0.12796453
0003b0 d3 ab 0c 3e a7 87 9e bd 97 34 60 be 37 c8 88 be
       0.1373742 -0.077407174 -0.21895061 -0.26715252
0003c0 9c f5 19 be 00 28 cd 3d e9 7f 60 bc d4 08 54 be
       -0.15035099 0.10017395 -0.013702371 -0.20706493
0003d0 9c df 0f be e1 86 b5 bc 4d 7c 10 3b 8d 8b 88 bd
       -0.14050144 -0.022159042 0.0022046745 -0.06667242
0003e0 cd 65 e2 bb 82 43 01 3d fe 00 f3 3d ef b0 19 bd
       -0.0069091083 0.03155852 0.118654236 -0.037522253
0003f0 7d 08 45 bc 66 29 51 3e 93 af a2 bc d6 43 59 be
       -0.01202595 0.20425949 -0.019859111 -0.21217284

lstm.bias_ih_l0 f4 [256]
000000 e1 e0 fa 3c d2 47 18 bd 44 a0 0d 3e a6 5a 36 be
       0.030624809 -0.03717787 0.13830668 -0.17808017
000010 47 19 0b be d2 59 06 3c 2e ac f9 bd 7a 9b a5 bc
       -0.13583861 0.008200126 -0.12191044 -0.020215739
000020 a7 79 29 bd 7d 81 56 3e 06 49 4c bb 65 95 c0 3d
       -0.041375782 0.20947833 -0.0031171455 0.09403495
000030 5f 35 af bd e6 b2 5e be f3 85 b2 bc cc ba 0d be
       -0.085551016 -0.21747932 -0.021792388 -0.13840789
000040 90 bf 59 3c a5 8e 45 3b c5 e7 9f bc 10 7f 48 be
       0.013290301 0.0030144837 -0.019519696 -0.1957972
000050 ba c1 d9 bc a8 c2 f1 bd da 61 01 bd c9 a7 15 be
       -0.026581634 -0.11804706 -0.03158746 -0.14614786
000060 45 2e 07 be 08 47 0d 3e 79 08 b9 3c 49 1f b1 3e
       -0.13201244 0.13796628 0.022587048 0.3459418
000070 32 b2 c2 bd e9 17 f2 bd 42 64 01 be eb 0e 96 3e
       -0.09506644 -0.11820967 -0.12635902 0.29308257
000080 f5 e0 ca bd 19 28 0e be 62 62 41 be 88 74 22 be
       -0.099061884 -0.13882484 -0.18885186 -0.15864766
000090 71 00 ab 3e 7c d0 a0 3d d7 fc d0 bd 35 54 95 3e
       0.33398774 0.07852265 -0.102044754 0.29165807
0000a0 ca e4 2a 3d c5 16 42 be 57 2c ac be c6 5d 3e 3e
       0.041722097 -0.18953998 -0.3362758 0.18590459
0000b0 f1 21 7d 3c 65 af 45 3e 96 02 c4 bd b0 49 03 bd
       0.015449987 0.19305189 -0.09570806 -0.032052696
0000c0 5a d0 22 be 20 fd ad bd 9e 49 2b be c1 cc 09 be
       -0.15899792 -0.084955454 -0.16727301 -0.13457014
0000d0 75 62 eb bb 38 17 a9 bd bd 92 0d be 92 2b e9 bd
       -0.007183368 -0.08256382 -0.13825507 -0.113852635
0000e0 a3 21 51 be 90 34 67 bc c1 8b 1b be 65 55 3d be
       -0.20422988 -0.014111653 -0.1519003 -0.18489607
0000f0 fd 76 1e 3c 5d 56 8e 3c 01 3a ee bc 5e 40 3b be
       0.009671924 0.017375166 -0.029080393 -0.18286273
000100 91 43 a9 3d 03 1e b5 bd 3d 19 5c be 94 ec 8b 3d
       0.082648404 -0.08843615 -0.21494003 0.06832233
000110 a7 8e 25 bd 5d 84 e8 bc c8 bf 8c bd 26 53 b9 3d
       -0.040419247 -0.028383428 -0.06872517 0.090490624
000120 f9 a9 32 3d 72 cf a3 3e f0 dd 82 ba 1b 59 54 bd
       0.04361913 0.31994206 -0.0009984355 -0.05184279
000130 f6 52 c6 3d f9 aa 91 3d d2 ea a7 bd fb 06 c6 3d
       0.09683792 0.071126886 -0.08199085 0.096693
000140 97 e1 90 bd f0 d9 b3 3c 6f 34 cd bb 2f 41 3c be
       -0.07074278 0.021954507 -0.006262354 -0.1838424
000150 cc cc f6 bd 99 38 1b 3e 44 00 50 be cc 4e 21 3d
       -0.12050781 0.15158309 -0.20312601 0.039381787
000160 d3 8e 00 bd 84 8a 69 3a 19 74 90 bd cf 0b 64 bc
       -0.031386208 0.0008908885 -0.07053394 -0.013918831
000170 0a 1b 09 3e 9b 75 99 3c d3 6e 2f be be 16 05 3e
       0.13389221 0.018732836 -0.1713212 0.12996957
000180 4f 62 fe bd f1 3b 0b 3d dd de 05 3e 41 45 8c 3d
       -0.124210946 0.03399271 0.13073297 0.06849147
000190 ef c4 fb bc 8a ce 38 be b7 7f 06 bd 3c d8 45 3c
       -0.030733554 -0.18047538 -0.032836642 0.01207548
0001a0 40 07 28 3c 9e c4 66 3d aa f1 8d be a0 10 8f 3c
       0.010255635 0.056339853 -0.27723438 0.017463982
0001b0 81 9f eb bc 26 65 02 3e fd 3d b7 bc 64 5d 0a be
       -0.02876258 0.12733898 -0.022368426 -0.13512188
0001c0 41 c0 28 3d 15 a5 ec 3a 61 d9 b4 3d 93 26 6e 3c
       0.041198973 0.0018054569 0.08830524 0.014535564
0001d0 9d 07 f7 bd 60 bd 55 3e 10 62 ac bd 09 8d ef 3d
       -0.12061999 0.20873022 -0.084171414 0.11696822
0001e0 ff f5 20 3d 8c 99 56 3e 41 b1 1c be 92 9a 11 3d
       0.0392971 0.20957011 -0.15301992 0.0355478
0001f0 c7 c9 4c be f2 ee 3c bd 0f db d0 3b 51 49 da 3d
       -0.19998847 -0.046126314 0.00637377 0.10658515
000200 c4 7d 60 3d ef b7 cb bd fc c8 92 3d 4b 95 dd ba
       0.05480744 -0.09947192 0.07167241 -0.0016905455
000210 f4 77 96 bd cc 0e 39 3d 09 f8 4c bd 39 6b 31 3d
       -0.07347098 0.045180127 -0.050041232 0.043315146
000220 1a 8e 98 3d 12 da f1 3b 57 85 9d 39 dd d3 85 bd
       0.07448979 0.0073807323 0.0003004472 -0.0653455
000230 10 00 68 3d 36 51 0c 3e f6 a5 47 bd b9 e1 e7 bd
       0.056640685 0.13702855 -0.048742257 -0.1132235
000240 80 68 94 bd b0 cb 7a 3d fe 35 78 3c 32 dd 06 3d
       -0.07246494 0.061229408 0.0151495915 0.032925792
000250 83 f3 0c bd 8b 1e fe 3c 3b 4a 24 3d 70 2f a9 bc
       -0.03441192 0.031020423 0.040109854 -0.020652503
000260 b5 33 3d 3d 0d e8 ff 3b a9 28 51 3d e9 7c 6b 3c
       0.04619189 0.007809645 0.051064167 0.014373043
000270 48 86 de bd 8e a3 a8 bd f9 94 ad 3d 96 9e 96 bd
       -0.10865456 -0.082343206 0.0847568 -0.073544666
000280 4a c1 8e 3d 4f c8 85 bb 52 ed fd 3d 19 aa fe 3c
       0.06970461 -0.0040827165 0.12398781 0.031086968
000290 12 30 fe bc 92 ae 2b bc e3 7a e2 bd b5 b3 f4 bd
       -0.031028781 -0.0104786325 -0.11058595 -0.11948339
0002a0 aa 87 c2 bd 6f 9f 89 bd d4 24 c8 3c 32 9b 03 3c
       -0.09498532 -0.06719863 0.024431624 0.008032607
0002b0 a2 03 de bd ba 0e f3 bc be af 96 bd d6 a0 9f bd
       -0.10840537 -0.029670108 -0.07357739 -0.07794349
0002c0 d2 21 c1 3d 8a 96 ee bc 9b 3f 57 bd d3 b8 f6 3d
       0.09430279 -0.029124517 -0.052550893 0.12046971
0002d0 10 7b 57 3d 61 4a 74 bc fc a2 64 bd ec 8f 54 3d
       0.052607596 -0.014910311 -0.055819497 0.051895067
0002e0 93 e0 59 3b 99 7f 52 3c 1d f2 2c 3c 35 28 cb bc
       0.003324543 0.012847804 0.010555771 -0.024799446
0002f0 cb 48 f8 3c f0 ed f6 bd 7a 93 cb bd eb 60 58 3d
       0.030308148 -0.12057102 -0.09940238 0.052826803
000300 8f a1 ae 3c 84 f4 b0 bb f7 cb c7 3d 19 8c 2a be
       0.021317272 -0.0054002423 0.097557 -0.16655006
000310 4d ce 46 3c b7 ed a0 3d 8f f7 54 be 1f 1e 92 3d
       0.012134147 0.078578405 -0.20797561 0.071346514
000320 7a 9a 4b be 83 32 2c 3e 90 79 3a be 70 f0 1b bc
       -0.19883147 0.16816144 -0.18210435 -0.009517774
000330 15 fa 2a be 12 bf 0f be 9d b2 1e be 19 a8 e9 bc
       -0.16696961 -0.14037731 -0.15497823 -0.028522538
000340 d1 72 93 3d 73 1b 2e be 5b 91 c8 3c 82 b9 53 be
       0.07199634 -0.17002659 0.024483373 -0.20676234
000350 8b e7 28 be b7 d0 06 3c ed 83 e9 bd f8 a3 a7 3c
       -0.16494577 0.008228472 -0.11402116 0.020463929
000360 6f 88 09 be 68 7e 18 3e d7 c5 1b be cb da 65 3e
       -0.13430952 0.1489197 -0.15212189 0.22446744
000370 b1 8d 75 bd db ee 23 be 82 b6 ed bd 0a f0 83 3e
       -0.05994958 -0.16009085 -0.11607076 0.25769073
000380 21 1a 1d bc d4 c0 17 be 7b ef 24 3d 3d fb 96 3c
       -0.009588749 -0.14819652 0.04026745 0.018430347
000390 29 14 23 3e 35 30 50 3d 2b 1e 35 be c8 ea 85 3e
       0.15925659 0.050827224 -0.1768729 0.26155686
0003a0 2f 0c d7 bd c1 8b 54 bd e8 57 9a be f6 ac 97 3d
       -0.10500371 -0.051891092 -0.30145192 0.074060366
0003b0 d3 2b ce bc e6 ac a2 3d 27 aa 8a 3d 6a 3d f1 bd
       -0.025167381 0.07943134 0.06770735 -0.11779292
0003c0 dc bf 15 be 86 44 9f bd d1 dc aa 3c aa f1 1a be
       -0.1462397 -0.07776742 0.020857247 -0.1513125
0003d0 f7 c9 ce bd 01 e8 97 3d c9 6f 92 bd 00 ce 8f bd
       -0.100971155 0.07417298 -0.071502276 -0.07021713
0003e0 53 17 bc 3c 6f 39 0a bd 95 75 7e 3d 56 41 29 be
       0.02296034 -0.03374618 0.062123854 -0.1652883
0003f0 12 07 53 be 84 72 cc bd aa b7 08 be 74 bd d1 3c
       -0.20608166 -0.099827796 -0.13351312 0.025603034

lstm.bias_hh_l0 f4 [256]
000000 4e 89 ec bd 06 d5 39 be fa 7b 10 3e a7 b7 a5 bd
       -0.11549626 -0.18147668 0.14109793 -0.080916695
000010 d7 b9 15 be b7 5b 24 3d f0 3b 39 be cc 71 11 3d
       -0.14621674 0.04012653 -0.1808927 0.035508916
000020 05 5e 10 3b 8a 54 fc 3d ab 64 0e be c5 c1 03 bb
       0.0022028696 0.12320812 -0.1390559 -0.002010451
000030 bf 18 9a be 12 53 4d be 1b ed 0e bd 52 9a 92 3b
       -0.30097005 -0.2005122 -0.03489409 0.004473963
000040 67 9d 2d 3d 53 00 32 bb 0d e7 01 be 04 50 17 be
       0.04238644 -0.0027160838 -0.12685795 -0.14776617
000050 46 6e 80 3a 8a 82 d8 bd 90 67 e4 bd f4 28 14 3d
       0.0009798489 -0.10571773 -0.111525655 0.03617187
000060 03 83 99 bc ac 0d 9f 3e 17 94 ee bc 76 11 22 3e
       -0.018739229 0.31065118 -0.02912335 0.15826973
000070 aa e6 b3 3d 8d 1e 10 bd 3e f3 f6 bd b3 fd ac 3e
       0.0878423 -0.035185385 -0.120581135 0.33787307
000080 f5 6e 1c be e1 64 8e bd 2c bf e2 bd 4a da c7 bc
       -0.15276702 -0.06952835 -0.110716194 -0.02439608
000090 d4 f5 0e 3e ea 22 52 3d e4 bd 2f 3d 9f 93 60 3e
       0.13960963 0.051302828 0.042905703 0.21931313
0000a0 ad 2a b0 bc c3 72 20 be c1 2a 73 be b5 30 db 3d
       -0.021504724 -0.15668778 -0.23746778 0.107026495
0000b0 73 2b 32 bd fa 15 87 3d d2 9f d4 3d b7 18 1d bc
       -0.043498468 0.065959886 0.10382046 -0.009588412
0000c0 a2 bf 7a 3d fb 14 28 be 7c 60 21 be 1f 40 ab ba
       0.06121791 -0.16414253 -0.15759462 -0.0013065374
0000d0 75 d7 0f be 87 59 87 3d 5e b9 a9 3c 30 bb ef bb
       -0.14047034 0.06608873 0.020718273 -0.0073160157
0000e0 9b 4d 8d bd 8a e7 24 be fa 1e bc 3b de d7 03 bd
       -0.06899568 -0.1610395 0.0057409974 -0.03218829
0000f0 46 9a 10 be f9 b4 45 bd 7b cf 62 bd f1 c7 0b be
       -0.1412135 -0.048268292 -0.05537365 -0.1365049
000100 9b fb 46 3d 44 b4 27 be b5 ac 47 be 29 c7 f7 bc
       0.048579793 -0.1637736 -0.19499476 -0.030246334
000110 89 6a f7 3c 12 e5 1e bd 56 33 a6 bd de 66 30 3d
       0.030202167 -0.038792677 -0.0811526 0.04306685
000120 33 07 a2 3d c8 35 a6 3e be fd d2 3a 7b 2e ad 3d
       0.079115294 0.32462907 0.001609735 0.08456131
000130 ba 03 a2 3d d1 ef 5a 3d ae d3 27 be d3 27 ef 3d
       0.07910867 0.053451363 -0.16389343 0.11677518
000140 1e e0 c3 3c 16 d9 9f 3d e7 e2 ac bd be 14 74 bd
       0.023910578 0.07805078 -0.08441716 -0.059590094
000150 da c2 e0 bd 3c db 65 bd f5 3c 6d bd be 14 7c bd
       -0.10974665 -0.05611728 -0.05791946 -0.06154322
000160 20 ab b6 bd c2 aa 99 3d b7 c3 53 3d 1e fd c2 3b
       -0.08919358 0.075032726 0.05170032 0.005950584
000170 63 94 42 3e 14 4e 60 3d 5f 40 4e be 0f 8a 32 3d
       0.19001918 0.05476196 -0.20141743 0.043588694
000180 f6 d2 73 3c 25 94 fc bb 5b 1f 1c 3d 21 bc da bd
       0.01488184 -0.00770809 0.03811584 -0.10680414
000190 4e 6d 9f 3d 69 36 03 be 8c 27 ee bd 55 ae 93 3d
       0.0778452 -0.12813725 -0.11628637 0.072109856
0001a0 bb ce 03 bd f9 67 33 bc 7c c3 4e be d4 91 06 3d
       -0.032179575 -0.010950082 -0.20191759 0.032853916
0001b0 08 fc 1d bd 69 5e 84 39 bb 95 b0 bd 4e ad 7e 3c
       -0.038570434 0.00025247343 -0.08622309 0.015544249
0001c0 1b 6a 6c bd 6e 94 dc bc 17 b8 42 bc 3a f9 11 3d
       -0.057718378 -0.026926246 -0.011884711 0.03563807
0001d0 b4 f9 4b 3d 36 fe 42 3e da a1 27 3d 46 90 58 3d
       0.049798682 0.19042286 0.040925838 0.052871965
0001e0 cf fd 45 3d 48 c3 d4 3d 4d 90 dd bd 92 2c af bb
       0.048337754 0.103888094 -0.10818539 -0.0053458894
0001f0 c9 ef 0e be 8f 25 9e bc a3 ee 1d be 0d 99 05 3e
       -0.13958658 -0.019305019 -0.15423064 0.13046665
000200 1d e6 85 bc 86 1b 6e bb a4 a2 5c bd 89 22 55 3c
       -0.016345078 -0.0036332323 -0.053866044 0.013008722
000210 4f 9b 03 3e 5d 5f ac bc 95 b4 8c bb ea 26 8f bd
       0.12852214 -0.021041567 -0.004293988 -0.06989844
000220 08 6b a7 bd 1b c8 00 3d ee 57 8a 3d 18 8c 9c bd
       -0.081747115 0.031440835 0.067550525 -0.07643908
000230 b6 0d 04 bd 03 36 2b bd b3 8c ae bb bf 35 f5 bd
       -0.03223964 -0.041799556 -0.0053268312 -0.11973142
000240 1e 32 43 ba 89 3c b8 3d 24 9a 21 3d 32 06 6c bd
       -0.0007446128 0.08995921 0.03945364 -0.057623096
000250 81 84 bc bd 1d 63 b2 bd bf eb 83 3d 06 86 8e 3c
       -0.092049606 -0.087103106 0.064414494 0.017397892
000260 32 49 f3 3b 5b 81 7b bd b4 bc ac bb 60 89 35 bd
       0.007424497 -0.06140266 -0.0052715186 -0.044320464
000270 8a 67 6e 3d dc 28 c5 3d 7f be 96 bd 83 3e 07 bd
       0.05820421 0.09626934 -0.07360553 -0.0330186
000280 52 78 c2 bd 2c dd 33 bd 68 5e 16 bd 2a c1 2a bd
       -0.094956055 -0.043912098 -0.036711127 -0.04168812
000290 40 9c 93 bd 68 ef 73 3c a9 8b 97 bd b5 9e 57 3d
       -0.07207537 0.014888622 -0.07399685 0.05264159
0002a0 fe 0c b8 bd c8 eb 0d 3c 9e 18 9f bb 57 9d 80 bd
       -0.08986853 0.008662172 -0.0048552295 -0.0628001
0002b0 64 eb a2 3d 73 28 89 bc 22 81 44 3c 5d 0f fb 3c
       0.079550534 -0.01674292 0.011993678 0.030646974
0002c0 53 a3 57 3d 0c 74 fa bc 05 5b b6 3d 95 48 92 bd
       0.052645992 -0.030572914 0.08904079 -0.0714275
0002d0 40 55 b8 bd 20 0c 59 bc 3e e4 9f 3d 0c cd 73 3d
       -0.09000635 -0.01324752 0.078072056 0.05952172
0002e0 be db 71 3d d5 8d 71 bd 57 27 9a bd ab 6a 00 3e
       0.059047453 -0.058973152 -0.07527035 0.1254069
0002f0 1d a0 5e bd dc c2 db bc 1b 7d 65 3d b9 f2 c7 3c
       -0.054351915 -0.026826315 0.056027513 0.024407731
000300 ae 48 38 be 93 a7 fb 3c 9c 6b 80 3b b7 cf 32 be
       -0.17996475 0.030719554 0.003919078 -0.1746205
000310 bc 5f 05 bd ca f8 1e be a7 1c 3a be 90 4c fe bd
       -0.032562003 -0.15524593 -0.18174993 -0.12416947
000320 0c bf c6 bc fb c7 02 3e 5b 1f 84 bc ea 69 f7 bb
       -0.02426102 0.12771599 -0.016128233 -0.0075504677
000330 1f 88 3b be 8e 90 09 be 64 d6 62 bd aa d0 04 be
       -0.18313645 -0.1343405 -0.05538024 -0.12970224
000340 b3 02 cf bd d4 b6 42 bd 86 c8 bf bb 8a d1 27 be
       -0.10107937 -0.04753764 -0.0058527617 -0.16388527
000350 cb 88 2a be 15 a5 6d 3c 69 a3 a2 bd 39 07 b8 bd
       -0.16653745 0.014504691 -0.07941324 -0.089857526
000360 aa 92 7d bd 10 c1 e2 3d af 20 2b be 49 26 5c 3e
       -0.061907448 0.1107198 -0.16711687 0.2149898
000370 6f e7 4a bd 7b 8a e6 bb 2e da ce bc 24 23 4b 3e
       -0.04953712 -0.007035551 -0.02525052 0.19837624
000380 fd 27 50 bd 6c d9 4e bb 13 02 42 be 3a 92 27 3c
       -0.050819386 -0.00315627 -0.18946104 0.010227734
000390 18 25 89 3e f1 3e 8f ba 4c 39 89 3a 2a 87 9c 3e
       0.26786113 -0.0010928792 0.0010469346 0.30571872
0003a0 58 54 07 3d 2a cb ef bb a9 31 71 be 56 6c 28 3e
       0.03303942 -0.00731792 -0.235541 0.16447577
0003b0 d2 4c 8c 3d 14 9d 4b 3e ff 1f 81 3d d8 dd 1d 3d
       0.0685059 0.1988414 0.06304931 0.038541645
0003c0 c4 3d 40 bd d5 9a 43 be f7 7f 2a be 61 4e be 3a
       -0.046933904 -0.19102032 -0.16650377 0.0014519208
0003d0 fd 49 86 bd db 18 86 bd 6f a0 a9 bd e4 dc c6 bd
       -0.06557081 -0.065477096 -0.082825534 -0.097101
0003e0 2a 47 da bd b7 82 f2 bd 64 80 93 3d cf 70 ba bb
       -0.10658105 -0.11841338 0.07202223 -0.0056897174
0003f0 b2 83 a0 bd 0d 5d 05 be d4 35 d7 bd e3 78 3d bd
       -0.07837619 -0.13023777 -0.10508314 -0.046257865

fc.weight f4 [5, 64]
000000 b9 56 a0 bc 8f 85 08 bd e5 fd 46 bd b8 6b 38 3d
       -0.019572603 -0.033330496 -0.048581976 0.045024604
000010 ef 14 c4 bc 6d 9e 23 bd 8a 60 6a bb 94 2c 2c bc
       -0.023935763 -0.03994601 -0.0035763108 -0.010508675
000020 e8 37 b4 bc af 59 cc bc 9a 4e 72 3d 36 f7 9d 3c
       -0.021999314 -0.024945108 0.05915699 0.019282918
000030 6b 35 98 3c c6 5d 2f 3c 07 12 46 3d e8 dd cb bd
       0.01858016 0.01070351 0.048357036 -0.09954435
000040 e6 e7 7b 3d 02 e7 a6 bd 7d f8 6a bb e6 e1 93 bc
       0.061500452 -0.0814953 -0.0035853677 -0.018052053
000050 31 e4 15 bd 8d 1a 9d 3c d1 53 0a bd 9f 64 a4 bc
       -0.036594573 0.0191777 -0.03377134 -0.020067511
000060 0d ad 31 3d 7e 03 8d bd 3c ec b3 bb 16 f9 15 3d
       0.043377925 -0.06885432 -0.005490808 0.0366145
000070 3a 21 c2 bc 00 62 56 bd 25 bf f4 3c 65 98 20 3d
       -0.023697484 -0.052339554 0.029876301 0.039207835
000080 0a d4 38 3b 8c 96 93 3c f5 7e 10 3d ab 00 43 3d
       0.0028202557 0.018016122 0.035277326 0.04760806
000090 30 b0 be bd 5d 3b 5e 3c 29 b3 91 bb 50 a7 c7 bc
       -0.09310949 0.013563958 -0.0044464064 -0.024371773
0000a0 ae 39 67 3d a8 09 bb bc 65 c7 0d bd 9a 8f ce 3c
       0.056451492 -0.022831753 -0.034613986 0.025214959
0000b0 d4 a6 f1 bc 02 21 44 3d 47 c8 54 3d 0b 9e 6f bc
       -0.029498495 0.04788304 0.05194881 -0.014625083
0000c0 08 5b 61 3d a2 18 1e 3d 60 58 26 3d 4e 42 59 3c
       0.055018455 0.03859771 0.040611625 0.013260437
0000d0 ce 1b a6 bc bb 3a 0f 3d e3 4d fd 3c 4c d2 9c 3d
       -0.02027693 0.03496812 0.030920928 0.076572984
0000e0 c7 10 f4 bc e9 00 0d bc 64 f0 75 3d 53 21 c2 3c
       -0.029793156 -0.008606174 0.060043707 0.02369753
0000f0 62 1d 06 3d e8 57 32 3d 38 eb 8b 3d e2 9b 98 3c
       0.032742865 0.043540865 0.06831974 0.018629018
000100 ec 0f 5e 3d bf f6 80 3d 22 66 90 bd 05 a1 a6 3d
       0.054214403 0.06297063 -0.0705073 0.08136181
000110 54 60 6e bd 5a df 0c 3d 7b e3 23 bd a8 1b 82 3c
       -0.058197334 0.034392692 -0.040011864 0.015882328
000120 7e 70 6c 3c 8d 14 6d bc f7 24 a0 bd 51 02 83 3d
       0.014431117 -0.014470232 -0.078195505 0.06396926
000130 bf aa 26 bd e6 3d 53 bd 16 bf af bd 8e 6e 96 3d
       -0.04069018 -0.051572703 -0.085813686 0.073453054
000140 3e 6d bd 3b c8 34 76 3d 78 84 4e 3d e6 aa df bc
       0.005780845 0.06010893 0.0504193 -0.02730317
000150 5a aa ee 3c ca 3a a9 3b 5d 1c 96 3c c7 44 17 bd
       0.029133964 0.005164479 0.018324072 -0.036930826
000160 33 93 a6 bc 46 9f 4e bd 82 83 82 3d 35 62 b9 3d
       -0.020333862 -0.050444864 0.063727394 0.09051935
000170 51 43 35 bc 4d 5d 75 3d b5 5f ed bc a3 c8 13 3d
       -0.011063413 0.05990343 -0.0289763 0.036080014
000180 42 cc 20 bd 51 67 dc 3b da 7c e9 3c 2a eb 7c 3d
       -0.039257295 0.0067261835 0.028501917 0.061747707
000190 7f 59 00 be 5f 64 b7 bd ae 79 98 bc 64 13 8d bd
       -0.1253414 -0.08954691 -0.018612709 -0.06888464
0001a0 63 25 e9 3c 82 d3 9d 3d 0d a7 e9 3b fa 97 e0 3d
       0.02846021 0.077063575 0.0071305097 0.10966487
0001b0 07 4f 8c bc 8c 6c a6 3d fb b2 54 3c 83 32 4d bb
       -0.017127527 0.081261724 0.012982125 -0.0031310625
0001c0 cc 5e bb bd 4e b7 34 3d 3c c3 bc 3b 14 ec 17 3c
       -0.091489404 0.044120125 0.0057605784 0.009272594
0001d0 4a 0a 27 3d 80 fc 4f 3c 90 f2 bc bd 26 26 71 3d
       0.040781297 0.012694478 -0.092259526 0.05887427
0001e0 9c c5 b6 bd dd 23 f0 3c 2d 59 1e bc 88 df 70 bd
       -0.0892441 0.029313976 -0.009664816 -0.058806926
0001f0 ff 4e de 3c 23 f1 b4 bc 7d bd 0d bc c5 6d 17 3d
       0.027137278 -0.02208764 -0.008651135 0.03696992
000200 e6 ab c3 3d 3e f2 76 bd e5 19 db bd 5a 6f fd bc
       0.095542714 -0.060289614 -0.10698298 -0.030936886
000210 60 91 78 bd 10 76 33 bd 4e 5a b8 bd ee 7b 29 bd
       -0.060685515 -0.043813765 -0.09001599 -0.041377954
000220 68 13 06 3d 92 8a 24 bd 9d cc 44 bc 9a b1 88 3c
       0.03273335 -0.040171213 -0.012011674 0.01668625
000230 63 d3 b0 bc d0 08 88 bd fd e9 0f 3d 1c 74 5b bd
       -0.021585172 -0.06642306 0.035135258 -0.053577527
000240 6c e4 34 3d 9b bd 29 bc b4 d6 27 bd ed e5 88 bd
       0.044163153 -0.010360147 -0.04097624 -0.0668448
000250 05 38 d9 3d b4 9b c6 3c d7 57 be bd 2d 66 93 bd
       0.10606388 0.024244167 -0.09294098 -0.07197223
000260 22 e1 72 bc ab b1 a4 bd 79 d2 6a 3d 30 c1 fd 3d
       -0.014824184 -0.080417 0.05732963 0.12390363
000270 6b aa 53 bc 8b 42 85 bd 0b e8 1f 3d 65 9f 41 3d
       -0.012919049 -0.06506833 0.039039653 0.04727115
000280 5e c9 53 bd f4 71 93 bd dd 1a 07 3d cc fa fe 3d
       -0.05170571 -0.07199469 0.032984603 0.124501795
000290 ea dd 32 be 64 b5 ec bd 89 a7 a7 3d 75 b9 1a be
       -0.17467466 -0.11558035 0.08186252 -0.15109809
0002a0 48 c1 b8 3d 5c 08 82 bd 73 d0 d4 bc 79 ee 14 3d
       0.090212405 -0.06349251 -0.025978303 0.036360238
0002b0 97 ae 20 bc c4 1a 27 3e 65 63 99 3d 41 fe f4 bc
       -0.00980725 0.16318804 0.07489661 -0.029906394
0002c0 12 3f c2 bd 33 44 e3 3d 91 54 85 3d 72 9c 77 bd
       -0.09484686 0.11096992 0.065102704 -0.060451932
0002d0 4e a6 91 3c b3 9d d2 3c 3c 17 de bd b0 48 c0 3d
       0.017779496 0.025709962 -0.10844275 0.09388864
0002e0 e6 e8 d4 bd 1c c1 95 3d ce 4d cc 3d 52 3a 32 bd
       -0.10395984 0.07312223 0.099757776 -0.04351265
0002f0 72 57 c2 3d c3 81 24 3d c7 84 03 3d e5 9c d6 bc
       0.09489335 0.040162813 0.03210905 -0.02619786
000300 03 9e 58 bd 0d 36 9b bd fa 99 c7 bd b7 41 90 3c
       -0.052885067 -0.07578669 -0.097461656 0.01760946
000310 c2 ba bd bd 35 97 0c bd cb cd 37 bd c3 25 a4 3c
       -0.09264137 -0.03432389 -0.044873994 0.020037537
000320 18 97 5c bd 40 47 37 bd da 42 16 3d 40 08 23 3d
       -0.05385503 -0.044745684 0.03668485 0.03980279
000330 82 d0 0f bd b8 23 3a bc 93 34 c0 3c aa 71 a9 bd
       -0.035110958 -0.011361055 0.02346257 -0.08273633
000340 f5 99 20 bc 59 f7 b4 3d ce 2f 1b bd 6c cb 81 bd
       -0.009802331 0.0883624 -0.037887387 -0.06337628
000350 06 b1 2c bd 4e 5a 7b bc d7 1f 96 bd 36 70 e4 bc
       -0.04216101 -0.0153413545 -0.07330292 -0.027885538
000360 ad 99 ca 3b 1d dc eb bd 44 e8 c5 3d 83 65 1b 3e
       0.0061828704 -0.11516593 0.09663442 0.15175442
000370 a0 38 28 bd 3e 98 30 3b 11 b7 24 bd 84 da d3 3d
       -0.041069627 0.0026946212 -0.04021365 0.10344413
000380 d4 bc 9b 3c eb 68 b9 3d c7 ca 2d 3d b2 4c 42 3d
       0.019010939 0.09053215 0.04242971 0.047436424
000390 71 ad 5e be 71 6d 47 bc 2f b4 73 bd 6f 66 20 be
       -0.2174585 -0.012172089 -0.05949801 -0.15664075
0003a0 5b d2 9f bd ab ea 38 bd e8 72 a3 bc e3 2f fe 3d
       -0.07803794 -0.04514567 -0.019952253 0.124114774
0003b0 33 69 78 bd 0b eb b6 3d 98 40 c1 3d 4a 43 af 3d
       -0.0606472 0.0893155 0.094361484 0.08557756
0003c0 76 e4 aa 3d 1b d6 88 3d 70 e9 e2 3c db d6 93 3d
       0.08344357 0.066814624 0.027699202 0.07218715
0003d0 9a 68 c5 3d 55 7f 19 3d 10 86 97 bd 07 16 c6 3d
       0.09639092 0.03747495 -0.07398617 0.0967217
0003e0 13 88 82 bd 43 f2 eb 3c 2b 3c 39 3c 28 96 b1 3b
       -0.0637361 0.028802043 0.011305849 0.0054195113
0003f0 ea 1a 68 3d 2b de c1 bd 78 e9 5c 3d a0 63 a9 3c
       0.056666292 -0.09466203 0.05393359 0.020677388

fc.bias f4 [5]
000000 d8 5e 97 bb 86 d9 b5 3b 1f bd 8c 3c 40 9d c6 bc
       -0.0046194606 0.0055496125 0.017180024 -0.024244905
000010 bc 8f 3e bd
       -0.046523795
