cnn_lstm_model.pth (torch, 149231 bytes, 8 tensors)

conv.weight f4 [64, 13, 3]
0	0xbe36faad	-0.17869063
1	0x3da3ba00	0.07994461
2	0xbdac8cb1	-0.08425272
3	0x3d2d8ed7	0.04237255
4	0xbdaeae02	-0.08529283
5	0xbd7fc276	-0.06244131
6	0xbd1254f0	-0.035725534
7	0xbdd91e60	-0.10601497
8	0xbe2c21e9	-0.1680981
9	0xbe12547c	-0.1429004
10	0x3dc38b40	0.09548044
11	0xbe3418de	-0.17587611
12	0xbe86b7d2	-0.2631212
13	0xbe8e6458	-0.2781093
14	0xbdf8382e	-0.121200904
15	0xbe70713e	-0.23480698
16	0xbc246f87	-0.010036356
17	0xbf248190	-0.64260197
18	0xbe6400fb	-0.22265999
19	0x3d9987d4	0.0749661
20	0xbf16e10a	-0.5893713
21	0xbebb9def	-0.3664393
22	0xbeb56915	-0.35431734
23	0x3e668836	0.22512898
24	0x3e79d55f	0.24397801
25	0x3e387199	0.18012084
26	0x3d4df5e2	0.05028332
27	0xbca22437	-0.01979266
28	0x3e10ebdc	0.14152473
29	0x3d2a573a	0.041587092
30	0xbc9845a9	-0.018587904
31	0x3ccc6bbf	0.024953721
32	0x3d86a402	0.06574251
33	0xbcf4e9b2	-0.02989659
34	0xbe22be0d	-0.15892811
35	0xbe71d9c2	-0.23618224
36	0x3e3f533f	0.186841
37	0x3d022a1e	0.031778447
38	0xbf817446	-1.0113609
39	0x3da7c518	0.081918895
40	0x3e0744ae	0.13209793
41	0x3e29ebf8	0.16593921
42	0xbda8ab5a	-0.08235808
43	0x3e5afcd3	0.21385507
44	0x3de704e7	0.11280232
45	0x3e214728	0.157498
46	0x3e64a7c6	0.22329625
47	0x3d6d26db	0.057898384
48	0xbd58e920	-0.0529567
49	0x3e3d5d62	0.18492654
50	0xbdadc2cc	-0.0848442
51	0xbcfbb7ff	-0.030727385
52	0x3e38dfbd	0.180541
53	0xbe74730d	-0.23872013
54	0x3e0ef641	0.13961126
55	0x3d23c11a	0.039979078
56	0xbdca4539	-0.098764844
57	0x3e15fc12	0.14646938
58	0x3c9adf13	0.018905198
59	0xbe2ef75d	-0.17086549
60	0xbe16dcc3	-0.14732651
61	0x3cda5e17	0.026656194
62	0xbd39465c	-0.045233116
63	0xbe8c6732	-0.27422482
64	0xbe75f17c	-0.240179
65	0xbe7cfd92	-0.24706104
66	0xbdf23ddb	-0.11828204
67	0xbe618571	-0.2202356
68	0x3d8d4aa0	0.06898999
69	0xbd32e6a1	-0.043676976
70	0x3e070303	0.13184743
71	0x3c0d5b6e	0.008627756
72	0x3e6c3868	0.23068392
73	0x3e41727e	0.18891332
74	0x3e030d04	0.12797934
75	0xbe9ce9d2	-0.3064714
76	0xbceda440	-0.029008985
77	0xbe941d22	-0.28928477
78	0xbdd4ab48	-0.10384232
79	0xbc59d101	-0.013294459
80	0xbd1b09a7	-0.037851002
81	0xbdaeb303	-0.085302375
82	0xbda5d59c	-0.080973834
83	0xbcecd8db	-0.028911998
84	0x3e18e542	0.14931205
85	0x3e04f13b	0.12982647
86	0x3e094eda	0.13408986
87	0xbc4a1380	-0.012333751
88	0x3d982315	0.07428566
89	0xbd0bcd2a	-0.034131207
90	0x3d7c0c34	0.061535075
91	0xbd902a60	-0.070393324
92	0xbe1d00ec	-0.15332383
93	0x3e0e8e22	0.13921407
94	0x3e196685	0.14980514
95	0x3e0fe710	0.14052987
96	0xbdb8f62a	-0.09031327
97	0xbb9e71af	-0.0048353295
98	0xbc06bf7a	-0.0082243625
99	0xbe18eb40	-0.14933491
100	0xbe10f633	-0.14156418
101	0x3c18a3d4	0.009316403
102	0x3c95fca8	0.018308952
103	0x3d9d50b7	0.07681411
104	0xbd891c80	-0.06694889
105	0xbd99abe2	-0.07503487
106	0xbdcf7f15	-0.10131661
107	0xbddba6ab	-0.10725149
108	0xbdf0fcfe	-0.117670044
109	0xbe003aea	-0.12522474
110	0xbdbf82d3	-0.093511246
111	0xbe19747c	-0.14985842
112	0x3d835e22	0.06414439
113	0xbde449a6	-0.1114686
114	0x3d5f81cc	0.054567143
115	0x3d25de8f	0.04049545
116	0x3d293939	0.041314337
117	0x3cd7389a	0.026272107
118	0xbc030d10	-0.00799872
119	0x3ea097a0	0.3136568
120	0xbc5cb36c	-0.013470512
121	0x3e18e8e7	0.14932595
122	0x3d1e9d7e	0.038724415
123	0xbe028d3f	-0.12749194
124	0x3c3497ee	0.011022551
125	0x3c29bb99	0.010359668
126	0x3d8796fd	0.066205956
127	0x3e5b79e1	0.21433212
128	0x3e063798	0.13107145
129	0xbd792e7d	-0.06083535
130	0xbe52935c	-0.20564026
131	0xbe650d98	-0.22368467
132	0xbdb729f6	-0.0894355
133	0xbcf7357e	-0.030176874
134	0xbe8e36f3	-0.27776298
135	0xbd322850	-0.043495476
136	0x3d854428	0.065071404
137	0xbe7f716a	-0.24945608
138	0xbe303b80	-0.17210197
139	0xbe733d6e	-0.23753902
140	0xbe82eefe	-0.25572962
141	0x3de033f3	0.109474085
142	0x3cc10c47	0.023565425
143	0x3e1d6927	0.15372144
144	0x3d64f908	0.055901557
145	0xbd5bf167	-0.053697016
146	0x3df6b142	0.12045528
147	0x3d57d93c	0.052697405
148	0xbe4e3aee	-0.20139667
149	0xbdb985cd	-0.090587236
150	0xbd45fcd3	-0.048336815
151	0xbc315cd3	-0.010825354
152	0x3e9139bb	0.28364357
153	0x3e08fa46	0.13376722
154	0xbe08e322	-0.13367894
155	0xbdf11965	-0.11772422
156	0xbe31eadd	-0.1737475
157	0x3d069623	0.032858025
158	0xbe6f8121	-0.23389103
159	0xbe31e107	-0.17370997
160	0xbe367ce9	-0.17821087
161	0x3d51fd61	0.05126703
162	0x3d760c4b	0.060070317
163	0xbdaae77c	-0.083449334
164	0x3d7e8eea	0.062148012
165	0xbc6ba7e9	-0.014383295
166	0x3dc93071	0.098236926
167	0x3d837a09	0.06419761
168	0x3bb9ac06	0.0056662587
169	0x3d8c5bc6	0.06853442
170	0x3e123309	0.14277281
171	0xbe0540ff	-0.13013075
172	0x3df0c375	0.117560305
173	0x3e1cec9b	0.15324633
174	0x3dbdbcc3	0.09264519
175	0x3d342f79	0.043990586
176	0xbd782096	-0.06057795
177	0x3e016466	0.12635955
178	0x3eb375d6	0.3505084
179	0xbde2ab9f	-0.110678904
180	0xbdc745d3	-0.09730115
181	0xbe0dca23	-0.1384664
182	0xbe4da920	-0.20084047
183	0x3d26f8a7	0.040764477
184	0xbe1630af	-0.14667009
185	0xbca3deba	-0.020003665
186	0x3dc66ff8	0.09689325
187	0x3e103950	0.14084363
188	0x3e2e975a	0.17049924
189	0xbe0f73d2	-0.14009026
190	0xbe24bf5f	-0.16088627
191	0xbc686292	-0.014183657
192	0xbcefe883	-0.029285675
193	0xbe291c84	-0.16514784
194	0x3db8ec11	0.09029401
195	0xbd9c4b9a	-0.07631607
196	0xbe46a4b8	-0.19398773
197	0xbe940987	-0.2891352
198	0xbd98d4ff	-0.07462501
199	0xbe1154bc	-0.1419248
200	0xbcf56d8f	-0.029959468
201	0xbc8ac647	-0.01694025
202	0xbca9a88f	-0.020710258
203	0xbe680013	-0.22656278
204	0xbd7407a0	-0.059577584
205	0xbe3b550e	-0.18294165
206	0xbdf10630	-0.11768758
207	0xbe22b1c3	-0.15888123
208	0xbeca8189	-0.39551952
209	0xbe3bc5f1	-0.18337227
210	0x3d59ce2c	0.053175136
211	0xbda81f6f	-0.082091205
212	0x3d7a8570	0.061162412
213	0x3cdc70fe	0.026909348
214	0x3da7c002	0.081909195
215	0x3d5798a3	0.0526358
216	0x3f05a8c3	0.52210635
217	0x3f0ac501	0.54206854
218	0x3f29dafd	0.66349775
219	0x3d6f7a36	0.05846616
220	0x3e43e639	0.19130792
221	0x3e24897a	0.16068068
222	0x3de4960d	0.111614324
223	0xbd690c7f	-0.056896683
224	0x3e13db19	0.14439048
225	0xbb9b2703	-0.004734875
226	0x3c9d1761	0.019176187
227	0x3b1fa5c9	0.002436029
228	0xbdc3ccf9	-0.0956058
229	0x3c1e5f1c	0.0096662305
230	0xbe5f83ba	-0.21827593
231	0xbd8c8df6	-0.068630144
232	0xbd77af38	-0.060469836
233	0x3d9148ac	0.07093939
234	0xbd223b8a	-0.039607562
235	0x3d2a4819	0.041572664
236	0xbda2553a	-0.07926412
237	0x3dfd8c70	0.12380302
238	0x3d9c05d0	0.07618296
239	0x3d357780	0.044303417
240	0x3d2e51ea	0.042558588
241	0x3e37a45e	0.17933795
242	0x3ca3ec1b	0.020010045
243	0x3b5e8a85	0.0033957076
244	0x3d80f4cc	0.06296691
245	0x3daf86bc	0.085706204
246	0xbe596723	-0.2123075
247	0xbe675f4e	-0.2259495
248	0xbe058517	-0.13039051
249	0x3c13b08c	0.00901426
250	0x3d3bf717	0.04588994
251	0xbe0e07e5	-0.13870199
252	0x3d010c39	0.031505797
253	0xbdc0bc2a	-0.094108894
254	0xbddfd527	-0.109293275
255	0xbdb93069	-0.09042437

conv.bias f4 [64]
0	0x3d7f24e7	0.062291052
1	0xbe811a07	-0.2521517
2	0xbd2fd35b	-0.042926174
3	0x3c3ed8e5	0.011648391
4	0x3db166a2	0.08662154
5	0x3ca45e7e	0.020064589
6	0xbdd2a36d	-0.10285077
7	0xbd2b6c4b	-0.041851323
8	0xbe1543b6	-0.14576611
9	0xbdfac961	-0.12245441
10	0xbddf9d16	-0.10918634
11	0x3d72f9c4	0.059320226
12	0x3c77b28f	0.015118255
13	0x3df1d1b0	0.11807573
14	0xbe305555	-0.17220052
15	0x3df4d87a	0.11955352
16	0x3d16ea8d	0.03684478
17	0x3e011f57	0.12609611
18	0xbe11566c	-0.14193124
19	0xbd29fa1a	-0.04149828
20	0xbd093a8e	-0.033503108
21	0xbe1fc32d	-0.15601797
22	0xbdca30e0	-0.098726034
23	0x3c1eaa5a	0.00968417
24	0x3bfd16c0	0.0077236593
25	0xbd398305	-0.045290966
26	0x3dae2b88	0.08504397
27	0xbe03350a	-0.12813202
28	0xbdab8ef8	-0.083768785
29	0xbe199970	-0.14999938
30	0x3e02091a	0.12698784
31	0xbde279d6	-0.110583946
32	0xbdd7d166	-0.105379865
33	0x3cb87fce	0.02252188
34	0xbe084d2e	-0.13310692
35	0xbda54ff0	-0.080718875
36	0x3c48c0e2	0.012253018
37	0xbcab5056	-0.02091233
38	0xbe54d0f3	-0.20782833
39	0x3e542637	0.20717703
40	0x3d36ab92	0.044597216
41	0x3beb9400	0.007189274
42	0x3e7fbc4f	0.24974178
43	0x3d16fa94	0.036860064
44	0x3d03702d	0.0320894
45	0xbc07e0c2	-0.0082933325
46	0xbdcbf83f	-0.099594586
47	0xbe6313e7	-0.22175561
48	0xbe127b5f	-0.14304875
49	0x3ba20ea7	0.0049455944
50	0x3d61867c	0.055059895
51	0xbe147143	-0.14496331
52	0x3d0ef6db	0.03490339
53	0xba3c9e00	-0.00071951747
54	0xbcd0c6a5	-0.025485346
55	0x3d41e92c	0.04734151
56	0xbc299368	-0.010350086
57	0x3e6263a5	0.22108324
58	0xbe09837a	-0.1342906
59	0xbdebbbff	-0.11510467
60	0xbe27356b	-0.16328971
61	0xbdf59b52	-0.119925156
62	0x3c14a523	0.009072575
63	0x3d9878a0	0.074448824

lstm.weight_ih_l0 f4 [256, 64]
0	0xbe5fd8b8	-0.21860015
1	0xbeb6a932	-0.3567596
2	0x3dd71058	0.10501164
3	0xbcee354a	-0.029078145
4	0xbcd4445f	-0.025911508
5	0x3ddbb6ae	0.10728203
6	0xbe60ca15	-0.21952088
7	0x3d8a79ff	0.0676155
8	0xbd23f398	-0.04002723
9	0xbc730690	-0.014833108
10	0xbd88a4ac	-0.06672034
11	0xbe133ff4	-0.14379865
12	0x3d17a239	0.037019942
13	0xbd128710	-0.035773337
14	0xbd847a70	-0.064686656
15	0xbca5a265	-0.020219037
16	0x3d332a1d	0.043741334
17	0xbdf0799e	-0.11741947
18	0xbdfdaecc	-0.123868555
19	0x3d34ba23	0.044122826
20	0x3d4c284c	0.049843118
21	0x3cc2d19d	0.023781592
22	0x3d6f4ecc	0.058424756
23	0xbd57958d	-0.052632857
24	0xbdef501e	-0.11685203
25	0x3da7c650	0.08192122
26	0xbdc9f215	-0.098606266
27	0xbdde61b8	-0.10858482
28	0x3d5c2008	0.053741485
29	0x3da4f94c	0.08055362
30	0xbd108010	-0.03527838
31	0x3cc7f123	0.024406975
32	0x3de301f6	0.110843584
33	0xbdab1dc7	-0.08355289
34	0x3d8dd4a5	0.06925324
35	0xbd3b6ba1	-0.04575694
36	0xbe2b38d5	-0.16720898
37	0xbe29b56b	-0.16573112
38	0xbd647ad2	-0.055781193
39	0xbd61ca9a	-0.055124857
40	0xbe10753c	-0.14107221
41	0x3d924278	0.07141584
42	0x3d3aa8af	0.045571025
43	0xbe5fd1b5	-0.2185734
44	0x3dc07607	0.09397512
45	0xbdd6d3a2	-0.104895845
46	0x3cc8e537	0.02452336
47	0xbec1b8e3	-0.3783637
48	0xbdc9cb8f	-0.09853279
49	0xbc868fdd	-0.016426021
50	0xbe00297d	-0.12515827
51	0xbdd99a43	-0.10625126
52	0x3c227d7e	0.009917615
53	0x3df12f5e	0.11776613
54	0xbdcb0d54	-0.099146515
55	0xbea239a1	-0.31684592
56	0xbe1bc467	-0.1521164
57	0xbdc3e06d	-0.0956429
58	0x3da26166	0.079287335
59	0xbe953171	-0.29139283
60	0x3dc7442c	0.097298
61	0x3d3e8170	0.04651016
62	0xbd21b53a	-0.03947947
63	0x3d136fb5	0.035995204
64	0xbe49d110	-0.19708657
65	0xbe0f1158	-0.1397146
66	0xbda2d864	-0.079514295
67	0xbd966b4e	-0.073446855
68	0xbe14d25b	-0.14533369
69	0xbe49ca65	-0.19706114
70	0xbdb1c4c5	-0.08680109
71	0xbde77626	-0.11301832
72	0x3d02b8b8	0.031914443
73	0x3dc01c22	0.09380366
74	0xbd5fd850	-0.05464965
75	0xbd35fed8	-0.04443249
76	0x3d9c447b	0.07630249
77	0xbd0cf482	-0.03441287
78	0xbdd4107a	-0.10354705
79	0xbd55b15a	-0.05217109
80	0x3dac35e3	0.084087156
81	0xbdec8fd1	-0.11550868
82	0xbde1066a	-0.109875515
83	0xbc497050	-0.012294844
84	0x3d57faca	0.052729405
85	0x3e07a818	0.13247716
86	0x3c8d64f3	0.01726005
87	0x3daef733	0.08543243
88	0xbd8ee988	-0.06978136
89	0xbc37f79e	-0.01122847
90	0xbd6b7b0b	-0.05749039
91	0xbdeec48a	-0.116585806
92	0xbe0f6f5f	-0.14007328
93	0xbdc61e14	-0.09673706
94	0xbe3eb88b	-0.18625085
95	0xbdf31983	-0.118701
96	0x3c1edf04	0.009696726
97	0xbea4fc1c	-0.32223594
98	0x3c173eb4	0.009231258
99	0x3db9277a	0.09040733
100	0xbe725d32	-0.23668364
101	0xbe894e58	-0.26817584
102	0x3db468ca	0.088090494
103	0x3aa1531c	0.0012308094
104	0x3d6fc171	0.05853409
105	0x3dd62600	0.10456467
106	0xbe14ccfc	-0.1453132
107	0xbe932205	-0.28736892
108	0xbdedb146	-0.11606078
109	0xbe053ad1	-0.13010718
110	0xbe25325c	-0.16132492
111	0x3d16d6a8	0.036825806
112	0xbdd8a020	-0.105774164
113	0xbd289a40	-0.04116273
114	0x3d9f75f5	0.077861704
115	0xbdb03325	-0.08603505
116	0xbdb9bbdc	-0.090690345
117	0xbd9da384	-0.07697204
118	0x3b8dca59	0.0043271002
119	0x3d9bd4e0	0.07608962
120	0x3db13029	0.08651764
121	0xbd8297a5	-0.0637658
122	0xbd261fff	-0.040557858
123	0xbdf6f07a	-0.12057586
124	0xbdaa7022	-0.08322169
125	0x3dc77658	0.09739369
126	0xbe44b170	-0.19208312
127	0x3dc0964f	0.09403669
128	0xbef9b534	-0.4877106
129	0xbe27a062	-0.16369775
130	0x3db8f6f8	0.090314806
131	0xbe2c7289	-0.16840567
132	0xbd46390d	-0.04839425
133	0xbdd95d5a	-0.106135085
134	0xbdcf872a	-0.101332024
135	0xbe60baf3	-0.21946315
136	0xbd3a2e88	-0.045454532
137	0xba9b7880	-0.0011861473
138	0xbd32132d	-0.04347532
139	0xbe131f31	-0.14367367
140	0xbdaf9d48	-0.08574921
141	0xbac5e4a2	-0.0015098045
142	0x3cab5189	0.020912902
143	0xbe0ab5ae	-0.13545868
144	0xbdcbb253	-0.09946122
145	0xbd958e0a	-0.073024824
146	0xbd4ce504	-0.050023094
147	0xbcaf4646	-0.021395814
148	0xbd2d446d	-0.042301584
149	0x3d0d9957	0.034570064
150	0xbdcfb0f9	-0.10141177
151	0x3d56e5fa	0.052465416
152	0xbd153e78	-0.036436528
153	0x3e8ec370	0.27883482
154	0xbc867155	-0.016411463
155	0xbdb91fa8	-0.09039241
156	0x3e633c9b	0.22191088
157	0x3d145a64	0.036219016
158	0xbe8def72	-0.27721745
159	0x3c9b3145	0.018944392
160	0x3ca867f3	0.02055738
161	0x3df702c1	0.12061072
162	0xbdbd598f	-0.092455976
163	0x3df73aa1	0.120717295
164	0x3e014769	0.12624897
165	0xbd438f08	-0.047743827
166	0xbe60f71f	-0.21969269
167	0xbea2f6d4	-0.3182894
168	0xbe03a1db	-0.12854712
169	0xbc873b70	-0.016507834
170	0xbe398ab5	-0.18119319
171	0xbe59dd9b	-0.21275942
172	0x3d4e96e2	0.05043686
173	0xbe0d1522	-0.13777593
174	0xbdc880ff	-0.09790229
175	0x3ec24f79	0.37951258
176	0x3e92e4fc	0.28690326
177	0xbd13091d	-0.035897363
178	0xbe0eb313	-0.13935499
179	0xbd7dd8cb	-0.061974328
180	0xbe02ae9a	-0.12761918
181	0x3d8aad92	0.06771387
182	0x3cd70922	0.026249472
183	0xbddb3f87	-0.10705476
184	0xbca39e4f	-0.019972948
185	0xbe86ac8d	-0.2630352
186	0xbddeb92a	-0.10875161
187	0xbecb67c0	-0.39727592
188	0x3ded7632	0.115948096
189	0x3d06c9c7	0.032907274
190	0x3e38fa81	0.1806431
191	0xbdfdb23b	-0.123875104
192	0xbf1a48c1	-0.60267264
193	0x3bf1e6b5	0.0073822387
194	0x3da5c2a3	0.08093765
195	0xbe2a0cb2	-0.16606405
196	0xbe76be35	-0.24095996
197	0xbe829c89	-0.25510052
198	0x3e35c996	0.1775268
199	0x3e44f6cd	0.19234772
200	0xbdab27fa	-0.08357234
201	0xbd03cb38	-0.032176226
202	0xbc3b687f	-0.011438488
203	0x3c7431d7	0.014904461
204	0xbe33b90c	-0.17551059
205	0x3e904e46	0.28184718
206	0xbea08102	-0.31348425
207	0xbd220091	-0.03955132
208	0x3d5b827b	0.053591233
209	0xbe258acf	-0.16166233
210	0xbd2831a4	-0.041062966
211	0x3d867465	0.06565169
212	0x3dcb9a12	0.09941496
213	0xbb958c5b	-0.004563851
214	0xbdeed2ff	-0.11661338
215	0x3db2da08	0.087329924
216	0xbc8897e0	-0.016673982
217	0xbe9018d8	-0.28143954
218	0xbd79d313	-0.06099231
219	0xbdfff342	-0.124975696
220	0xbd24cde7	-0.040235426
221	0xbdc0e382	-0.09418394
222	0xbe824612	-0.25444084
223	0x3d740887	0.059578445
224	0x3cb78a05	0.02240468
225	0xbe592d3d	-0.21208663
226	0xbc97dad7	-0.018536968
227	0xbcb28dbd	-0.021796102
228	0xbe8ec833	-0.27887115
229	0xbe1590ed	-0.14606066
230	0xbf03ca7c	-0.5148084
231	0xbf6c6152	-0.92336
232	0x3d96c2ab	0.07361349
233	0x3d7e95c0	0.06215453
234	0xbeeff772	-0.46868473
235	0x3e87110e	0.263802
236	0x3d9ecd61	0.07754017
237	0xbe75fdef	-0.24022649
238	0x3e8eafa7	0.27868387
239	0x3ecc65fe	0.39921564
240	0x3dbb9d51	0.09160865
241	0xbc9a2248	-0.018815175
242	0xbd7ff1fa	-0.062486626
243	0x3e7bfb96	0.24607691
244	0x3d049ad2	0.03237421
245	0x3df81790	0.12113869
246	0x3caa320c	0.020775817
247	0xbe40afd4	-0.18817073
248	0xbdd715e8	-0.10502225
249	0xbea42e2f	-0.32066485
250	0x3d5e13a4	0.05421795
251	0xbe9c432f	-0.30520007
252	0xbdce786a	-0.10081561
253	0xbe006704	-0.12539297
254	0x3ea04fa6	0.31310767
255	0xbd4f41f8	-0.050600022

lstm.weight_hh_l0 f4 [256, 64]
0	0x3e43492a	0.19070879
1	0x3e11f4aa	0.14253488
2	0xbe558cb7	-0.2085446
3	0xbe256f57	-0.16155754
4	0x3e3ad1fa	0.18244162
5	0xbd4d86a8	-0.050177246
6	0xbcc33da2	-0.0238331
7	0xbbe76bba	-0.0070624026
8	0x3da0e679	0.07856459
9	0xbd3bc336	-0.045840465
10	0xbd94f3e8	-0.07273084
11	0x3d44c357	0.048037853
12	0x3d8411fe	0.06448744
13	0xbdfdff53	-0.12402215
14	0x3e03d27c	0.12873262
15	0x3dd29090	0.10281479
16	0xbcaba81e	-0.020954188
17	0xbde31840	-0.1108861
18	0xbcebd724	-0.02878911
19	0xbda7d63c	-0.08195159
20	0xbd922bfb	-0.07137295
21	0x3e105200	0.1409378
22	0xbded0e53	-0.11574998
23	0x3dd68ff3	0.10476675
24	0xbdaf58d2	-0.08561863
25	0xbe114c73	-0.1418932
26	0xbc8a60ea	-0.016891915
27	0x3d83f675	0.06443492
28	0xbd0b590e	-0.034020476
29	0xbe29ce97	-0.16582714
30	0xbd7b9667	-0.06142273
31	0xbd078e82	-0.03309489
32	0xbe0b0cc1	-0.13579084
33	0xbd8b6c8e	-0.068078145
34	0xbe25075e	-0.16116092
35	0xbd4101f5	-0.047121007
36	0x3d85473c	0.065077275
37	0xbe5c503d	-0.21514983
38	0x3c5bd1c3	0.01341671
39	0x3c98324e	0.018578675
40	0xbe463ccb	-0.19359128
41	0xbe21f8b6	-0.15817532
42	0x3d1e694f	0.03867465
43	0x3bc68e98	0.006059479
44	0xbc3b40f4	-0.01142906
45	0xbdd7c7a9	-0.10536129
46	0xbc593bbc	-0.013258871
47	0x3ddf3dd1	0.109004624
48	0x3ded4cc9	0.11586911
49	0x3cac2577	0.021013958
50	0xbcf6f743	-0.0301472
51	0xbe1fc90d	-0.15604039
52	0x3d109c20	0.035305142
53	0xbe1856d7	-0.14876877
54	0xbd996cf9	-0.07491488
55	0xbdfb8120	-0.12280488
56	0xb9961849	-0.00028628323
57	0xbd98ea8c	-0.07466611
58	0xbddd6e53	-0.10812058
59	0x3d942355	0.072333016
60	0x3d353127	0.04423633
61	0xbdcd8cef	-0.100366466
62	0xbdce30b7	-0.10067885
63	0xbc4e1ce7	-0.012580133
64	0x3e065bcf	0.1312096
65	0xbcf58280	-0.029969454
66	0xbd42ff6b	-0.047606867
67	0xbde381cf	-0.111087434
68	0x3dd19cd6	0.10234992
69	0xbda4f270	-0.08054054
70	0x3d9c3bef	0.07628619
71	0x3e331fb9	0.1749257
72	0xbe0b8fe4	-0.13629109
73	0x3dadeba3	0.0849221
74	0x3d8980ed	0.06714044
75	0x3d81f604	0.06345752
76	0x3e195eb7	0.14977537
77	0xbcdf41dc	-0.027253084
78	0xbdd1f377	-0.10251515
79	0x3db7dd60	0.08977771
80	0xbe868169	-0.26270607
81	0xbd9a71e6	-0.07541256
82	0xbc815d49	-0.015791552
83	0x3c0556ed	0.0081384005
84	0xbdb91094	-0.09036365
85	0x3e19bde3	0.15013842
86	0x3d8dd3b4	0.06925145
87	0xbd146bd6	-0.036235653
88	0xbd9885d4	-0.07447401
89	0xbd4d6ef1	-0.05015463
90	0xbd031070	-0.031998098
91	0xbd953007	-0.07284551
92	0xbb98c501	-0.0046621566
93	0xbcacc059	-0.021087812
94	0x3d5d8f0d	0.054091502
95	0xbc162234	-0.009163428
96	0xbe006486	-0.12538347
97	0xbdd436b7	-0.103619985
98	0xbe191be4	-0.14952046
99	0x3d7b75c6	0.061391614
100	0xbdd42beb	-0.10359939
101	0x3e2b13c1	0.16706754
102	0x3eb547e6	0.35406417
103	0xbc56b1bb	-0.013103898
104	0xbd8b8bd2	-0.06813778
105	0xbd95d87d	-0.073166825
106	0xbd2493b0	-0.04017991
107	0xbd752d87	-0.05985787
108	0xbea5c6a5	-0.32378116
109	0x3dd660f2	0.104677096
110	0x3d03d9ff	0.03219032
111	0xbd2b64eb	-0.04184429
112	0x3d8b30fd	0.06796453
113	0xbd859029	-0.06521637
114	0xbd7bf375	-0.061511476
115	0x3d9bf448	0.07614952
116	0xbda9a326	-0.08283071
117	0x3d468eef	0.048476156
118	0xbdcaf1e2	-0.09909417
119	0x3cc25e74	0.02372668
120	0x3dd58a00	0.10426712
121	0xbe369775	-0.17831214
122	0x3dee0368	0.116217434
123	0xbe14c8af	-0.1452968
124	0xbd4c47e9	-0.049873266
125	0xbe85c795	-0.26128832
126	0xbd8c6c8f	-0.068566434
127	0x3d844841	0.06459094
128	0xbc8cdb43	-0.017194396
129	0x3d30a7f2	0.043128915
130	0xbd901d54	-0.07036844
131	0x3dcc2e6b	0.09969791
132	0x3caf38e2	0.021389429
133	0x3d8bfaa0	0.06834912
134	0x3cd0979e	0.025462922
135	0x3cd60dc4	0.02612961
136	0xbc6a076e	-0.014283998
137	0x3dde641c	0.10858938
138	0x3e494433	0.19654922
139	0xbd4a75f4	-0.049428895
140	0x3e45e6f3	0.19326381
141	0xbd9defee	-0.077117786
142	0xbe233801	-0.15939333
143	0x3d9cd4e4	0.07657793
144	0xbda465da	-0.08027239
145	0x3e335a4a	0.17514911
146	0xbddb0d98	-0.10695952
147	0x3d0594db	0.032612663
148	0xbe127e70	-0.14306045
149	0xbc2d8cf1	-0.010592685
150	0xbe35ddde	-0.17760417
151	0x3ccbd7e6	0.024883222
152	0xbdde6e28	-0.108608544
153	0x3bdcd3a5	0.006739097
154	0x3e125d64	0.14293438
155	0x3e1e3f0d	0.1545374
156	0xbe28d2ba	-0.16486636
157	0x3cdbde56	0.026839416
158	0x3e149fb3	0.14514045
159	0x3d87513e	0.066072926
160	0x3d15e573	0.036595773
161	0x3dff4728	0.12464744
162	0xbdaff170	-0.085909724
163	0xbddce279	-0.10785384
164	0xbdf8626c	-0.121281475
165	0x3e5d0310	0.215832
166	0x3da1712d	0.07882915
167	0xbdada785	-0.084792174
168	0x3d1c5873	0.03817029
169	0xbd836caf	-0.06417214
170	0x3ca6af4b	0.020347258
171	0x3df1c3cd	0.11804924
172	0xbcc9bfcb	-0.024627587
173	0x3e33a685	0.17543991
174	0x3d4041bf	0.0469377
175	0xbe07aa6c	-0.13248605
176	0x3e3aada5	0.18230303
177	0x3e2dd1bd	0.1697454
178	0x3e2e4f13	0.17022352
179	0xbb3b1ee3	-0.0028552345
180	0xbe4d0d05	-0.20024498
181	0x3cf2d011	0.02964023
182	0xbd87af90	-0.06625283
183	0xbdf86fb7	-0.12130683
184	0xbd8b4f01	-0.06802178
185	0x3de6eef3	0.11276045
186	0xbd8ea95c	-0.069658965
187	0xbe1d112d	-0.15338583
188	0xbdc7d016	-0.09756486
189	0xbdb500a4	-0.08838013
190	0xbd6d47d8	-0.057929844
191	0xbcc6dbf6	-0.024274807
192	0xbe1429f0	-0.14469123
193	0xbddf52e1	-0.1090448
194	0xbec0f4e3	-0.37686834
195	0xbf06ddb8	-0.52682066
196	0xbcdc5f4b	-0.026900908
197	0x3ed58e84	0.41710293
198	0x3ebd6c8c	0.36996877
199	0x3db82ec5	0.089932956
200	0x3e0394c5	0.1284972
201	0xbe6d6e16	-0.23186526
202	0xbdc0f0a3	-0.09420898
203	0x3ee4200b	0.44555697
204	0x3e93c5dd	0.28861895
205	0xbdeb6d3f	-0.114954464
206	0x3e45d655	0.19320042
207	0xbdf3a2a6	-0.11896257
208	0x3ec45e19	0.3835304
209	0xbe59a962	-0.2125602
210	0x3d9200a9	0.07129032
211	0xbebae491	-0.36502507
212	0x3e9f206a	0.31079417
213	0x3ccd61cf	0.025071053
214	0xbd5528a4	-0.05204071
215	0xbd273943	-0.040826093
216	0x3e565fb3	0.20934944
217	0xbdd7df7c	-0.10540673
218	0xbd9683bf	-0.07349347
219	0xbc55e3bf	-0.013054787
220	0x3e8d6076	0.27612656
221	0xbd005291	-0.03132874
222	0xbe0d8336	-0.13819584
223	0xbdc24b99	-0.09487075
224	0xbe8746c2	-0.2642117
225	0xbdd41a63	-0.10356595
226	0xbdb8f744	-0.09031537
227	0x3e796dc5	0.2435828
228	0xbd532715	-0.051550943
229	0xbea7d1da	-0.32777292
230	0xbdc5ccaa	-0.09658177
231	0xbd400838	-0.046882838
232	0xbe639731	-0.22225644
233	0xbdd0f8fb	-0.10203739
234	0x3d6c3588	0.05766824
235	0x3e8028bb	0.25031075
236	0xbd025c07	-0.031826045
237	0xbe0330dd	-0.12811609
238	0xbe0cf2ce	-0.13764498
239	0xbe6c1c1c	-0.23057598
240	0x3d8ca213	0.06866851
241	0x3da0fc31	0.07860602
242	0x3e867a9d	0.26265422
243	0x3da91614	0.08256164
244	0x3ecfb862	0.4057036
245	0x3edd46a3	0.43217954
246	0x3d223a66	0.039606474
247	0xbdbebaaf	-0.09312951
248	0xbdd1c0a3	-0.10241821
249	0xbe82aa11	-0.25520375
250	0xbe204d37	-0.15654455
251	0xbf2674f5	-0.6502221
252	0xbe4954aa	-0.19661203
253	0xbd14824e	-0.03625708
254	0xbdbe0e7d	-0.09280107
255	0x3e403b2c	0.18772572

lstm.bias_ih_l0 f4 [256]
0	0xbdb22b69	-0.08699686
1	0xbe7acffa	-0.244934
2	0xbe1f9024	-0.15582329
3	0x3e3f9f20	0.18713045
4	0xbe456b7f	-0.19279288
5	0x3d08d4f2	0.033406205
6	0x3d447f74	0.04797311
7	0xbe58a074	-0.21154958
8	0xbc3704a6	-0.011170542
9	0xbbfaf7be	-0.0076589277
10	0xbe2cc60d	-0.16872425
11	0x3dabf840	0.08396959
12	0x3d2c4fb9	0.042068217
13	0x3d05e8da	0.032692768
14	0xbe24206a	-0.1602799
15	0xbdb015fe	-0.08597945
16	0xbe692075	-0.22766288
17	0x3e1efbae	0.15525696
18	0xbe999479	-0.29996088
19	0x3e2ed95d	0.17075105
20	0xbc808fe0	-0.015693605
21	0xbe463e6d	-0.19359751
22	0xbe036a9d	-0.12833638
23	0x3d5b50d2	0.053543873
24	0xbe2c8eae	-0.16851303
25	0xbdceec1d	-0.10103629
26	0xbdaf0cbe	-0.08547352
27	0xbd91b79f	-0.07115101
28	0x3dbe2647	0.092846446
29	0x3b9195e3	0.0044429167
30	0xbe9c30cb	-0.30505976
31	0x3c9d7e6b	0.01922532
32	0xbe643073	-0.22284107
33	0xbea6ad56	-0.3255412
34	0xbd7b0ace	-0.0612896
35	0xbcb236e4	-0.02175469
36	0xbe90d6bf	-0.28288838
37	0x3e9dc2ac	0.30812585
38	0x3dc56875	0.09639064
39	0xbdfeea61	-0.12447048
40	0xbe136014	-0.1439212
41	0xbd9c68b6	-0.076371595
42	0xbe834ea9	-0.2564595
43	0xbd9f6a07	-0.07783895
44	0x3d86c286	0.06580071
45	0xbe558f4e	-0.20855448
46	0xbead7b6d	-0.3388323
47	0xbdeac21b	-0.11462804
48	0xbd85c7f8	-0.06532282
49	0x3b89b530	0.0042025074
50	0x3c84b221	0.01619822
51	0xbca6f2ab	-0.020379385
52	0xbd33c6f8	-0.043890923
53	0xbe3671c0	-0.1781683
54	0x3de9d46a	0.11417468
55	0xbe866d2a	-0.2625516
56	0xbe752656	-0.23940405
57	0x3d09b93d	0.033623923
58	0xbec17c50	-0.37790155
59	0x3dc130b5	0.09433118
60	0xbdb87552	-0.09006752
61	0xbe236298	-0.1595558
62	0xbcad5d38	-0.021162614
63	0xbe2be4be	-0.16786477
64	0xbe13dac7	-0.14438926
65	0xbe565e7d	-0.20934482
66	0xbd9f0696	-0.07764928
67	0xbcef69db	-0.02922528
68	0xbdb2bccd	-0.08727417
69	0xbe447525	-0.19185312
70	0xbe4f53ae	-0.20246765
71	0xbd93817d	-0.07202432
72	0x3bf78c36	0.0075545562
73	0xbdfa5fbf	-0.12225293
74	0xbd4095b7	-0.04701778
75	0xbe096389	-0.13416876
76	0xbe57c0df	-0.21069668
77	0xbd435f75	-0.047698457
78	0xbdf1267b	-0.11774918
79	0xbe5fd5fc	-0.21858972
80	0xbe64d01e	-0.22345015
81	0x3e0be7eb	0.13662688
82	0xbe091161	-0.13385536
83	0xbc8d1322	-0.017221037
84	0xbd1cbf54	-0.038268402
85	0xbd38f5cf	-0.045156296
86	0xbdb9fa40	-0.090809345
87	0xbb83c5af	-0.0040213685
88	0xbe28a658	-0.16469705
89	0x3ec406a0	0.38286304
90	0xbd9f27b6	-0.07771246
91	0xbe883188	-0.2660029
92	0xbc120d66	-0.008914327
93	0x3d818308	0.0632382
94	0xbe813280	-0.2523384
95	0xb9836ccd	-0.0002506733
96	0x3d126dc6	0.03574922
97	0xbe1f8d4f	-0.15581249
98	0xbe2b694c	-0.16739386
99	0x3d64eb23	0.055888306
100	0xbe657548	-0.2240802
101	0x3e616634	0.22011644
102	0x3e3ca096	0.18420634
103	0xbe1069eb	-0.14102904
104	0xbdd557f0	-0.10417163
105	0xbe044b1d	-0.12919278
106	0xbdf5b671	-0.119976886
107	0xbe47265f	-0.19448231
108	0xbd00be14	-0.031431273
109	0x3c6ddab2	0.014517473
110	0xbdd0fae3	-0.10204103
111	0xbd37429f	-0.04474127
112	0x3c8e7b80	0.017392874
113	0x3cc9c3c4	0.024629481
114	0xbb67ec94	-0.0035388814
115	0xbc786107	-0.015159852
116	0xbdf14a3a	-0.11781736
117	0xbd004eec	-0.031325266
118	0x3d232456	0.039829575
119	0x3c539297	0.012913368
120	0xbdb7d9cd	-0.08977089
121	0x3d04bff1	0.032409612
122	0xbe995b46	-0.2995245
123	0xbe1d77d2	-0.15377739
124	0xbc54ebf6	-0.012995711
125	0xbc8ee8fe	-0.017445084
126	0xbc04c3db	-0.008103336
127	0xbe092014	-0.13391143
128	0xbd6d0550	-0.057866395
129	0xbd7fc1ce	-0.062440686
130	0x3ce213e4	0.027597375
131	0x3cee925e	0.029122528
132	0xbd8b3026	-0.06796293
133	0xbd2207ac	-0.039558098
134	0xbe3233d0	-0.17402577
135	0xbd0723a6	-0.03299298
136	0xbafeb44c	-0.0019432395
137	0x3be37bad	0.0069422335
138	0x3d416f97	0.04722556
139	0xbd3a4eab	-0.04548518
140	0xbe018d33	-0.1265152
141	0xbdceb2c9	-0.10092694
142	0x3dbd540a	0.09244545
143	0xbdc8d293	-0.09805789
144	0xbd23dd40	-0.040005922
145	0xbccee17a	-0.025254
146	0xbdcbe0dc	-0.09954998
147	0x3b92220a	0.004459624
148	0x3dc081b8	0.09399742
149	0xbd5dbead	-0.05413692
150	0xbd85e957	-0.06538647
151	0xbdd200da	-0.10254069
152	0x3db443c0	0.08801985
153	0x3dcb8c76	0.099389
154	0x3b0258a1	0.0019889253
155	0x3d4842e7	0.048891928
156	0xbdb0f78c	-0.08640966
157	0x3c11bb43	0.008894744
158	0xbce01c9e	-0.027357396
159	0xbd8b7fe8	-0.068115056
160	0xbd598567	-0.053105738
161	0x3da96f95	0.08273236
162	0x3ca41c70	0.020033091
163	0x3d031735	0.032004554
164	0xbdc31246	-0.0952497
165	0xbd05785c	-0.032585487
166	0xbd08938f	-0.033343848
167	0x3aa687fc	0.0012705321
168	0x3b98983f	0.004656821
169	0x3c41a477	0.011818997
170	0x3c5f2412	0.01361944
171	0xbcd0b0e9	-0.025474982
172	0x3dc3007d	0.095215775
173	0xbd1a089f	-0.037605878
174	0xbd649ad4	-0.055811718
175	0x3dc81508	0.097696364
176	0xbb673158	-0.0035277214
177	0xbd57c6d2	-0.052679844
178	0x3a862b23	0.0010236244
179	0xbd1d9467	-0.038471606
180	0x3b822ebe	0.0039728573
181	0x3b509c60	0.0031831488
182	0xbd7cc825	-0.06171431
183	0x3ce052ff	0.027383326
184	0xbd7f3ced	-0.062313963
185	0xbd1fcc2a	-0.039013065
186	0xbc8cdeec	-0.017196141
187	0xbb6bc23a	-0.0035973922
188	0xbd426abe	-0.04746508
189	0x3da1e96e	0.07905851
190	0x3da8dd99	0.082453914
191	0xbdb13fe3	-0.086547635
192	0xbe283fce	-0.1643059
193	0xbe9aa7e3	-0.30206212
194	0xbdda6865	-0.10664443
195	0x3db978ab	0.09056219
196	0xbdfdbe58	-0.12389821
197	0xbc6b7e89	-0.01437343
198	0x3b98df13	0.0046652644
199	0xbd81ef78	-0.06344503
200	0xbd77deef	-0.06051534
201	0xbe72a9d9	-0.23697604
202	0xbd987393	-0.07443919
203	0x3d621485	0.05519535
204	0x3e09e258	0.1346525
205	0xbdd940d4	-0.10608068
206	0xbe41edde	-0.18938395
207	0xbe495a9b	-0.1966347
208	0xbd617d45	-0.055051107
209	0x3eab9558	0.33512378
210	0xbe826052	-0.25464112
211	0x3e4d7822	0.20065358
212	0xbd963780	-0.073348045
213	0xbd9c91c5	-0.07644991
214	0xbe0d5bb5	-0.13804515
215	0xbc861c7d	-0.016371006
216	0xbdb28014	-0.08715835
217	0xbda7a83c	-0.08186385
218	0xbd8afbcd	-0.067863084
219	0xbda204be	-0.07911061
220	0x3d353171	0.044236604
221	0x3ce4318f	0.027855663
222	0xbe67d60b	-0.22640245
223	0x3e0aa516	0.13539538
224	0xbe130ad7	-0.14359604
225	0xbde5434f	-0.11194479
226	0xbe22c390	-0.15894914
227	0x3c530779	0.0128802
228	0xbe2083e1	-0.15675308
229	0x3e802000	0.25024414
230	0xbd6eb6a7	-0.05827966
231	0xbc5ed5a8	-0.013600744
232	0xbe3e7485	-0.18599136
233	0xbd8a640e	-0.06757365
234	0xbdf73a04	-0.120716125
235	0xbd0522ab	-0.032503765
236	0xbd8bbb50	-0.068228364
237	0xbd413e60	-0.047178626
238	0xbe88293e	-0.26593965
239	0xbe411bb2	-0.18858221
240	0xbcf366d7	-0.029712124
241	0xbc18cea5	-0.009326612
242	0x3c68f857	0.014219365
243	0x3dc53ba1	0.09630514
244	0xbd9e9f61	-0.07745243
245	0xbd9191d8	-0.071078956
246	0x3b2942c9	0.002582716
247	0xbe906430	-0.28201437
248	0xbd98853f	-0.0744729
249	0xbce4e983	-0.027943378
250	0xbe98942e	-0.29800552
251	0xbd699a52	-0.057031937
252	0xbd4dd4e6	-0.050251864
253	0x3cba18ce	0.022716906
254	0xbdefd1b8	-0.117099226
255	0x3bbc4822	0.0057459036

lstm.bias_hh_l0 f4 [256]
0	0xbe5b58c5	-0.21420582
1	0xbe9fc4bf	-0.31204793
2	0xbdcd7f8d	-0.10034094
3	0x3dc9b699	0.09849281
4	0xbc93ceba	-0.01804291
5	0x3cf6af47	0.030112876
6	0x3e446eac	0.19182843
7	0xbcf7ea35	-0.030263046
8	0xbddf9ce6	-0.10918598
9	0xbdf483df	-0.11939215
10	0xbda741aa	-0.08166821
11	0x3d4d1a66	0.050074004
12	0xbc538453	-0.0129099665
13	0x3c528c2a	0.0128508005
14	0xbcbfb5b9	-0.023402082
15	0xbde749e6	-0.11293392
16	0xbe31c9a2	-0.17362073
17	0x3e1a6eb4	0.15081292
18	0xbdee0707	-0.11622434
19	0x3e23462d	0.15944739
20	0xbe08f43d	-0.1337442
21	0xbd94e585	-0.0727034
22	0xbe4489ae	-0.19193146
23	0xbd66e95d	-0.056374896
24	0xbe2a952c	-0.16658467
25	0xbcfe1513	-0.031015908
26	0x3aee6020	0.0018186606
27	0xbe0fd368	-0.14045489
28	0xbd99e761	-0.07514835
29	0xbdbae6a9	-0.09126026
30	0xbe93a919	-0.2883995
31	0x3dae1d9a	0.0850174
32	0xbdacadd3	-0.08431592
33	0xbe951eb2	-0.2912498
34	0x3ca4b17c	0.020104162
35	0x3d93cb4a	0.07216509
36	0xbe2e1329	-0.16999497
37	0x3ec600d2	0.386725
38	0xbdcd50a3	-0.10025146
39	0xbd875482	-0.066079155
40	0xbdfcf717	-0.12351816
41	0xbe00a0c1	-0.12561323
42	0xbe5a0258	-0.21289957
43	0x3c8ef679	0.017451512
44	0x3d69fc4c	0.057125375
45	0xbd8e96b6	-0.069623396
46	0xbe8e95ff	-0.27848813
47	0xbe6f1c54	-0.2335065
48	0x3cf507b0	0.029910892
49	0xbdbbb2ae	-0.0916494
50	0xbd58c1cf	-0.052919205
51	0x3d924103	0.07141306
52	0xbe05023a	-0.1298913
53	0xbdb68353	-0.08911767
54	0x3de421ae	0.111392364
55	0xbd972f03	-0.07382014
56	0xbe4bf1cc	-0.19916457
57	0xbd2a2296	-0.04153689
58	0xbeb45664	-0.3522216
59	0x3e3160cf	0.17322086
60	0xbdb7eb4e	-0.08980428
61	0xbd15b3a3	-0.036548268
62	0x3c997a04	0.01873494
63	0xbde6e192	-0.11273493
64	0xbd9c7e3e	-0.07641266
65	0xbe2a907d	-0.1665668
66	0x3d338f5e	0.043837897
67	0x3dcf1ef2	0.10113324
68	0x3d5e9fb1	0.054351512
69	0xbe38e8e3	-0.18057589
70	0xbe3c255a	-0.18373623
71	0xbe7d8ba3	-0.24760298
72	0xbdcbdfd1	-0.09954799
73	0x3ba9c964	0.0051814783
74	0xbc2cf82c	-0.010557216
75	0xbe850b54	-0.25985205
76	0xbe480fb7	-0.19537245
77	0xbe2396de	-0.1597552
78	0xbcf253b4	-0.029580928
79	0xbe0201ac	-0.1269595
80	0xbd9f7c1c	-0.07787344
81	0x3aa00b2a	0.0012210358
82	0xbe7fb6b9	-0.24972047
83	0xbdfbd0fd	-0.12295721
84	0xbc5dea50	-0.013544634
85	0xb9647b04	-0.00021789601
86	0x3cad04dd	0.021120483
87	0x3de58da4	0.112086564
88	0xbe5bee26	-0.21477565
89	0x3e19b71c	0.15011257
90	0x3e0e771d	0.13912626
91	0xbdfda322	-0.12384631
92	0xbe0fc542	-0.14040092
93	0x3e2e4ddf	0.17021893
94	0xbd325e6f	-0.04354709
95	0xbd74a92d	-0.05973165
96	0xbd87d729	-0.066328354
97	0xbdb88ce1	-0.090112455
98	0x3c96412c	0.018341623
99	0x3e62a73a	0.22134104
100	0xbe2fa5b8	-0.1715306
101	0x3e84e5a0	0.2595644
102	0x3d867abe	0.0656638
103	0xbd71227b	-0.058870774
104	0xbe1160d4	-0.14197093
105	0xbe910776	-0.28326005
106	0xbd84edf3	-0.06490698
107	0xbe045ca5	-0.12925966
108	0x3d8f0130	0.069826484
109	0xbde13fc3	-0.1099849
110	0xbe67dcc2	-0.22642806
111	0x3c970f2e	0.018439855
112	0xbd377cac	-0.04479663
113	0xbe047063	-0.12933497
114	0x3e1298ec	0.14316148
115	0xbe453bd8	-0.1926111
116	0x3ccf397d	0.025295967
117	0x3e054b70	0.13017058
118	0xbdffe166	-0.12494163
119	0x3be57a51	0.0070031066
120	0xbe0f6d77	-0.14006601
121	0xbcc8ebf5	-0.024526576
122	0xbdc0dab2	-0.09416713
123	0xbe2bbd1e	-0.16771361
124	0xbe0181a4	-0.1264711
125	0xbe0a168d	-0.13485165
126	0xbda28cac	-0.07936987
127	0xbe07d8d2	-0.13266304
128	0x3d855666	0.0651062
129	0xbd8fab63	-0.07015111
130	0xbd311316	-0.043231092
131	0x3d868ea5	0.06570176
132	0x3d9d0b68	0.07668191
133	0x3d152b93	0.03641851
134	0xbd448652	-0.04797966
135	0xbd1f8d23	-0.038952958
136	0x3d378490	0.044804156
137	0xbd837069	-0.06417925
138	0xbdd95168	-0.1061123
139	0xbdde600c	-0.10858163
140	0xbcd8f913	-0.026485955
141	0x3daa04b9	0.08301682
142	0xbd4e6960	-0.050393462
143	0x3dd40487	0.10352426
144	0x3cfba2c4	0.030717261
145	0x3d9d7f6b	0.07690319
146	0x3dd2c126	0.102907464
147	0x3d218bbd	0.039439905
148	0x3d542358	0.05179152
149	0xbc8dae16	-0.017294925
150	0x3db440cd	0.08801422
151	0x3cc3b72e	0.023891058
152	0xbdd0412a	-0.10168679
153	0xbd66dd4d	-0.056363393
154	0xbd120767	-0.03565159
155	0x3da054fb	0.07828709
156	0x3c16da16	0.009207269
157	0xbc0199e6	-0.007910227
158	0xbb90ef0a	-0.004423027
159	0x3ddccbb4	0.10781041
160	0xbd392585	-0.045201797
161	0xbd86f22b	-0.065891586
162	0x3df3fbb0	0.1191324
163	0xbd42a748	-0.047522813
164	0x3df5bee8	0.11999303
165	0x3d57cfa0	0.05268824
166	0xbd96b3ce	-0.07358514
167	0xbd0a4ec8	-0.033766538
168	0x3d7dce2d	0.061964203
169	0xbb51fe90	-0.00320426
170	0x3d3f6122	0.046723492
171	0x3d25ed94	0.040509775
172	0x3cc6792e	0.024227705
173	0xbdaea4e8	-0.08527547
174	0xbd6e273e	-0.058142893
175	0xbde2fd18	-0.1108343
176	0xbca3449a	-0.019930173
177	0x3c96c24e	0.018403199
178	0x3e070d20	0.131886
179	0xbdf2025b	-0.118168555
180	0x3d96751e	0.07346557
181	0x3b3a1b46	0.0028397604
182	0x3de93c7d	0.1138849
183	0x3cf1953b	0.029490104
184	0x3c2eca14	0.010668296
185	0x3d056557	0.03256735
186	0x3bd650f3	0.0065404116
187	0x3da101a3	0.0786164
188	0x3d16c0e6	0.036805056
189	0x3db17062	0.086640134
190	0xbd3f51f2	-0.04670901
191	0x3dd825f7	0.10554116
192	0xbde8858f	-0.11353599
193	0xbe72925b	-0.23688643
194	0xbb969ab9	-0.004596081
195	0x3e654ab5	0.2239178
196	0xbe13d42d	-0.14436407
197	0xbda6c0f5	-0.081422724
198	0x3e4dffdd	0.20117135
199	0xbe34e414	-0.1766513
200	0xbde69de9	-0.11260588
201	0xbe6c43e3	-0.23072772
202	0xbc3f438a	-0.011673817
203	0xbceffec8	-0.029296294
204	0xbcd1990e	-0.025585677
205	0x3d1d9127	0.038468506
206	0xbda49d08	-0.08037764
207	0xbd1ea3a0	-0.038730264
208	0xbdd4eab2	-0.10396327
209	0x3e83a297	0.25709984
210	0xbe4ed391	-0.20197894
211	0x3e175bf8	0.14781177
212	0xbd48c5ad	-0.049016643
213	0xbd505ccd	-0.05086975
214	0xbd904596	-0.070445225
215	0xbd893405	-0.06699375
216	0xbe0354ff	-0.12825392
217	0xbd5cc3f6	-0.05389782
218	0x3d6879ca	0.056756772
219	0x3d03db35	0.032191474
220	0x3e10c969	0.14139332
221	0xbe16f05d	-0.14740129
222	0xbe946829	-0.28985718
223	0x3e399532	0.1812332
224	0xbe228229	-0.15869965
225	0xbe122244	-0.14270884
226	0xbd54a526	-0.05191531
227	0x3d29fe6b	0.041502398
228	0xbdef12d3	-0.11673512
229	0x3ec37a54	0.38179266
230	0xbcdfbbe3	-0.027311271
231	0xbe07602b	-0.13220279
232	0x3bd6f1d1	0.0065595885
233	0xbce37322	-0.02776486
234	0xbe368537	-0.17824255
235	0xbcc034d0	-0.023462683
236	0xbdf89604	-0.12137988
237	0xbd6f4b18	-0.058421224
238	0xbea1a0cc	-0.3156799
239	0xbc28d5b8	-0.010304861
240	0xbe09bcb7	-0.13450895
241	0xbe033944	-0.12814814
242	0xbdba8742	-0.0910783
243	0x3d2c9193	0.042131018
244	0xbe2aafd8	-0.16668642
245	0xbdcdaaec	-0.100423664
246	0xbc2a51a3	-0.01039544
247	0xbe7ea432	-0.24867323
248	0xbdd726f2	-0.10505475
249	0x3ddbeb92	0.10738291
250	0xbe9aebdb	-0.30258068
251	0x3de991de	0.11404775
252	0xbe5c1193	-0.21491079
253	0xbd6a9d95	-0.05727919
254	0x3d16091d	0.036629785
255	0xbe56d04e	-0.209779

fc.weight f4 [5, 64]
0	0x3a032c8a	0.000500389
1	0xbd026d37	-0.031842437
2	0x3d48ffc2	0.049072035
3	0xbc68a801	-0.0142002115
4	0x3de713cf	0.11283075
5	0xbc91313e	-0.017723676
6	0xbd30bcbf	-0.043148752
7	0xbd8f5717	-0.06999033
8	0x3c376094	0.01119246
9	0x3da48973	0.08034029
10	0x3dbb15d6	0.09135024
11	0xbd3e71f9	-0.04649541
12	0x3c8bea6c	0.017079554
13	0xbcb48932	-0.022038076
14	0xbd61e723	-0.05515207
15	0x3d8c7e13	0.06859984
16	0xbc2ccd71	-0.010547028
17	0x3d0da784	0.034583583
18	0x3cd21250	0.025643498
19	0x3d77ba63	0.060480487
20	0xbe09856e	-0.13429806
21	0xbd200fa2	-0.03907741
22	0xbd8888f8	-0.0666675
23	0xbd1ed708	-0.03877929
24	0xbd59454f	-0.053044613
25	0xbbd641b4	-0.006538594
26	0xb986eff0	-0.0002573724
27	0x3d57feaf	0.05273312
28	0xbc5f32f1	-0.013622985
29	0xbbfc4fa6	-0.0076999245
30	0x3c975316	0.018472236
31	0xb9620758	-0.00021555775
32	0xbc819185	-0.01581646
33	0x3d2d3323	0.042285096
34	0xbde425e7	-0.11140042
35	0xbd07d7c8	-0.03316477
36	0xbd744c1e	-0.059642904
37	0x3d54bcb5	0.051937778
38	0xbb0054ee	-0.0019581872
39	0x3db88a01	0.09010697
40	0x3d1df3f5	0.038562734
41	0x3d20fed7	0.039305534
42	0x3a7f84f1	0.0009747288
43	0xbcc559b5	-0.024090627
44	0xbd7ae522	-0.061253674
45	0xbd6cebe9	-0.05784217
46	0xbc275156	-0.010212263
47	0x3d8f65ff	0.07001876
48	0x3d85df2f	0.065367095
49	0x3d8ec6ef	0.06971537
50	0x3d5158dc	0.051110134
51	0xbd405890	-0.04695946
52	0x3cd76076	0.026291113
53	0xbcdf8730	-0.027286142
54	0x3c2de3e8	0.010613419
55	0xbd367748	-0.04454735
56	0x3c4862e4	0.012230609
57	0x3bb9c3ee	0.0056691086
58	0x3bf49da6	0.007465082
59	0x3d417a58	0.047235817
60	0xbd4bbe3d	-0.049741972
61	0x3ca6da17	0.020367665
62	0xbd944327	-0.07239371
63	0xbdc07583	-0.093974136
64	0x3c2425c0	0.010018766
65	0x3c470d63	0.012149188
66	0x3d27e0c9	0.040985856
67	0x3d051923	0.032494675
68	0x3db37dc2	0.08764221
69	0xbcac04fa	-0.020998467
70	0xbdd3d444	-0.10343221
71	0x3cc50e7f	0.024054764
72	0x3d5de9e2	0.054178126
73	0x3d71c100	0.05902195
74	0xbc3dd4bb	-0.011586363
75	0xbd922dbd	-0.0713763
76	0xbc84bcbb	-0.016203275
77	0xbca51b9b	-0.020154765
78	0xbdaa9d32	-0.08330764
79	0xbcf4c58a	-0.02987935
80	0xbd1d1619	-0.038351152
81	0x3d73692c	0.05942647
82	0x3c404eb1	0.0117375115
83	0x3da4f963	0.08055379
84	0x3d8b66e9	0.06806738
85	0xbb0c67ba	-0.002142413
86	0xbd84c26d	-0.06482396
87	0xbc174b86	-0.009234315
88	0xbd3b1399	-0.045672987
89	0x3c4347a9	0.011918941
90	0x3c01e280	0.007927537
91	0x3c0f827a	0.008759135
92	0xbccba167	-0.024857236
93	0x3b9afcd7	0.004729848
94	0x3be860b2	0.007091605
95	0x3d76f918	0.060296148
96	0x3b98c80f	0.0046625207
97	0x3cf2298f	0.029560832
98	0xbd49b10f	-0.04924112
99	0xbc36e182	-0.011162164
100	0xbc2d64ff	-0.010583161
101	0x3da06d5e	0.0783336
102	0xbd3a0550	-0.045415223
103	0x3ddc6828	0.10762054
104	0x3da6b224	0.081394464
105	0x3d71c762	0.059028037
106	0x3c81885b	0.01581209
107	0xbd30e507	-0.043187167
108	0x3d8b7c80	0.06810856
109	0x3c9f5050	0.019447476
110	0x3d522049	0.05130032
111	0xbc53d6e2	-0.01292965
112	0x3d8c4d7a	0.06850715
113	0x3da57410	0.08078778
114	0x3d4d2db3	0.05009241
115	0xbcf325f3	-0.029681182
116	0xbd40c8ea	-0.047066607
117	0x3b88a373	0.0041698753
118	0x3ca5d880	0.020244837
119	0x3d354285	0.04425289
120	0x3d90cf71	0.07070816
121	0xbc2521f4	-0.010078896
122	0x3c0c0f71	0.008548603
123	0x3d8f5a77	0.06999677
124	0xbae8eff2	-0.0017771705
125	0x3b9a3814	0.004706392
126	0xbca03b32	-0.019559477
127	0xbc59e341	-0.01329881
128	0xbceeb1e2	-0.029137556
129	0xbd857ec8	-0.06518322
130	0x3db09374	0.086218745
131	0x3d5f72ba	0.05455277
132	0xba887f61	-0.0010413938
133	0xbce0ae76	-0.02742694
134	0xbdc21126	-0.09475927
135	0x3cccfb30	0.02502212
136	0xbd112701	-0.035437588
137	0xbd69477d	-0.056952942
138	0xbd1e9aba	-0.038721777
139	0xbd5f0fe2	-0.054458506
140	0xbdd0189a	-0.101609424
141	0x3b5ede64	0.0034007067
142	0xbc244c3b	-0.01002794
143	0x3bb2ad76	0.005452807
144	0x3d052905	0.032509822
145	0x3e1d8d09	0.15385832
146	0x3bddad82	0.0067650685
147	0x3d359874	0.044334844
148	0xbce1470c	-0.027499698
149	0xbd5eea47	-0.054422643
150	0xbc4dd1b9	-0.012562209
151	0xbcbede20	-0.023299277
152	0x3d6c371e	0.05766975
153	0xbcfd7aff	-0.030942438
154	0xbd0c924e	-0.034319215
155	0x3ca1704a	0.019706864
156	0xbd5b4edb	-0.053542
157	0xbb6fbf28	-0.0036582444
158	0x3c6b51a4	0.014362726
159	0x3d367198	0.044541925
160	0xba75d0b2	-0.00093771063
161	0x3b828610	0.0039832667
162	0x3da29613	0.07938781
163	0xbd3437ec	-0.043998644
164	0xba9c5caf	-0.0011929477
165	0x3e01eb13	0.1268733
166	0xbde8a09f	-0.11358761
167	0xbded738b	-0.11594304
168	0x3d2a3075	0.04155012
169	0x3d26a3cc	0.040683553
170	0xbb3840df	-0.0028114838
171	0xbd91c9ad	-0.07118545
172	0x3ddb3791	0.10703958
173	0xbd11d149	-0.03559998
174	0x3d11e67f	0.03562021
175	0xbdd18374	-0.10230151
176	0xbc55b6d8	-0.013044082
177	0xbc5bde51	-0.013419704
178	0x3d5e6873	0.05429883
179	0xbd1e53ae	-0.038654022
180	0xbc59c7de	-0.013292281
181	0x3b97a1c6	0.004627439
182	0x3bf8d02f	0.007593177
183	0xbcf5006a	-0.029907424
184	0x3bd3465e	0.0064475974
185	0x3dbb4dc6	0.091456935
186	0xbcf2e206	-0.029648792
187	0x3daeb1f3	0.08530035
188	0xbd5b38ca	-0.053520955
189	0x3dd36e73	0.10323801
190	0x3d9ee35c	0.07758209
191	0x3d9c9aef	0.07646739
192	0x3dbc51a5	0.0919526
193	0xbb8ddca3	-0.0043292805
194	0x3d2ef5ab	0.042714756
195	0x3de1f8d5	0.11033789
196	0xbca7ffd8	-0.020507738
197	0xbdd39a82	-0.103322044
198	0xbe0183ed	-0.12647982
199	0x3cababf5	0.020956019
200	0xbd2e9b7c	-0.04262875
201	0x3d5c4896	0.05378016
202	0x3dae786b	0.08519062
203	0xbe002663	-0.12514643
204	0xbdb4b0c0	-0.08822775
205	0xbc0eedfb	-0.008723731
206	0x3d15d219	0.036577318
207	0x3d84a510	0.06476796
208	0xbd4e0d78	-0.050305814
209	0x3e10e082	0.14148143
210	0xbd045d4e	-0.032315545
211	0x3d4098e8	0.047020823
212	0xbdb21493	-0.086953305
213	0xbcc22dab	-0.023703417
214	0x3d2f6c1c	0.04282771
215	0xbd6fc171	-0.05853409
216	0x3cd6a535	0.026201824
217	0xbd3609fa	-0.04444311
218	0xbb041119	-0.0020151793
219	0x3d87f227	0.06637984
220	0xbd94c20a	-0.072635725
221	0xbcab3fd7	-0.020904465
222	0x3c9546a7	0.018222166
223	0x3e173c8b	0.14769189
224	0x3cb8c319	0.022553967
225	0x3d062399	0.032748792
226	0xbd3611a6	-0.044450425
227	0xbbb6722f	-0.005567811
228	0x3d2877bc	0.041129813
229	0x3e07066f	0.13186048
230	0xbe0eaddf	-0.13933514
231	0x3dbb0a0a	0.09132774
232	0x3d345fbc	0.044036612
233	0x3d6a9268	0.05726853
234	0x3da4ce37	0.08047145
235	0xbd8fd9da	-0.07023974
236	0x3dfa3930	0.12217939
237	0xbd5a71ee	-0.053331308
238	0x3c8a9473	0.01691649
239	0xbcafd58e	-0.021464135
240	0x3d558aab	0.052134197
241	0x3d6b7d35	0.057492454
242	0x3dbed5eb	0.09318145
243	0xbd911782	-0.07084562
244	0xbc50d644	-0.012746397
245	0xbcc6be84	-0.024260767
246	0xbd13d417	-0.036090937
247	0x3d8fcea9	0.07021839
248	0x3b792c54	0.0038020806
249	0x3d6ced61	0.05784357
250	0xbc4cc215	-0.012497445
251	0x3de7c836	0.11317484
252	0xbdae2af2	-0.08504285
253	0xbc9a5f21	-0.01884419
254	0xbbb088e3	-0.005387412
255	0x3d0798ad	0.033104587

fc.bias f4 [5]
0	0x3c700a2f	0.014650865
1	0x3b1fe693	0.0024398908
2	0xbc58cc1e	-0.013232259
3	0x3b60bd0c	0.0034292368
4	0xbca272a7	-0.019830061
