CNN_params.pth (torch, 18107 bytes, 4 tensors)

conv1.weight f4 [32, 20, 5]
00000000: bbb8 b2bd 2633 8cbd 58ab 26bd 4fc0 fc3c
00000010: 2b5a 95bd af14 b9bd df70 43bd 64ee 08bd
00000020: 79e5 b2bd 1a3f 5ebd 8117 6ebd c8ad 67bd
00000030: a233 853d 89bb 26bd df1d 593d 45ed 0dbd
00000040: 5523 62bd bfd4 a9bc 9796 b7bd 39bd c1bd
00000050: 32cd 56bd b06d e6bb 0996 98bd 0e1b fdbc
00000060: b2ee 123c f03e ec3c 8954 27bd d21e d8bc
00000070: 7ed7 e8bd 031a de3c 5028 9dbd b2e7 893d
00000080: c615 753d 6cbd dbbd 9f51 f6bd fd2b a5bd
00000090: 7e27 1e3d 43a2 9439 9493 87bb 8e28 b3bd
000000a0: 6dae e63c 2523 28bd 6910 f2bd 398e f83c
000000b0: 18f1 bfbd 2a3b 033d 26f6 103d 1abf 56bb
000000c0: c81c e3bd 8a16 413d 4b76 80bd 23dc f1bd
000000d0: a824 023d fe63 593d 687a 03be 3d6f 15bd
000000e0: 6845 2fbd 792b d83c 0f18 cdbc e4e4 66bc
000000f0: 46c5 853d 6181 39bb d45b 7a3d 0e73 95bd
00000100: e7fa 7dbd 28fe 683d c33d c8bd 00d6 52bd
00000110: 2b7a 65bc aff3 01be 4cac 52bd 74e3 c9bd
00000120: e351 553d a710 dbbd 805e 733d e760 82bd
00000130: 5b44 eabd 2f73 e9bd 4193 78bd 6253 3f3d
00000140: 0c57 96bd 7134 3ebd 0185 3dbc 2c46 ddbd
00000150: 828f 883d 115e 143b 0d8c 08bd 77a6 a2bd
00000160: 2563 263d 2b4d a2bd ad70 9d3c 4b98 c53b
00000170: de97 eaba 1764 113c afe4 293c bde0 5fbc
00000180: 790d b9bc 07d9 bebd 0493 5bbd 4108 28bd
00000190: 4667 34bd 46dc b83d 6517 5a3d 1d08 cfbd
000001a0: 9f04 8ebd 4150 df3d 1b3d 603d 4e02 afbc
000001b0: 36a2 7ebb 5fca 513d 4722 523c 0882 aebd
000001c0: db68 72bd 7b21 aebc 923d 543d 7e6a d63c
000001d0: f224 563d e1df a1bb 33f9 b53c cad4 ddbd
000001e0: 9f67 383d ef55 cf3c 642e 99bd 46d0 2abd
000001f0: ff94 eebd 7e73 1b3c cbac a5bd 1746 92bd
00000200: 9466 04bd b9bc 543d 4a05 a43d ca80 c4bd
00000210: a597 d1bd d526 fe3c 7946 f0bd e6d0 a83d
00000220: bbd3 12bd f1c2 243d 3d31 873d 682a 2e3d
00000230: d14a 3cba 4c43 9c3c 941d 1b3c 5dd1 edbc
00000240: 84f0 343c 8e42 843d 2a8f 943c 08d7 60bd
00000250: 21cf 00be dba0 213d 197d 12bd e2cf d03c
00000260: cd81 acbc 502f 74bd 8ac8 d7bb 23d0 3a3d
00000270: 8951 afbd 1f10 e03a 4a0b 66bd a354 413c
00000280: 578f ed3a fd13 aabd 5594 4c3c 63d3 283d
00000290: af9f a4bd 3ab8 b43d 21a1 fabc e45f 4dbd
000002a0: a2cb 00be 8db2 ecbd b907 a8bc 0023 d43d
000002b0: f1eb fcbd 0c6d ccbb 3032 353d a1f9 a23c
000002c0: da6f abbd 5040 febb 839a 483d 1e51 f5bd
000002d0: 0ffb 36bd 9c0e ab3d abd3 bebd 73c9 04bd
000002e0: 0e4c 56bd 5460 df3d 7fe0 3e3d b178 b5bd
000002f0: 5969 03bd 8c4b 0ebd 5690 d23c 2065 8c3d
00000300: 140c 073d bb91 9dbd a62f 26bd 9a8a 543d
00000310: 67a6 463d 2082 5a3d 5b7e d7bd f346 aabc
00000320: 5d8e d33d ae92 8c3d 1a02 5ebc 664d 753d
00000330: ae09 39bd 0ebd 87bd e2a8 91bc 679f 5abd
00000340: aba6 dfbd c65c ecbd 3f1d dc3c 1e4d f6bc
00000350: 243c 33bb 0460 843c 4ce1 0ebd e983 06bb
00000360: f79b 81bd 5f3d 8b3d 4d80 88bd 8541 92bd
00000370: e2d8 8fbb de45 a5ba c016 e3bd db32 3d3d
00000380: 56e9 5bbb 411a 6abd 6daf 003e 021d 553d
00000390: 3ae2 adbd 04de e3bd 8670 1abd 1cc2 023c
000003a0: 0388 aabd d092 c4bc 178a d9bd 3fcf 363d
000003b0: a040 7abd 88b9 2abd aeae 88bd 6043 b5bd
000003c0: 7217 013e 6ed0 8fbd 7ab2 f8bd db92 373d
000003d0: 44ae afbd 71a9 60bd a335 363c 81fe 0d3d
000003e0: 935e d23b 8a03 2fbd 83b7 74bd 7a55 0abd
000003f0: 8571 5ebc 73bb a73c d0e0 e8bd 14b8 87bd
-0.08726641 -0.06845693 -0.04069075 0.030853419 -0.07292589 -0.09037148 -0.047715064 -0.033430472
-0.08735175 -0.054259397 -0.058127884 -0.056562215 0.06503989 -0.04070619 0.053007003 -0.034650106
-0.055209477 -0.020731328 -0.089642696 -0.094599195 -0.052441783 -0.0070321187 -0.07450492 -0.03089669
0.008968042 0.028838605 -0.040852103 -0.026381884 -0.11369227 0.027112013 -0.076737046 0.067336455
0.059835218 -0.10729489 -0.12027287 -0.08065031 0.03861188 0.00028349654 -0.0041374657 -0.087479696
0.028159345 -0.04104914 -0.11819536 0.030341255 -0.09372157 0.032038845 0.035390995 -0.0032767714
-0.11089474 0.047140636 -0.062725626 -0.11809566 0.03177324 0.053073876 -0.12839663 -0.03648304
-0.0427908 0.026387917 -0.025035886 -0.014092658 0.065317675 -0.0028305876 0.06112273 -0.072973356
-0.062006857 0.056883007 -0.09777405 -0.051473618 -0.014006178 -0.12690614 -0.051433846 -0.09857836
0.052080046 -0.106965356 0.059416294 -0.06366139 -0.11438819 -0.11398923 -0.060687307 0.04671038
-0.073408216 -0.04643673 -0.011567355 -0.108044 0.06667997 0.0022639076 -0.033336688 -0.07941907
0.040621895 -0.07924875 0.019218767 0.0060301176 -0.0017898043 0.008873961 0.010369464 -0.013664422
-0.022589432 -0.093187384 -0.053607002 -0.041023497 -0.0440438 0.09026389 0.053244967 -0.10108969
-0.06934475 0.10903979 0.054745775 -0.021363404 -0.003885401 0.051218387 0.012825555 -0.08520895
-0.05918203 -0.0212562 0.05181653 0.026173826 0.052281328 -0.0049400185 0.022213554 -0.10831602
0.045020696 0.025309531 -0.074795514 -0.04170253 -0.116495125 0.009487985 -0.08089598 -0.07142275
-0.03232439 0.051937792 0.08008821 -0.09594877 -0.10234002 0.031024376 -0.117321916 0.08242969
-0.035846453 0.040224973 0.06601188 0.04252091 -0.00071827794 0.019075058 0.009467501 -0.029030496
0.0110436715 0.06458007 0.018134672 -0.05489257 -0.12579013 0.039460044 -0.035763834 0.025489751
-0.021057988 -0.059615433 -0.0065851854 0.04560865 -0.085604735 0.0017094648 -0.05616311 0.011799964
0.0018124384 -0.08304594 0.012486537 0.04121722 -0.0803827 0.08824201 -0.03059441 -0.050140277
-0.1257768 -0.11557493 -0.020511495 0.10358238 -0.1234969 -0.0062385853 0.044237316 0.019894423
-0.08370943 -0.0077591315 0.04897548 -0.119783625 -0.044673022 0.08352396 -0.09317716 -0.03241868
-0.052318625 0.10907045 0.046600815 -0.08860911 -0.03208289 -0.034740016 0.02570359 0.068552256
0.032970503 -0.076938115 -0.040572785 0.051889993 0.048498537 0.053346753 -0.10522147 -0.020785784
0.10329888 0.068639144 -0.013550306 0.059888266 -0.045175247 -0.06627856 -0.017780725 -0.053374674
-0.10920461 -0.11541133 0.026869414 -0.03006607 -0.002734908 0.016159065 -0.03488283 -0.0020525402
-0.06328576 0.06798815 -0.066650964 -0.07141403 -0.004389868 -0.0012609323 -0.110883236 0.046191078
-0.0033555827 -0.057153944 0.1256692 0.052029617 -0.08490415 -0.111263305 -0.037704967 0.00798085
-0.083267234 -0.023995787 -0.10622042 0.04463124 -0.061096787 -0.041680843 -0.066739425 -0.088507414
0.126066 -0.07022177 -0.12143417 0.044817787 -0.085781604 -0.054849092 0.011121186 0.034666542
0.0064199655 -0.042727984 -0.059745323 -0.033772923 -0.01357687 0.020475125 -0.113710046 -0.06626907

conv1.bias f4 [32]
00000000: c826 67bd 9716 9abd 86c8 13bd a944 aabc
00000010: 167f b0bd 715c 79bd 14ab dfbc aeab 06be
00000020: acb4 63bd 30f1 e9bd 7bdc 25ba d7d3 043d
00000030: c549 b4bd 650f f6bd 1bb6 673d add7 85bd
00000040: 23a6 b2bc f1bb e93c b3f8 bd3b 4837 0d3d
00000050: 7dc6 663b 5863 9cb9 dde1 f1bd 564d 9dbc
00000060: 6c8b ee3b ffce dbbc 0526 a5bc 41d4 c63c
00000070: 28df 51bc e408 32be 1999 dbbd 45e8 32b8
-0.05643347 -0.0752384 -0.036079906 -0.020784693 -0.0861799 -0.060879175 -0.027303256 -0.13151428
-0.055592224 -0.11422956 -0.00063271046 0.03242859 -0.08803133 -0.12014655 0.056570154 -0.065352775
-0.021807736 0.028532 0.0057974695 0.03447655 0.0035213523 -0.00029828656 -0.11810658 -0.019201916
0.007279804 -0.026832102 -0.02015973 0.024271132 -0.012809552 -0.17386204 -0.107225604 -4.2654825e-05

fc.weight f4 [5, 64]
00000000: 835b 3f3d 1d93 333c 113d 913d b351 ce3d
00000010: ecd4 a03d 2b9d fabc 9bdf 843d 1d30 91bd
00000020: 38ff 6a3b 9573 193e ae43 003d 0890 bebd
00000030: 14ba d83d 06e8 dfbd 96f7 dbbb e5c9 ac3b
00000040: f45e 5a3d 90a0 7ebc 9a99 8bbd fa56 c73d
00000050: d86d 7ebd 94c1 d93c c32b 8f3d b59c 98bd
00000060: 988d d43d 4455 bcbd dfed 053d 675c 933d
00000070: 6bb2 8e3d 8be4 c6bc f0a2 6fbc 8104 a6bd
00000080: 91ee e53c ba35 713d e11b b43b bce3 29bd
00000090: 4bb8 1f3d 3f23 acbc 5763 243a 1156 953d
000000a0: 824e 4cbd bc1b ebbc a085 37bb 58b9 103e
000000b0: 3384 d73d 7c2d 343d 6b7a e3bc ab1e 213d
000000c0: 9a73 e83d 5131 ecbc bc9a 95bd 59e8 9c3d
000000d0: ac98 893d 2f8a 863d 8662 f03d 0033 b63d
000000e0: 4758 453d f134 b4bd 5bed babc 39d8 1cbc
000000f0: 6ebf cf3c 7347 8e3d 7475 0fbd 4b9d d03c
00000100: 9c7f a2bd a3f7 8cbd 1323 acbd 5815 c23c
00000110: b1f2 5dbd 52a9 d4bb 5a56 67bd 28eb 72bc
00000120: 344c 373c 3273 263e fdb8 d03d a837 c53d
00000130: 68ee 443d 9810 873d 6515 fd3c 3d99 e7bc
00000140: 8f44 1e3c 8090 39bc 7b3c 703d 7096 b33d
00000150: 44cf fc3d 7d1d 803d 97a0 aa3d eb92 3d3c
00000160: ea6b a43d ceb8 9abd 0c85 dc3c 1c87 94bd
00000170: 0a13 953d 19dd cfbd 1c96 3c3d d78e b23c
00000180: c13d 793d 2a97 b93d 4017 0ebb c6c6 dc3c
00000190: 5fb8 fabc 43a1 2f3d 5e3f e43c ba4a f43d
000001a0: 2ffe b43d 7784 77bc 6c48 c53d ff6f 8bbc
000001b0: c050 d6bc dede 0c3d d46f 5ebc 0abd a43d
000001c0: a4d9 d43c d715 633c 392e 2bbd a2f9 e83d
000001d0: 3a6d 123d bcc2 0bbd 452c da3d fc2d 86ba
000001e0: 2581 12bd a033 403d 991b 823d 4f13 8e3d
000001f0: 83e2 a0bc 6c9e 833d 2380 c13c 60cb 873d
00000200: 9c5e 94bd 2870 e33d 92c5 3cbb 016e ae3d
00000210: 62b8 c43d ae80 cd3c 55d0 3dbd 27df 363d
00000220: 8b43 a3bd 90f9 62bd e8c4 93bc 0820 583d
00000230: 2c89 a03d 229b babd cf67 94bb 41fb d03d
00000240: dde1 96bd 20ef 373c 087e 16bc d723 f73d
00000250: 1a21 af3c c9ab 9cbd fe7f 423d bee4 72ba
00000260: 10e5 a0bc e854 8d3c 12dc e5bb 76f8 c23d
00000270: a168 103d 01f2 f83b 0868 cb3c cc8c 5ebd
00000280: 0942 9f3d ea2d aa3d a8bd 28bd c674 c43d
00000290: b037 0abc b4f3 003e f334 0dbd d63e 1b3d
000002a0: d8d8 68bd eeca c13c bbdf a73d 3ffd 63bc
000002b0: 5618 db3a 199b e9bc e5aa 44bd 801e e73c
000002c0: 5923 473d 7ed9 33bd 535a 233c 2e5d c23c
000002d0: 7280 7c3d e119 6dba 492a e03d f702 3f3d
000002e0: 086b 263d 5c74 ec3b 49c2 40bc 0700 1c3d
000002f0: f3ba 113c 19c4 e0bb 2e05 023e c306 cbbb
00000300: 4cb9 913d 1c69 02bc 87fc f0bc 6236 ae3d
00000310: bd1d 04bd 507c a0bd 34b0 9fbd e158 ccbc
00000320: fe66 a63d 592c 803d 3c64 9bbc 3847 793d
00000330: 50bf 3bbc b832 cc3c d169 393d 2c25 b1bd
00000340: fe18 57bd d0eb 653c f77d ab3d 2304 eb3d
00000350: ac36 953c 6e3d cfbc 22fa 7c3d 979b 08bd
00000360: 9054 ab3c 50ee cbbd cb79 8cbd 0b08 6b3d
00000370: d6ec 13bd 8fc0 a4bc ee4d e6bd 02f3 c1bd
00000380: e744 293c 6c3c e63d b894 043d 5964 493d
00000390: 6b12 3c3d 3417 d53d 113b d73d 4df2 743d
000003a0: bca7 393d 58cb d93d c0a7 983d cba8 1e3e
000003b0: fec8 063e 7937 213e 8184 493c 73d1 313d
000003c0: 70b8 0f3e 12d8 df3c baf9 8c3d de8e 8dbd
000003d0: 4e27 c7bb b882 7abd 09c1 a13d 2692 e43d
000003e0: 5585 f53b c282 d23d 9bc2 ecbd b3cf 0d3e
000003f0: 3850 913d a8e4 2abd 9022 153e 4390 b7b9
0.04671813 0.0109603675 0.070917256 0.10074177 0.078531116 -0.030592522 0.06487962 -0.07089255
0.0035857689 0.14985497 0.031314544 -0.093048155 0.105823666 -0.10932927 -0.006712864 0.005273091
0.05331321 -0.015541211 -0.068164065 0.09733386 -0.062116474 0.026581563 0.06990769 -0.074517645
0.10378569 -0.091959506 0.032697555 0.07195359 0.06967624 -0.0242789 -0.01462625 -0.08106328
0.028067859 0.05888913 0.0054964875 -0.04147695 0.038994115 -0.0210129 0.00062709063 0.072918065
-0.04987956 -0.028699748 -0.002800323 0.14133203 0.10523262 0.04398869 -0.027768334 0.039335888
0.11350174 -0.02883211 -0.07304904 0.07661504 0.06718573 0.06569325 0.11737542 0.08896446
0.04817989 -0.0879916 -0.022818258 -0.009573036 0.025359835 0.069472216 -0.03502412 0.025465628
-0.07934496 -0.068831705 -0.084051274 0.023691818 -0.054186527 -0.006489911 -0.056478836 -0.014826573
0.011187602 0.16254881 0.10191534 0.09629756 0.048078924 0.06594962 0.03089399 -0.028271312
0.0096599 -0.011325955 0.05865143 0.08768928 0.1234422 0.062556244 0.08331411 0.0115706725
0.080283955 -0.0755478 0.02691891 -0.072523326 0.07279022 -0.10149593 0.046041593 0.021796627
0.06084991 0.090620354 -0.0021681339 0.026950251 -0.030605493 0.0428784 0.027862247 0.119283155
0.08837544 -0.015107266 0.09632954 -0.017021177 -0.026161551 0.03439223 -0.013576467 0.08043869
0.025982685 0.0138601875 -0.04179213 0.11375739 0.035748698 -0.03412126 0.10652975 -0.0010237093
-0.035767693 0.046924233 0.0635292 0.069372766 -0.01963926 0.06426701 0.02362067 0.066305876
-0.07244608 0.111053765 -0.0028804285 0.08517075 0.09605481 0.025085773 -0.04634126 0.04464641
-0.07971867 -0.055413783 -0.018038228 0.052764922 0.078386635 -0.091116205 -0.0045289765 0.10204173
-0.07367299 0.011226445 -0.009185322 0.12067383 0.021378089 -0.07649953 0.047485344 -0.00092656526
-0.019640476 0.0172524 -0.00701476 0.095200464 0.035256032 0.0075972085 0.02482988 -0.054333493
0.07776267 0.08309539 -0.041196495 0.09592585 -0.0084361285 0.12592965 -0.034474324 0.037901722
-0.056847423 0.023656335 0.0819697 -0.013915359 0.0016715627 -0.02851634 -0.04801454 0.028212786
0.048617695 -0.04390859 0.009970265 0.023726072 0.061645932 -0.0009044689 0.10945565 0.046633687
0.040629417 0.0072160196 -0.011765071 0.038085964 0.00889467 -0.006859314 0.12697288 -0.0061958744
0.07115421 -0.00795963 -0.02941729 0.085064664 -0.032254923 -0.07836211 -0.0779728 -0.024944725
0.08125113 0.06258459 -0.018968694 0.060858935 -0.011459187 0.024926528 0.04526693 -0.08649668
-0.05251407 0.014033273 0.08373635 0.114753984 0.018214546 -0.025297847 0.061761983 -0.033351507
0.020914346 -0.09957564 -0.06859168 0.057380717 -0.036114536 -0.02011135 -0.11245333 -0.09470178
0.010331369 0.11241993 0.03236839 0.049167965 0.045916002 0.10404816 0.10509313 0.05980139
0.04532598 0.10634488 0.07453871 0.15494077 0.1316261 0.15743817 0.012299658 0.043412637
0.14035201 0.02732471 0.06883569 -0.069120154 -0.0060776835 -0.06115982 0.07898147 0.11160688
0.007492701 0.10278846 -0.115605555 0.13848762 0.07095379 -0.04172197 0.14563966 -0.00035011963

fc.bias f4 [5]
00000000: 249d a8bc 51b1 81bc 6281 94bc 8ef6 663c
00000010: 1e74 aa3d
-0.020582743 -0.015831621 -0.0181281 0.014096869 0.08322929
