CNN_params.pth (torch, 21499 bytes, 4 tensors)

conv1.weight f4 [32, 25, 5]
000000 9a 6a 8b bb f3 18 3b 3d c8 ce a2 bc 89 d1 79 bb
       -0.0042546513 0.04567809 -0.019873992 -0.0038119277
000010 4a a0 d5 3a 0a 9f 6b bd ac c1 87 bd c7 e0 86 3d
       0.001629838 -0.05752472 -0.06628737 0.065858416
000020 01 21 11 bd ab 84 dc 3c 5a a3 1c bd 7c d9 40 3d
       -0.035431866 0.02691873 -0.03824172 0.04708241
000030 19 bd be bd ae 69 be bd 73 ef 8b bd 20 58 57 3d
       -0.09313411 -0.092975006 -0.06832781 0.052574277
000040 2d de c3 bc a3 26 6d 3d b6 56 57 bd 4b 55 51 3d
       -0.023909653 0.057898175 -0.05257293 0.051106732
000050 26 95 9a 3c 25 75 b1 bd 8b 14 26 bb 9a 3c 2c bd
       0.018869948 -0.08664922 -0.0025341834 -0.04204998
000060 7e 34 c7 3c 00 66 a9 3d 21 fb a3 3c 39 e3 93 bd
       0.024317022 0.08271408 0.020017209 -0.07221074
000070 77 36 56 bd d7 7c 49 bd a6 c3 86 bd c9 53 ad bc
       -0.052298035 -0.049191322 -0.06580286 -0.021158116
000080 cb 36 18 bb 33 40 a0 3d 36 81 95 bb 9a d0 66 bd
       -0.0023226019 0.07824745 -0.0045625223 -0.05635128
000090 25 0e 88 3c 01 5e 8e bd de 3e 75 3d 3a b2 f2 bc
       0.016608307 -0.069515236 0.059874408 -0.029626
0000a0 1b 88 89 3d 5a 43 00 3d 6a b0 5f 3d 68 8f 42 bd
       0.06715413 0.03131423 0.0546116 -0.047500044
0000b0 99 b0 5c 3d 2b 67 a0 3d 91 be 98 3d eb 4c b3 bd
       0.053879354 0.07832178 0.07458223 -0.08754905
0000c0 3d 50 52 bd f5 2a 4d bb ee b3 60 39 9a 78 76 bc
       -0.051346052 -0.0031306122 0.00021429334 -0.015043402
0000d0 ff af 15 3d c8 a6 af bd e6 08 bc bd f6 b2 37 3d
       0.036544796 -0.08576733 -0.09181385 0.044848405
0000e0 b4 3c 85 3d a3 59 7c 3d 2d c1 5e bd d7 8f 56 bd
       0.06505719 0.06160892 -0.054383446 -0.05238327
0000f0 be fe 4c 3c a0 a2 b7 3c d1 19 ac bd 18 9a 32 3d
       0.012511907 0.022416413 -0.084033616 0.043603987
000100 67 21 0a 3c 82 4c 93 3c 25 eb 0d bd 51 00 94 3d
       0.008430815 0.017980818 -0.03464808 0.07226623
000110 ba c8 6b bd 34 b8 c1 bd 08 f8 88 3d 6c 73 b6 bd
       -0.057564475 -0.09458962 0.06687933 -0.08908734
000120 7f 1f 26 bd 2d 04 51 bd f8 56 20 3d 5b e2 32 bc
       -0.04055738 -0.051029373 0.03914544 -0.010918225
000130 4b ad 92 3d 12 ab ea bc da 50 af bd 45 72 4d 3d
       0.07161959 -0.028646026 -0.08560343 0.050157804
000140 3f 67 c0 bd e3 bf 03 3d fb 08 c9 3b 64 39 11 3d
       -0.09394693 0.03216542 0.0061351038 0.035455123
000150 2c 0e 6d 3d 59 97 18 bd 1b a1 88 3d 13 ce 83 bd
       0.057874843 -0.03725371 0.066713534 -0.0643579
000160 c9 55 b3 bd 17 26 39 3b 7f 89 0c bd f0 dd 21 bd
       -0.087565966 0.0028251463 -0.034310814 -0.039518297
000170 fa 47 ea 39 34 52 95 bd 76 b6 0c 3c da aa 92 bc
       0.00044685585 -0.072910696 0.008588424 -0.017903734
000180 2c d1 9d bd e1 05 db 3c 9f 82 aa bd 32 02 bb bd
       -0.07705912 0.026736202 -0.08325695 -0.09131278
000190 75 ec a5 bd 04 d1 94 bd 3f 34 38 bd 7c c6 a5 bd
       -0.08101741 -0.07266429 -0.0449717 -0.080944985
0001a0 6c fe 50 3c 39 b2 1a 3d d5 83 1e bd 84 e8 ba bd
       0.012755971 0.037767623 -0.038699944 -0.0912638
0001b0 f9 99 97 bd ee 21 8c 3d 4c 8d 6e 3d 33 74 c2 bc
       -0.07402415 0.06842409 0.05824022 -0.023737049
0001c0 9c 10 06 3d ff 55 a8 3d 20 c7 ae bd 99 69 9b 3d
       0.032730684 0.082195275 -0.08534074 0.075885005
0001d0 13 8f 8c 3d 20 06 91 3d 2a b1 04 3d 72 5c 40 3d
       0.06863227 0.070812464 0.03239552 0.046963163
0001e0 56 c0 40 bd e1 b2 de 3a a1 9c af bd 4a 49 3f 3d
       -0.047058426 0.0016990566 -0.085747965 0.046700753
0001f0 8c 28 83 3d 05 98 96 bc 47 7b 85 bc 21 4c c7 bd
       0.06404218 -0.018383035 -0.016294135 -0.09731317
000200 ac 00 16 3d cc d8 92 3a 8e f1 7e bd 11 dd 1e 3c
       0.036621734 0.0011203527 -0.062242083 0.009696261
000210 74 c3 93 bc 57 78 9b bd d8 f5 f6 3c 7e cc b4 bd
       -0.018037535 -0.075913124 0.030146524 -0.08828066
000220 7d 7a ef 3b d2 7b 8f bb be d8 c2 bd 20 08 16 3d
       0.007308303 -0.004378774 -0.095139965 0.036628842
000230 db e4 a8 3c c5 6e 88 bd c9 f9 a5 bd 78 88 36 bc
       0.02061694 -0.066617526 -0.08104283 -0.011140935
000240 36 24 60 bd 0e 10 9a 3d d8 0d 7c 3b 29 74 37 3c
       -0.054722033 0.075225934 0.00384604 0.011197128
000250 ea 8a 9f bd b5 ad 66 3c d9 27 bd bd 2d 3b 72 3d
       -0.07790168 0.014079501 -0.09236116 0.059138466
000260 50 85 f5 bc 95 37 95 3d 07 e8 06 bd 42 a8 a2 bd
       -0.029970795 0.07285992 -0.032936122 -0.07942249
000270 18 26 f4 3c 60 c9 99 bd 5a 9e c3 bd c9 2b 27 bd
       0.02980332 -0.07509112 -0.095516875 -0.04081324
000280 97 06 46 bd 2e 02 f4 3c b4 ea 0d bd 03 c2 5c bd
       -0.04834613 0.029786196 -0.03464766 -0.05389596
000290 e7 7c 24 3c a6 a7 69 bd f9 bd 0e 3d 11 2f 9f bd
       0.010039545 -0.057044648 0.03484914 -0.07772649
0002a0 31 6a 20 3d 58 b0 5f 3d 0d e3 8f bd 66 8f 00 3d
       0.039163772 0.054611534 -0.070257284 0.031386755
0002b0 89 77 6c 3d e5 66 76 3d 13 9d 34 bd 81 f2 c5 bb
       0.057731185 0.06015672 -0.04409511 -0.0060408716
0002c0 82 c2 84 3d 7b d1 77 3d f8 b9 f9 3c 02 c5 dc 3c
       0.06482412 0.06050251 0.030484185 0.02694941
0002d0 eb da 3d bd be 93 78 3d a4 c6 98 bc 56 ea 69 bd
       -0.046351355 0.060687773 -0.018649407 -0.057108246
0002e0 97 79 1d bc d0 08 c3 bd d5 94 9e 3d 20 c6 bd bd
       -0.009611509 -0.09523165 0.07743231 -0.09266305
0002f0 de d9 d2 bc 7d 66 93 3d aa 03 a8 bd f6 50 b1 bd
       -0.025738653 0.071972825 -0.08203824 -0.0865802
000300 0e 92 d3 bc ad 82 75 3d dc 78 0d bd fc 68 e9 bc
       -0.02582648 0.059939075 -0.03453909 -0.028492443
000310 23 75 90 bd 21 e3 03 3d 32 f5 63 bd f7 d0 da 3a
       -0.07053592 0.03219903 -0.05565376 0.0016694356
000320 4d 45 e3 ba 57 20 8b 3c 05 ac 22 bd 56 09 c4 bd
       -0.0017339379 0.016983194 -0.03971483 -0.09572093
000330 e5 f2 c2 bd 72 18 ab bd 7e dc ce 3c 03 a1 5b 3d
       -0.09518985 -0.08354272 0.025251623 0.05362035
000340 8e 37 1d bc 36 28 f4 3c 1c 6b 95 3d 98 a4 81 3d
       -0.009595765 0.02980433 0.0729582 0.06330222
000350 45 37 c5 bd 7e c2 34 bd 8a 5e 7f bc ad 8d d2 bd
       -0.096296825 -0.044130795 -0.015586505 -0.10280929
000360 b4 0c ee bc 90 ff 88 3d fb bf 9c bd a0 27 8d 3d
       -0.029058792 0.0668937 -0.07653805 0.068923235
000370 9b fb 2c 3d 8f 71 15 3c ba 55 79 3d 3e 87 68 3d
       0.042232137 0.009121313 0.06087277 0.056769602
000380 b8 be 2d bd b3 b7 b8 bc f1 3e 08 bd f0 0b b3 bd
       -0.04241821 -0.022548532 -0.03326315 -0.08742511
000390 f8 6f 15 3d 49 bb 98 3c f2 2d a9 bd aa 3c b5 bd
       0.036483735 0.018643992 -0.082607165 -0.088494614
0003a0 15 3f 88 bc b9 ac 83 3c 56 a2 a0 3c 92 d3 7b 3d
       -0.016631642 0.016073572 0.019608658 0.061481066
0003b0 7c 92 b3 bd 1a 63 b2 bd d9 96 ba bd 09 56 4c bb
       -0.08768174 -0.087103084 -0.09110803 -0.003117921
0003c0 62 18 92 3c be 62 94 3d f8 6d be bd 94 a2 a3 bd
       0.017833892 0.07245396 -0.092983186 -0.07989994
0003d0 07 57 1d 3c 83 61 6a 3d 72 b5 25 bd 2b 02 a1 3d
       0.0096032685 0.0572219 -0.040456243 0.07861742
0003e0 d5 69 16 3d 75 d8 81 bd 40 6b f9 3c ef c9 a1 3d
       0.036722023 -0.06340114 0.030446649 0.07899844
0003f0 bb 93 73 3d a8 8c 2f bd dc 9f a0 bb e9 98 af bd
       0.05946706 -0.04285875 -0.004901869 -0.08574087

conv1.bias f4 [32]
000000 2a 71 bb bd 61 16 b0 bd d8 a0 1c bd 9a c0 1e 3c
       -0.09152444 -0.085980184 -0.03823933 0.0096894745
000010 ed 28 ac 3c 78 af 8c 3c e0 12 89 bd 6f 5a 1c 3e
       0.021015609 0.017173514 -0.06693053 0.15268873
000020 8c 15 07 3d d8 2b 69 3d 7a 84 3a 3d 08 c3 80 bd
       0.032979533 0.05692658 0.045536496 -0.06287199
000030 89 aa bf bd 10 42 72 bd 42 f5 a8 bd 6d 05 84 b9
       -0.09358699 -0.059145033 -0.08249904 -0.00025181044
000040 45 e0 70 3d c3 63 82 3a 8e cd cf 3c 91 bf 51 bd
       0.05880763 0.0009947944 0.02536657 -0.051208083
000050 f3 56 77 bd bd 7b 5e 3d 42 98 a6 3d 2b 87 bd bd
       -0.060385656 0.054317225 0.081345096 -0.09254297
000060 b0 06 c4 bd c4 07 82 3c f4 89 8e bd a7 75 b1 ba
       -0.09571588 0.015872844 -0.06959906 -0.0013539091
000070 99 f1 a5 3d 66 d7 34 bd c6 ba 5c bd 9a ab 16 bd
       0.08102722 -0.044150732 -0.05388906 -0.036784746

fc.weight f4 [5, 64]
000000 e1 65 a9 3d a7 0c 69 3d 3f cf ed bd 37 7d a0 3d
       0.08271385 0.05689683 -0.11611795 0.07836383
000010 55 e1 c4 3d a2 a7 71 3d 58 2f 75 bd bb ff a9 bd
       0.09613291 0.058997758 -0.059859604 -0.0830073
000020 b2 ff eb 3d f1 b0 fb 3d f3 fe cd bd 6f a7 17 bd
       0.115233794 0.12289608 -0.10058393 -0.03702491
000030 78 b8 b8 3d 70 c2 a5 3d fa 0b f5 bd 2c 91 ea bd
       0.090195596 0.08093727 -0.11965175 -0.114534706
000040 d2 95 ae bd e4 8b a6 3d 1d 30 0d 3d b1 a0 47 bc
       -0.0852467 0.08132151 0.034469713 -0.012184308
000050 fd f9 97 bb 29 3d 3b bd 89 cb a3 3d da d0 bc bc
       -0.004637955 -0.045712624 0.079978056 -0.023048807
000060 b0 b3 9b 3b 10 c1 d0 3d ab a1 bc bc 60 5f 87 3d
       0.004751645 0.10193074 -0.023026308 0.06609988
000070 45 be cd 3d e6 55 41 bd 69 e6 2b 3d d3 4c 8e 3d
       0.10046057 -0.04720106 0.041967783 0.06948247
000080 bb cc 38 bd 21 f0 61 bc 09 5a 1d bd f4 8f 04 3d
       -0.04511712 -0.013790161 -0.038415942 0.032363847
000090 b8 d0 35 bd d9 29 f1 3c 91 28 be bc f2 d8 45 bd
       -0.044388503 0.0294389 -0.023212703 -0.0483026
0000a0 12 ac 08 bd 80 0c 1a bb 36 5d 29 bd ab 59 1c 3d
       -0.033367224 -0.0023505986 -0.04134866 0.03817145
0000b0 a1 a4 f5 3d f5 fc f1 3d 63 91 fb 3d 54 b5 2e 3d
       0.11994291 0.11815826 0.1228359 0.042653397
0000c0 d6 c8 e8 bc 53 ec 56 bd 6e 55 d1 bd 90 9d a7 3c
       -0.028416079 -0.05247147 -0.102213725 0.020460874
0000d0 7e 04 01 bd f6 a1 d4 bd ee 40 a7 3d ba 45 ce 3d
       -0.031498425 -0.10382454 0.08166681 0.10071893
0000e0 e2 7c dc bd 3a a2 c7 bd b5 38 4e bd 18 1c ca bd
       -0.10766007 -0.09747739 -0.05034705 -0.0986864
0000f0 a8 47 6e 3d af ba e1 38 12 db 54 bd 27 a4 85 bc
       0.058173805 0.000107636086 -0.051966734 -0.016313625
000100 8b d8 29 bd 83 4c ac 3d 7b d4 0b 3e e2 35 e9 bd
       -0.041466277 0.08413031 0.13655274 -0.113872305
000110 fc 58 da 3d 0d 59 59 3c f6 6d 02 3e 45 db 94 3c
       0.10661504 0.01326586 0.1273726 0.018170962
000120 e2 aa f6 3d de 13 00 3e 36 66 ac bd 3d ae 88 bc
       0.12044312 0.12507579 -0.08417933 -0.016684646
000130 f9 b5 5c bd c5 69 cf 3d b4 36 0e be 3d 51 66 bd
       -0.05388448 0.10127596 -0.13888055 -0.05622982
000140 3d 60 6e bc 21 a1 6d bb 69 e4 02 bb 08 dd 9b bc
       -0.014549312 -0.003625937 -0.001997257 -0.019026294
000150 6e 39 4b 3d 12 37 a3 bd 18 1e 47 3b 79 63 4f 3d
       0.049615316 -0.07969488 0.0030382928 0.050631974
000160 97 9a 70 3d 03 89 13 bd 09 54 68 bd 91 46 c4 bd
       0.05874118 -0.036019336 -0.056720767 -0.09583772
000170 52 33 0e bc 1b 87 b8 3c df e3 97 3d 0b ed b6 bd
       -0.008679228 0.02252536 0.0741651 -0.08931931
000180 e0 5f b4 3d 58 57 fb bd c6 09 81 3d 52 2f be 3d
       0.08807349 -0.12272519 0.06300692 0.092863694
000190 d3 64 d6 3d 13 3f 75 3d 66 59 a0 3c 12 aa 4b bd
       0.104684494 0.059874605 0.019573878 -0.04972274
0001a0 95 4e c4 bd f4 04 cb 3d 0b dc 88 bd 86 b3 a8 3d
       -0.09585301 0.09913054 -0.06682595 0.082373664
0001b0 bf 9d c1 bc 2c 4f 9a 3d dc ab 27 b9 f8 10 6c bd
       -0.02363479 0.07534632 -0.00015990384 -0.05763337
0001c0 b9 68 9d 3d 84 77 b2 3d 0c ae 95 3d f7 89 4d 3d
       0.0768599 0.08714202 0.073085874 0.0501804
0001d0 e3 d6 b3 3c 1c 8b 8a bd a7 6b a0 bd f5 69 8c 3d
       0.021953052 -0.06764814 -0.07833033 0.06856147
0001e0 16 09 2a bd 25 73 3f 3d f5 fa ab bd e8 81 ac 3c
       -0.04151257 0.04674067 -0.08397476 0.021058038
0001f0 7d ec da bd db 9b 9b 3d 23 0f d8 bc e5 9d d2 3c
       -0.10689638 0.075980864 -0.026374405 0.025710056
000200 18 e9 81 bd 5d c3 b4 3d 9d df a2 bd 8e 5d d4 3d
       -0.06343287 0.08826325 -0.07952807 0.10369407
000210 99 7d bb bd 2a 53 80 3d d0 c1 ea 3d 3c 5c 98 bd
       -0.09154815 0.06265862 0.11462748 -0.07439467
000220 2d 97 c6 3d b9 af ef 3d 18 4d d4 bd a1 9a 8b 3d
       0.09696803 0.11703438 -0.10366267 0.068166025
000230 e1 39 34 3d f3 9a 94 3d 5b a8 db bd fa 83 d3 bd
       0.04400051 0.07256117 -0.10725471 -0.10327907
000240 93 b6 92 3c d0 c0 03 3d bf 4e 46 3d bf b9 85 bc
       0.017909324 0.032166302 0.048414942 -0.016323922
000250 a2 25 08 3d 4e c7 49 3d 4c 4f b5 3c 5b d0 76 bc
       0.033239014 0.049262337 0.022132538 -0.015064324
000260 7d 64 d8 bb c3 d9 1a bd 24 0b 5b bc 33 77 1d 3c
       -0.006603776 -0.03780533 -0.013369355 0.009610939
000270 60 d1 79 3d 7b 8d af 3d 51 c9 fc 3b 8c a6 a3 3d
       0.06099069 0.08571907 0.0077144285 0.07990751
000280 c4 7c ba bd ac a9 c7 3b a7 82 8b 3d 84 8d db 3d
       -0.091058284 0.0060932245 0.06812029 0.10720351
000290 f1 55 8a bd 8a fb cd 3d a8 52 c9 bd b3 28 07 bd
       -0.06754673 0.10057743 -0.098302186 -0.0329978
0002a0 bf 4b bb bd 56 7f ce bd 92 ba 1a 3d 7c 48 b4 3b
       -0.09145307 -0.10082881 0.037775584 0.005501805
0002b0 e9 4c 6a 3d d6 85 8d bd 93 48 68 3c e8 81 a4 bd
       0.057202253 -0.06910293 0.014177459 -0.0803259
0002c0 22 6f 90 bd 64 cc 15 bd b4 55 bc 3d 55 e3 7b 3d
       -0.07052447 -0.036571875 0.09196034 0.061496098
0002d0 28 2e b3 3d d6 05 9f 3d 6e 59 97 bc c7 df b2 3d
       0.08749038 0.07764785 -0.01847526 0.087340884
0002e0 94 47 9d bd 4e 5c b7 3d c1 1c d6 3c a0 80 de bd
       -0.07679668 0.089531526 0.026136758 -0.10864377
0002f0 9f 4d e1 bc f1 69 40 3d 98 3e fd 3c 56 1a b1 bd
       -0.027502833 0.046976034 0.030913636 -0.08647601
000300 70 ec 9a 3d fb 48 59 bd d7 78 08 3c f6 28 8d bd
       0.07564628 -0.053048115 0.008329592 -0.06892578
000310 7b fb a5 3d 1a 7a b8 bd 6b 2c 4c 3d f9 2d d3 3d
       0.08104607 -0.09007664 0.049847048 0.10311503
000320 40 48 c3 bd c2 98 d7 bd d7 cc 7b 3d c6 7d ed 3d
       -0.09535265 -0.10527183 0.061474647 0.11596255
000330 34 89 39 bc 55 20 19 3d 42 ef 37 be ce d1 01 be
       -0.011324216 0.03738435 -0.17962363 -0.1267769
000340 cd c6 0c bd 63 58 d5 bc d8 44 de 3c cc 35 20 3d
       -0.03436928 -0.026043123 0.027132437 0.039113805
000350 9b d8 c0 bd 9a 74 1d bc 89 7b ce 3d 9a 88 89 3d
       -0.09416314 -0.0096103195 0.10082156 0.06715508
000360 89 49 94 3d f9 53 6e 3d 54 a5 53 3d f9 2d 75 bd
       0.07240588 0.05818555 0.05167134 -0.059858296
000370 8b 43 b8 3d 07 f6 09 3d 18 38 a7 bd 58 93 e2 3c
       0.08997258 0.033681896 -0.08164996 0.02765815
000380 1f 47 b1 3d 0b 3b ef 3c 1f 73 f6 ba d1 04 70 bd
       0.086561434 0.029202959 -0.0018802619 -0.058598343
000390 2e e6 55 bd 51 c9 f6 bc 14 99 da 3c c4 f3 3c 3d
       -0.05222147 -0.030125292 0.026684321 0.04613091
0003a0 4b 85 09 3e 6a f2 e6 3c 67 37 fa bc d7 1f eb 3d
       0.13429753 0.028191764 -0.030543996 0.11480682
0003b0 b5 af 1c bd 36 bf cb 3d 51 77 ff 3c c2 6b 05 3e
       -0.038253505 0.0994858 0.031184824 0.13029388
0003c0 9d 30 de 3d 48 a0 8f 3d d0 a7 2a 3d 72 15 5e 3c
       0.10849116 0.07012993 0.041663945 0.013554918
0003d0 82 d0 3f bd 8e 8f d8 bd c9 0f d7 3d cc 3a a7 3d
       -0.046829708 -0.10574256 0.10501058 0.081655115
0003e0 bf 35 7d 3d 3e bc e1 bd c6 a3 f1 3c 2f 84 25 3b
       0.061818834 -0.110222325 0.029497039 0.002525579
0003f0 77 10 1c 3d f0 42 ee 3b 3e 4b a3 bd 7e be f9 b9
       0.03810164 0.007271163 -0.07973336 -0.0004763491

fc.bias f4 [5]
000000 80 d5 28 3c 64 f5 f2 3c 99 9b e9 3b d7 0a 74 3c
       0.010304809 0.029658027 0.0071291444 0.014895163
000010 e1 58 79 3d
       0.060875777
