CNN_params.pth (torch, 21691 bytes, 4 tensors)

conv1.weight f4 [32, 25, 5]
-0.0022019327 0.0699187 0.0024378097 0.062662125 -0.04022858 -0.03560883 -0.061911132 0.0019135273
0.07023925 -0.083046235 0.012255117 -0.08370604 0.042947575 0.06809752 -0.03383126 0.07841
-0.094240606 -0.06318601 0.052239865 -0.008247249 -0.036726035 -0.014278563 -0.05042148 -0.03865523
0.049878947 -0.0955019 -0.031083614 -0.06340988 -0.015700325 0.06265466 -0.07996832 0.07770021
0.054677013 -0.09501119 -0.02536324 -0.08066002 -0.005352242 -0.082241714 0.050506 -0.002347331
0.01780749 -0.052214008 -0.008886987 -0.044532407 -0.044024915 0.0019456161 -0.034490697 0.038208794
0.045363102 0.0297661 0.019492796 0.07046218 -0.048724797 -0.09126994 -0.04442403 -0.0009822735
-0.0498115 -0.039833173 -0.039544564 0.06378048 -0.089353465 -0.072887726 -0.056879226 -0.07020014
-0.008574996 -0.05185893 -0.050586652 0.05788834 -0.09181388 -0.04883668 -0.062160544 0.009181411
0.04304086 0.050551794 0.021882273 -0.061909806 -0.010315859 0.067735344 -0.048669897 -0.075194426
-0.03445396 -0.056210015 -0.045045804 0.031125274 0.044771582 -0.038839184 0.035288855 -0.06882217
-0.012407212 -0.019352777 -0.005088776 -0.07354491 -0.007945704 0.034024194 -0.00030085858 -0.0061691613
0.021499105 0.018218586 -0.051949788 0.030370558 -0.085048035 -0.09861642 -0.041895717 0.022661295
-0.04058031 -0.08555738 0.022226557 0.010752399 -0.08912966 -0.10291693 -0.073634245 -0.045640793
0.036847614 0.058955114 0.005547495 -0.07094331 0.0073338985 0.04531294 -0.02315241 0.04394097
-0.029437663 0.008573196 -0.01442907 -0.03355034 -0.079939224 0.048862174 -0.019267853 -0.022350388
-0.0042457436 -0.053352557 -0.022653647 -0.0015134551 -0.08368519 -0.06555964 -0.036181662 0.03139406
0.05000071 -0.09684831 0.0448682 0.044215087 0.041299738 -0.086490385 -0.025791047 -0.033101205
0.04770288 0.036879756 -0.06741703 0.060501426 -0.028117118 0.014033114 -0.08661539 -0.059545103
-0.00043603306 0.04717137 -0.06432277 -0.017815875 0.06904327 0.02086115 -0.08774739 0.05046825
0.00910558 0.04396726 -0.028232533 -0.04813933 0.045505792 -0.00026959812 -0.0061434447 0.024422051
-0.07288812 -0.04617316 0.039950915 -0.08030811 -0.06491321 0.047721636 -0.07908735 0.0050002537
0.04839792 -0.09488623 -0.051747054 0.0104661435 -0.042398434 -0.07085208 -0.09791658 0.012524857
-0.026308557 0.0049652783 0.022437045 0.040165592 -0.062943935 -0.0556205 0.0799899 0.060113583
-0.079188526 0.0748018 0.018854732 0.066152714 -0.02318144 -0.06276026 0.013928547 -0.02102728
-0.0754362 -0.03524968 -0.053640917 -0.061279465 -0.08906899 -0.046601206 -0.05488622 0.027237184
0.008756393 -0.034417465 0.00916306 0.059354268 0.03163365 0.06450652 0.037833124 -0.058570642
0.06466321 -0.036837753 0.0031977731 0.035191983 -0.014316117 0.054867476 0.058879033 0.030987516
0.028822582 0.044662543 -0.08682653 0.0032882486 -0.035333034 -0.011676596 0.061129943 0.0044493517
-0.079409145 0.055958554 -0.011676283 -0.0079183495 0.041031662 -0.058626294 0.058685582 -0.0648808
-0.080772996 -0.039544877 0.011184009 -0.08780537 0.07449149 0.015694847 0.01126046 0.008984397
-0.07364648 0.040431034 -0.0024560865 0.028481282 -0.047164798 0.07691025 -0.1400249 0.008411993
00000000: 4d4e 10bb 8931 8f3d a9c3 1f3b 0055 803d
00000010: b9c6 24bd 91da 11bd 8796 7dbd 52cf fa3a
00000020: 99d9 8f3d 2514 aabd b0c9 483c 136e abbd
00000030: cce9 2f3d b676 8b3d a692 0abd 6c95 a03d
00000040: 3801 c1bd ab67 81bd 78f9 553d 781f 07bc
00000050: 0a6e 16bd a2f0 69bc c186 4ebd f254 1ebd
00000060: de4d 4c3d 8096 c3bd 10a3 febc 0add 81bd
00000070: f89d 80bc 1651 803d 6ec6 a3bd 4a21 9f3d
00000080: 01f5 5f3d 3a95 c2bd 92c6 cfbc 1531 a5bd
00000090: dc61 afbb 586e a8bd 61df 4e3d aed5 19bb
000000a0: 03e1 913c 5bde 55bd ba9a 11bc 9d67 36bd
000000b0: 7853 34bd 0b04 ff3a 1e46 0dbd d380 1c3d
000000c0: a9ce 393d 09d8 f33c 5baf 9f3c 7a4e 903d
000000d0: a793 47bd bceb babd f9f5 35bd a1bf 80ba
000000e0: 2507 4cbd 1c28 23bd 7bf9 21bd 579f 823d
000000f0: f3fe b6bd 2946 95bd 31fa 68bd 17c5 8fbd
00000100: 247e 0cbc 086a 54bd f333 4fbd 531c 6d3d
00000110: ea08 bcbd f808 48bd 0e9c 7ebd a16d 163c
00000120: 9d4b 303d 660f 4f3d 7442 b33c 2395 7dbd
00000130: d903 29bc d4b8 8a3d 165a 47bd 89ff 99bd
00000140: 981f 0dbd 793c 66bd f381 38bd 6efa fe3c
00000150: 6862 373d d615 1fbd 0c8b 103d a3f2 8cbd
00000160: 9e47 4bbc b789 9ebc bfbf a6bb b79e 96bd
00000170: b32e 02bc f45c 0b3d 8ebc 9db9 ad26 cabb
00000180: e41e b03c 253f 953c 4dc9 54bd adcb f83c
00000190: aa2d aebd 68f7 c9bd d89a 2bbd 2ea4 b93c
000001a0: 8a37 26bd b538 afbd 7814 b63c d52a 303c
000001b0: 9c89 b6bd 1dc6 d2bd 8dcd 96bd d7f1 3abd
000001c0: 86ed 163d eb7a 713d c3c7 b53b ba4a 91bd
000001d0: 3351 f03b 109a 393d 1faa bdbc 72fb 333d
000001e0: 4127 f1bc 9776 0c3c e867 6cbc 156c 09bd
000001f0: 2db7 a3bd b423 483d 9ed7 9dbc 2918 b7bc
00000200: e11f 8bbb 3688 5abd 2494 b9bc 205f c6ba
00000210: 2463 abbd 2244 86bd 3933 14bd 0f97 003d
00000220: 8bcd 4c3d 6858 c6bd b8c7 373d e11a 353d
00000230: ea29 293d df21 b1bd bf47 d3bc 2195 07bd
00000240: 1864 433d 3a0f 173d f111 8abd 58d0 773d
00000250: df55 e6bc 25eb 653c 6963 b1bd 91e5 73bd
00000260: 5e9b e4b9 c436 413d a8bb 83bd 99f2 91bc
00000270: 8f66 8d3d 01e5 aa3c e7b4 b3bd ccb7 4e3d
00000280: 922f 153c 0317 343d ea47 e7bc bf2d 45bd
00000290: 4864 3a3d d958 8db9 f34e c9bb c110 c83c
000002a0: 5e46 95bd 1120 3dbd 92a3 233d 9478 a4bd
000002b0: 38f1 84bd c377 433d 8cf8 a1bd 2bd9 a33b
000002c0: e63c 463d b653 c2bd b8f4 53bd 307a 2b3c
000002d0: fba9 2dbd e51a 91bd 7d88 c8bd 0f35 4d3c
000002e0: 0b85 d7bc c6b3 a23b e5cd b73c ad84 243d
000002f0: c0e8 80bd 52d2 63bd bfd1 a33d a939 763d
00000300: 982d a2bd b031 993d 3d75 9a3c 137b 873d
00000310: 01e7 bdbc 7488 80bd 8f34 643c 6741 acbc
00000320: 4b7e 9abd f861 10bd 94b6 5bbd 2d00 7bbd
00000330: cd69 b6bd e8e0 3ebd 5fd0 60bd 8420 df3c
00000340: f976 0f3c 54f9 0cbd a920 163c 761d 733d
00000350: 4992 013d ff1b 843d e8f6 1a3d c5e7 6fbd
00000360: 256e 843d 2fe3 16bd bb91 513b 7825 103d
00000370: 268e 6abc b8bc 603d 242b 713d 88d9 fd3c
00000380: 561d ec3c 12f0 363d 1cd2 b1bd a87f 573b
00000390: 5fb9 10bd 314f 3fbc 6463 7a3d decb 913b
000003a0: 43a1 a2bd cc34 653d e14d 3fbc f7bb 01bc
000003b0: d110 283d 2022 70bd 4b60 703d 3ae0 84bd
000003c0: 506c a5bd cff9 21bd 223d 373c 4dd3 b3bd
000003d0: ff8e 983d 7b92 803c cb7d 383c 4b33 133c
000003e0: f7d3 96bd 039b 253d 4bf6 20bb 9451 e93c
000003f0: e02f 41bd 1f83 9d3d b062 0fbe 75d2 093c

conv1.bias f4 [32]
-0.040235765 0.007993856 0.02136049 0.097144894 -0.051800005 0.007395878 -0.024651755 -0.0429158
0.030131327 0.04488697 -0.018744942 -0.030504031 0.010127097 -0.05721227 -0.08353008 -0.00034351763
-0.014793331 -0.041450996 -0.058201496 -0.05805029 -0.084365964 0.0069395415 -0.07435532 0.003910042
-0.012646243 -0.08455565 -0.039417718 -0.08737073 0.011052776 0.03547568 -0.03939603 -0.04439156
00000000: 42ce 24bd aaf8 023c 32fc ae3c e7f3 c63d
00000010: 3e2c 54bd 1f59 f23b 7af2 c9bc 7ac8 2fbd
00000020: f9d5 f63c 66db 373d fe8e 99bc 97e3 f9bc
00000030: 20ec 253c 6a57 6abd d211 abbd 281a b4b9
00000040: ba5f 72bc 85c8 29bd b164 6ebd 24c6 6dbd
00000050: 10c8 acbd 1865 e33b 9a47 98bd cf1f 803b
00000060: 3032 4fbc 832b adbd 7974 21bd 6def b2bd
00000070: b416 353c f24e 113d bb5d 21bd edd3 35bd

fc.weight f4 [5, 64]
-0.049381007 -0.04207006 0.00088070787 -0.037460715 -0.04505654 -0.06071064 0.06903577 0.0571182
0.06644681 -0.089292 -0.044993587 0.13199313 0.120937064 -0.06259425 -0.0777545 0.050719637
-0.097696684 -0.031644996 0.10117125 0.10515282 -0.0026424567 0.09176759 -0.057954427 0.007377949
0.1306908 -0.006985583 0.0043291165 -0.0146306185 -0.012596423 0.03518705 -0.09567667 0.1175345
0.037941337 0.04674964 0.11344622 -0.11144046 0.120087415 -0.10137686 0.08928655 0.11959044
0.010973163 -0.015548556 0.05739199 -0.019651951 -0.00090235233 0.05399162 0.060226902 0.05690874
-0.109978795 -0.08961839 0.09277748 -0.06115988 -0.085157566 -0.03478629 0.009162693 0.12514128
0.09773363 0.136172 -0.018993912 -0.001684999 0.025950966 -0.09671864 -0.10741098 -0.03430343
0.13722113 -0.08709626 -0.058737554 -0.10651328 -0.07033498 0.10441813 0.07014271 0.100829765
0.057427365 -0.05427293 0.11715107 -0.019939307 0.077133454 0.084247015 0.038148046 0.017091352
-0.091062985 -0.14602305 0.080858134 -0.061474446 0.13037428 0.121688925 -0.109970674 -0.090959124
0.070706055 0.08366022 0.07782755 -0.06496894 -0.040160067 -0.024399914 0.03762472 -0.027406
0.056664307 0.07601542 -0.06757003 0.10813307 -0.019061478 -0.0666199 -0.025951426 -0.056180377
-0.10207287 -0.13873199 -0.010587341 -0.092133105 0.014586149 0.05344268 0.03624374 0.009183368
0.04860442 -0.017730355 0.008739865 -0.057459593 -0.04219697 0.03629541 -0.10241869 -0.11693728
-0.08962318 0.031203374 -0.1605409 -0.024454933 -0.012904418 0.061430715 -0.019116305 0.041968152
-0.05098324 0.008271592 -0.108391814 0.12757695 0.029195534 0.10517391 0.08004314 0.068431765
-0.102002226 -0.08803359 0.004550894 0.12659127 0.034935087 0.024646508 0.11275828 -0.11285224
-0.06642872 -0.06340309 0.04467699 0.04028683 0.046304878 0.043176103 0.016795348 -0.10595407
-0.08930707 0.01918268 -0.0053821723 0.11558566 -0.036082044 -0.10533071 -0.0345584 0.059735928
0.11362991 0.08544291 -0.020852469 0.012278745 -0.07660906 -0.08483779 0.04651208 -0.038826004
0.026428167 0.10081445 0.03891734 -0.061672863 0.14196783 -0.0042673973 -0.08496377 0.0027692348
-0.08355004 -0.10596653 0.038211603 0.07697567 0.13175617 0.09932967 0.11462754 0.026811881
0.080359995 0.036808472 -0.10686827 -0.03326282 0.10617175 -0.020236796 0.030390399 0.0885775
0.01956492 -0.03961092 -0.084164865 0.0671147 0.041381273 0.049296975 0.09088067 0.024125513
0.08473972 -0.028889427 -0.05528226 -0.07528214 0.052941803 0.038469106 -0.07082223 0.03205998
-0.08671071 -0.030715512 0.14118269 -0.00067926943 0.12816197 -0.06520377 0.059653673 0.08617926
-0.081296675 -0.04460349 -0.06142808 -0.09164682 -0.005826761 -0.0011626624 0.010922178 0.12720676
0.007633991 0.037898205 -0.000931281 0.015116275 -0.07025119 0.04507187 -0.054796234 0.12695086
0.0836395 -0.13311362 0.121625416 0.03671048 0.013478975 0.07136364 0.06500204 0.05415552
-0.018422823 -0.08414839 0.0958295 0.04575835 0.1307853 -0.06752456 0.078438245 0.13044927
-0.0015665671 -0.035296287 -0.18825644 -0.049545206 0.06390034 0.047736976 0.105714835 0.10959352
00000000: bd43 4abd a851 2cbd 4edf 663a 6870 19bd
00000010: 358d 38bd b8ab 78bd a062 8d3d c6f4 693d
00000020: 4415 883d b9de b6bd 324b 38bd 3529 073e
00000030: daad f73d 6a31 80bd c03d 9fbd 65bf 4f3d
00000040: 3315 c8bd 2f9e 01bd df32 cf3d 5d5a d73d
00000050: 112d 2dbb a5f0 bb3d 9f61 6dbd b9c2 f13b
00000060: cfd3 053e 51e7 e4bb 43db 8d3b 43b5 6fbc
00000070: 3a61 4ebc 4c20 103d 21f2 c3bd eeb5 f03d
00000080: 6068 1b3d 8d7c 3f3d 7e56 e83d e53a e4bd
00000090: 64f0 f53d ac9e cfbd dedb b63d d5eb f43d
000000a0: c8c8 333c 5fbf 7ebc dd13 6b3d 21fd a0bc
000000b0: d78b 6cba 5126 5d3d 7cb0 763d 2419 693d
000000c0: 903c e1bd d989 b7bd 1f02 be3d c882 7abd
000000d0: 1767 aebd 127c 0ebd 1f1f 163c 0925 003e
000000e0: 9228 c83d ac70 0b3e 1f99 9bbc 2fdb dcba
000000f0: 1f97 d43c 6c14 c6bd 4afa dbbd c181 0cbd
00000100: b283 0c3e 865f b2bd ca96 70bd a223 dabd
00000110: c90b 90bd 2cd9 d53d fba6 8f3d d67f ce3d
00000120: f538 6b3d 4b4d 5ebd e6ec ef3d c257 a3bc
00000130: 25f8 9d3d b389 ac3d 2041 1c3d 2a03 8c3c
00000140: 3b7f babd 1187 15be f398 a53d a1cc 7bbd
00000150: d680 053e 0b38 f93d 4e38 e1bd c748 babd
00000160: 56ce 903d 0d56 ab3d 0d64 9f3d 700e 85bd
00000170: e27e 24bd 54e2 c7bc 611c 1a3d 8c82 e0bc
00000180: d518 683d f9ad 9b3d 2862 8abd df74 dd3d
00000190: d126 9cbc 0470 88bd 1698 d4bc 651d 66bd
000001a0: 950b d1bd c20f 0ebe 8776 2dbc 48b0 bcbd
000001b0: befa 6e3c b6e6 5a3d 5174 143d d675 163c
000001c0: 6e15 473d 403f 91bc a731 0f3c c05a 6bbd
000001d0: bbd6 2cbd 7faa 143d e4c0 d1bd d07c efbd
000001e0: 5c8c b7bd 389e ff3c d564 24be b655 c8bc
000001f0: 0d6d 53bc c69e 7b3d cc99 9cbc cce6 2b3d
00000200: cdd3 50bd 9285 073c 87fc ddbd 88a3 023e
00000210: 792b ef3c 6b65 d73d a8ed a33d f425 8c3d
00000220: 8be6 d0bd f44a b4bd aa1f 953b 24a1 013e
00000230: 1818 0f3d 79e7 c93c d0ed e63d 131f e7bd
00000240: c80b 88bd 7bd9 81bd 38ff 363d ce03 253d
00000250: 2faa 3d3d 6dd9 303d 6696 893c 73fe d8bd
00000260: a0e6 b6bd ff24 9d3c ef5c b0bb 2db8 ec3d
00000270: c4ca 13bd a1b7 d7bd 1c8d 0dbd a9ad 743d
00000280: ccb6 e83d b1fc ae3d ccd2 aabc ca2c 493c
00000290: 36e5 9cbd 6fbf adbd 7383 3e3d 0408 1fbd
000002a0: e27f d83c ce77 ce3d ca67 1f3d af9c 7cbd
000002b0: 0460 113e 86d5 8bbb 7c01 aebd 0d7c 353b
000002c0: 491c abbd fb04 d9bd c583 1c3d 6ca5 9d3d
000002d0: 17eb 063e 5b6d cb3d d8c1 ea3d 97a4 db3c
000002e0: c893 a43d 7bc4 163d c0dd dabd 983e 08bd
000002f0: 9370 d93d a3c7 a5bc 49f5 f83c 1f68 b53d
00000300: 9c46 a03c 0f3f 22bd a15e acbd 6f73 893d
00000310: 697f 293d a0eb 493d a51f ba3d dea2 c53c
00000320: 058c ad3d 85a9 ecbc a76f 62bd 862d 9abd
00000330: 81d9 583d c891 1d3d 3f0b 91bd 5351 033d
00000340: 6295 b1bd 199f fbbc 3292 103e 0011 32ba
00000350: e43c 033e 8e89 85bd 6957 743d c07e b03d
00000360: df7e a6bd 26b2 36bd 039c 7bbd 54b1 bbbd
00000370: 6aee bebb 7a64 98ba eff2 323c 7d42 023e
00000380: 8f26 fa3b 263b 1b3d 3621 74ba 41aa 773c
00000390: dbdf 8fbd 489d 383d 0472 60bd 68ff 013e
000003a0: 304b ab3d f04e 08be bf16 f93d ba5d 163d
000003b0: ebd6 5c3c 1a27 923d ca1f 853d 2ed2 5d3d
000003c0: 76eb 96bc fe55 acbd 4242 c43d 1c6d 3b3d
000003d0: 95ec 053e 514a 8abd 3ba4 a03d 7e94 053e
000003e0: 4555 cdba d792 10bd 4cc6 40be eaef 4abd
000003f0: 2ede 823d d987 433d 0581 d83d 9172 e03d

fc.bias f4 [5]
-0.0787347 0.006443126 -0.101164885 0.065473266 0.07645507
00000000: a93f a1bd dc20 d33b 892f cfbd d916 863d
00000010: 7a94 9c3d
